backend: tensorflow
class_name: Model
config:
  input_layers:
  - - input_3
    - 0
    - 0
  layers:
  - class_name: InputLayer
    config:
      batch_input_shape: !!python/tuple
      - null
      - 224
      - 224
      - 3
      dtype: float32
      name: input_3
      sparse: false
    inbound_nodes: []
    name: input_3
  - class_name: Conv2D
    config:
      activation: linear
      activity_regularizer: null
      bias_constraint: null
      bias_initializer:
        class_name: Zeros
        config: {}
      bias_regularizer: null
      data_format: channels_last
      dilation_rate: &id001 !!python/tuple
      - 1
      - 1
      dtype: float32
      filters: 32
      kernel_constraint: null
      kernel_initializer:
        class_name: VarianceScaling
        config:
          distribution: uniform
          mode: fan_avg
          scale: 1.0
          seed: null
      kernel_regularizer: null
      kernel_size: !!python/tuple
      - 3
      - 3
      name: conv2d_95
      padding: valid
      strides: !!python/tuple
      - 2
      - 2
      trainable: true
      use_bias: false
    inbound_nodes:
    - - - input_3
        - 0
        - 0
        - {}
    name: conv2d_95
  - class_name: BatchNormalization
    config:
      axis: 3
      beta_constraint: null
      beta_initializer:
        class_name: Zeros
        config: {}
      beta_regularizer: null
      center: true
      dtype: float32
      epsilon: 0.001
      gamma_constraint: null
      gamma_initializer:
        class_name: Ones
        config: {}
      gamma_regularizer: null
      momentum: 0.99
      moving_mean_initializer:
        class_name: Zeros
        config: {}
      moving_variance_initializer:
        class_name: Ones
        config: {}
      name: batch_normalization_95
      scale: false
      trainable: true
    inbound_nodes:
    - - - conv2d_95
        - 0
        - 0
        - {}
    name: batch_normalization_95
  - class_name: Activation
    config:
      activation: relu
      dtype: float32
      name: activation_144
      trainable: true
    inbound_nodes:
    - - - batch_normalization_95
        - 0
        - 0
        - {}
    name: activation_144
  - class_name: Conv2D
    config:
      activation: linear
      activity_regularizer: null
      bias_constraint: null
      bias_initializer:
        class_name: Zeros
        config: {}
      bias_regularizer: null
      data_format: channels_last
      dilation_rate: *id001
      dtype: float32
      filters: 32
      kernel_constraint: null
      kernel_initializer:
        class_name: VarianceScaling
        config:
          distribution: uniform
          mode: fan_avg
          scale: 1.0
          seed: null
      kernel_regularizer: null
      kernel_size: !!python/tuple
      - 3
      - 3
      name: conv2d_96
      padding: valid
      strides: &id002 !!python/tuple
      - 1
      - 1
      trainable: true
      use_bias: false
    inbound_nodes:
    - - - activation_144
        - 0
        - 0
        - {}
    name: conv2d_96
  - class_name: BatchNormalization
    config:
      axis: 3
      beta_constraint: null
      beta_initializer:
        class_name: Zeros
        config: {}
      beta_regularizer: null
      center: true
      dtype: float32
      epsilon: 0.001
      gamma_constraint: null
      gamma_initializer:
        class_name: Ones
        config: {}
      gamma_regularizer: null
      momentum: 0.99
      moving_mean_initializer:
        class_name: Zeros
        config: {}
      moving_variance_initializer:
        class_name: Ones
        config: {}
      name: batch_normalization_96
      scale: false
      trainable: true
    inbound_nodes:
    - - - conv2d_96
        - 0
        - 0
        - {}
    name: batch_normalization_96
  - class_name: Activation
    config:
      activation: relu
      dtype: float32
      name: activation_145
      trainable: true
    inbound_nodes:
    - - - batch_normalization_96
        - 0
        - 0
        - {}
    name: activation_145
  - class_name: Conv2D
    config:
      activation: linear
      activity_regularizer: null
      bias_constraint: null
      bias_initializer:
        class_name: Zeros
        config: {}
      bias_regularizer: null
      data_format: channels_last
      dilation_rate: *id001
      dtype: float32
      filters: 64
      kernel_constraint: null
      kernel_initializer:
        class_name: VarianceScaling
        config:
          distribution: uniform
          mode: fan_avg
          scale: 1.0
          seed: null
      kernel_regularizer: null
      kernel_size: !!python/tuple
      - 3
      - 3
      name: conv2d_97
      padding: same
      strides: *id002
      trainable: true
      use_bias: false
    inbound_nodes:
    - - - activation_145
        - 0
        - 0
        - {}
    name: conv2d_97
  - class_name: BatchNormalization
    config:
      axis: 3
      beta_constraint: null
      beta_initializer:
        class_name: Zeros
        config: {}
      beta_regularizer: null
      center: true
      dtype: float32
      epsilon: 0.001
      gamma_constraint: null
      gamma_initializer:
        class_name: Ones
        config: {}
      gamma_regularizer: null
      momentum: 0.99
      moving_mean_initializer:
        class_name: Zeros
        config: {}
      moving_variance_initializer:
        class_name: Ones
        config: {}
      name: batch_normalization_97
      scale: false
      trainable: true
    inbound_nodes:
    - - - conv2d_97
        - 0
        - 0
        - {}
    name: batch_normalization_97
  - class_name: Activation
    config:
      activation: relu
      dtype: float32
      name: activation_146
      trainable: true
    inbound_nodes:
    - - - batch_normalization_97
        - 0
        - 0
        - {}
    name: activation_146
  - class_name: MaxPooling2D
    config:
      data_format: channels_last
      dtype: float32
      name: max_pooling2d_6
      padding: valid
      pool_size: !!python/tuple
      - 3
      - 3
      strides: !!python/tuple
      - 2
      - 2
      trainable: true
    inbound_nodes:
    - - - activation_146
        - 0
        - 0
        - {}
    name: max_pooling2d_6
  - class_name: Conv2D
    config:
      activation: linear
      activity_regularizer: null
      bias_constraint: null
      bias_initializer:
        class_name: Zeros
        config: {}
      bias_regularizer: null
      data_format: channels_last
      dilation_rate: *id001
      dtype: float32
      filters: 80
      kernel_constraint: null
      kernel_initializer:
        class_name: VarianceScaling
        config:
          distribution: uniform
          mode: fan_avg
          scale: 1.0
          seed: null
      kernel_regularizer: null
      kernel_size: !!python/tuple
      - 1
      - 1
      name: conv2d_98
      padding: valid
      strides: *id002
      trainable: true
      use_bias: false
    inbound_nodes:
    - - - max_pooling2d_6
        - 0
        - 0
        - {}
    name: conv2d_98
  - class_name: BatchNormalization
    config:
      axis: 3
      beta_constraint: null
      beta_initializer:
        class_name: Zeros
        config: {}
      beta_regularizer: null
      center: true
      dtype: float32
      epsilon: 0.001
      gamma_constraint: null
      gamma_initializer:
        class_name: Ones
        config: {}
      gamma_regularizer: null
      momentum: 0.99
      moving_mean_initializer:
        class_name: Zeros
        config: {}
      moving_variance_initializer:
        class_name: Ones
        config: {}
      name: batch_normalization_98
      scale: false
      trainable: true
    inbound_nodes:
    - - - conv2d_98
        - 0
        - 0
        - {}
    name: batch_normalization_98
  - class_name: Activation
    config:
      activation: relu
      dtype: float32
      name: activation_147
      trainable: true
    inbound_nodes:
    - - - batch_normalization_98
        - 0
        - 0
        - {}
    name: activation_147
  - class_name: Conv2D
    config:
      activation: linear
      activity_regularizer: null
      bias_constraint: null
      bias_initializer:
        class_name: Zeros
        config: {}
      bias_regularizer: null
      data_format: channels_last
      dilation_rate: *id001
      dtype: float32
      filters: 192
      kernel_constraint: null
      kernel_initializer:
        class_name: VarianceScaling
        config:
          distribution: uniform
          mode: fan_avg
          scale: 1.0
          seed: null
      kernel_regularizer: null
      kernel_size: !!python/tuple
      - 3
      - 3
      name: conv2d_99
      padding: valid
      strides: *id002
      trainable: true
      use_bias: false
    inbound_nodes:
    - - - activation_147
        - 0
        - 0
        - {}
    name: conv2d_99
  - class_name: BatchNormalization
    config:
      axis: 3
      beta_constraint: null
      beta_initializer:
        class_name: Zeros
        config: {}
      beta_regularizer: null
      center: true
      dtype: float32
      epsilon: 0.001
      gamma_constraint: null
      gamma_initializer:
        class_name: Ones
        config: {}
      gamma_regularizer: null
      momentum: 0.99
      moving_mean_initializer:
        class_name: Zeros
        config: {}
      moving_variance_initializer:
        class_name: Ones
        config: {}
      name: batch_normalization_99
      scale: false
      trainable: true
    inbound_nodes:
    - - - conv2d_99
        - 0
        - 0
        - {}
    name: batch_normalization_99
  - class_name: Activation
    config:
      activation: relu
      dtype: float32
      name: activation_148
      trainable: true
    inbound_nodes:
    - - - batch_normalization_99
        - 0
        - 0
        - {}
    name: activation_148
  - class_name: MaxPooling2D
    config:
      data_format: channels_last
      dtype: float32
      name: max_pooling2d_7
      padding: valid
      pool_size: !!python/tuple
      - 3
      - 3
      strides: !!python/tuple
      - 2
      - 2
      trainable: true
    inbound_nodes:
    - - - activation_148
        - 0
        - 0
        - {}
    name: max_pooling2d_7
  - class_name: Conv2D
    config:
      activation: linear
      activity_regularizer: null
      bias_constraint: null
      bias_initializer:
        class_name: Zeros
        config: {}
      bias_regularizer: null
      data_format: channels_last
      dilation_rate: *id001
      dtype: float32
      filters: 64
      kernel_constraint: null
      kernel_initializer:
        class_name: VarianceScaling
        config:
          distribution: uniform
          mode: fan_avg
          scale: 1.0
          seed: null
      kernel_regularizer: null
      kernel_size: !!python/tuple
      - 1
      - 1
      name: conv2d_103
      padding: same
      strides: *id002
      trainable: true
      use_bias: false
    inbound_nodes:
    - - - max_pooling2d_7
        - 0
        - 0
        - {}
    name: conv2d_103
  - class_name: BatchNormalization
    config:
      axis: 3
      beta_constraint: null
      beta_initializer:
        class_name: Zeros
        config: {}
      beta_regularizer: null
      center: true
      dtype: float32
      epsilon: 0.001
      gamma_constraint: null
      gamma_initializer:
        class_name: Ones
        config: {}
      gamma_regularizer: null
      momentum: 0.99
      moving_mean_initializer:
        class_name: Zeros
        config: {}
      moving_variance_initializer:
        class_name: Ones
        config: {}
      name: batch_normalization_103
      scale: false
      trainable: true
    inbound_nodes:
    - - - conv2d_103
        - 0
        - 0
        - {}
    name: batch_normalization_103
  - class_name: Activation
    config:
      activation: relu
      dtype: float32
      name: activation_152
      trainable: true
    inbound_nodes:
    - - - batch_normalization_103
        - 0
        - 0
        - {}
    name: activation_152
  - class_name: Conv2D
    config:
      activation: linear
      activity_regularizer: null
      bias_constraint: null
      bias_initializer:
        class_name: Zeros
        config: {}
      bias_regularizer: null
      data_format: channels_last
      dilation_rate: *id001
      dtype: float32
      filters: 48
      kernel_constraint: null
      kernel_initializer:
        class_name: VarianceScaling
        config:
          distribution: uniform
          mode: fan_avg
          scale: 1.0
          seed: null
      kernel_regularizer: null
      kernel_size: !!python/tuple
      - 1
      - 1
      name: conv2d_101
      padding: same
      strides: *id002
      trainable: true
      use_bias: false
    inbound_nodes:
    - - - max_pooling2d_7
        - 0
        - 0
        - {}
    name: conv2d_101
  - class_name: Conv2D
    config:
      activation: linear
      activity_regularizer: null
      bias_constraint: null
      bias_initializer:
        class_name: Zeros
        config: {}
      bias_regularizer: null
      data_format: channels_last
      dilation_rate: *id001
      dtype: float32
      filters: 96
      kernel_constraint: null
      kernel_initializer:
        class_name: VarianceScaling
        config:
          distribution: uniform
          mode: fan_avg
          scale: 1.0
          seed: null
      kernel_regularizer: null
      kernel_size: !!python/tuple
      - 3
      - 3
      name: conv2d_104
      padding: same
      strides: *id002
      trainable: true
      use_bias: false
    inbound_nodes:
    - - - activation_152
        - 0
        - 0
        - {}
    name: conv2d_104
  - class_name: BatchNormalization
    config:
      axis: 3
      beta_constraint: null
      beta_initializer:
        class_name: Zeros
        config: {}
      beta_regularizer: null
      center: true
      dtype: float32
      epsilon: 0.001
      gamma_constraint: null
      gamma_initializer:
        class_name: Ones
        config: {}
      gamma_regularizer: null
      momentum: 0.99
      moving_mean_initializer:
        class_name: Zeros
        config: {}
      moving_variance_initializer:
        class_name: Ones
        config: {}
      name: batch_normalization_101
      scale: false
      trainable: true
    inbound_nodes:
    - - - conv2d_101
        - 0
        - 0
        - {}
    name: batch_normalization_101
  - class_name: BatchNormalization
    config:
      axis: 3
      beta_constraint: null
      beta_initializer:
        class_name: Zeros
        config: {}
      beta_regularizer: null
      center: true
      dtype: float32
      epsilon: 0.001
      gamma_constraint: null
      gamma_initializer:
        class_name: Ones
        config: {}
      gamma_regularizer: null
      momentum: 0.99
      moving_mean_initializer:
        class_name: Zeros
        config: {}
      moving_variance_initializer:
        class_name: Ones
        config: {}
      name: batch_normalization_104
      scale: false
      trainable: true
    inbound_nodes:
    - - - conv2d_104
        - 0
        - 0
        - {}
    name: batch_normalization_104
  - class_name: Activation
    config:
      activation: relu
      dtype: float32
      name: activation_150
      trainable: true
    inbound_nodes:
    - - - batch_normalization_101
        - 0
        - 0
        - {}
    name: activation_150
  - class_name: Activation
    config:
      activation: relu
      dtype: float32
      name: activation_153
      trainable: true
    inbound_nodes:
    - - - batch_normalization_104
        - 0
        - 0
        - {}
    name: activation_153
  - class_name: AveragePooling2D
    config:
      data_format: channels_last
      dtype: float32
      name: average_pooling2d_10
      padding: same
      pool_size: !!python/tuple
      - 3
      - 3
      strides: !!python/tuple
      - 1
      - 1
      trainable: true
    inbound_nodes:
    - - - max_pooling2d_7
        - 0
        - 0
        - {}
    name: average_pooling2d_10
  - class_name: Conv2D
    config:
      activation: linear
      activity_regularizer: null
      bias_constraint: null
      bias_initializer:
        class_name: Zeros
        config: {}
      bias_regularizer: null
      data_format: channels_last
      dilation_rate: *id001
      dtype: float32
      filters: 64
      kernel_constraint: null
      kernel_initializer:
        class_name: VarianceScaling
        config:
          distribution: uniform
          mode: fan_avg
          scale: 1.0
          seed: null
      kernel_regularizer: null
      kernel_size: !!python/tuple
      - 1
      - 1
      name: conv2d_100
      padding: same
      strides: *id002
      trainable: true
      use_bias: false
    inbound_nodes:
    - - - max_pooling2d_7
        - 0
        - 0
        - {}
    name: conv2d_100
  - class_name: Conv2D
    config:
      activation: linear
      activity_regularizer: null
      bias_constraint: null
      bias_initializer:
        class_name: Zeros
        config: {}
      bias_regularizer: null
      data_format: channels_last
      dilation_rate: *id001
      dtype: float32
      filters: 64
      kernel_constraint: null
      kernel_initializer:
        class_name: VarianceScaling
        config:
          distribution: uniform
          mode: fan_avg
          scale: 1.0
          seed: null
      kernel_regularizer: null
      kernel_size: !!python/tuple
      - 5
      - 5
      name: conv2d_102
      padding: same
      strides: *id002
      trainable: true
      use_bias: false
    inbound_nodes:
    - - - activation_150
        - 0
        - 0
        - {}
    name: conv2d_102
  - class_name: Conv2D
    config:
      activation: linear
      activity_regularizer: null
      bias_constraint: null
      bias_initializer:
        class_name: Zeros
        config: {}
      bias_regularizer: null
      data_format: channels_last
      dilation_rate: *id001
      dtype: float32
      filters: 96
      kernel_constraint: null
      kernel_initializer:
        class_name: VarianceScaling
        config:
          distribution: uniform
          mode: fan_avg
          scale: 1.0
          seed: null
      kernel_regularizer: null
      kernel_size: !!python/tuple
      - 3
      - 3
      name: conv2d_105
      padding: same
      strides: *id002
      trainable: true
      use_bias: false
    inbound_nodes:
    - - - activation_153
        - 0
        - 0
        - {}
    name: conv2d_105
  - class_name: Conv2D
    config:
      activation: linear
      activity_regularizer: null
      bias_constraint: null
      bias_initializer:
        class_name: Zeros
        config: {}
      bias_regularizer: null
      data_format: channels_last
      dilation_rate: *id001
      dtype: float32
      filters: 32
      kernel_constraint: null
      kernel_initializer:
        class_name: VarianceScaling
        config:
          distribution: uniform
          mode: fan_avg
          scale: 1.0
          seed: null
      kernel_regularizer: null
      kernel_size: !!python/tuple
      - 1
      - 1
      name: conv2d_106
      padding: same
      strides: *id002
      trainable: true
      use_bias: false
    inbound_nodes:
    - - - average_pooling2d_10
        - 0
        - 0
        - {}
    name: conv2d_106
  - class_name: BatchNormalization
    config:
      axis: 3
      beta_constraint: null
      beta_initializer:
        class_name: Zeros
        config: {}
      beta_regularizer: null
      center: true
      dtype: float32
      epsilon: 0.001
      gamma_constraint: null
      gamma_initializer:
        class_name: Ones
        config: {}
      gamma_regularizer: null
      momentum: 0.99
      moving_mean_initializer:
        class_name: Zeros
        config: {}
      moving_variance_initializer:
        class_name: Ones
        config: {}
      name: batch_normalization_100
      scale: false
      trainable: true
    inbound_nodes:
    - - - conv2d_100
        - 0
        - 0
        - {}
    name: batch_normalization_100
  - class_name: BatchNormalization
    config:
      axis: 3
      beta_constraint: null
      beta_initializer:
        class_name: Zeros
        config: {}
      beta_regularizer: null
      center: true
      dtype: float32
      epsilon: 0.001
      gamma_constraint: null
      gamma_initializer:
        class_name: Ones
        config: {}
      gamma_regularizer: null
      momentum: 0.99
      moving_mean_initializer:
        class_name: Zeros
        config: {}
      moving_variance_initializer:
        class_name: Ones
        config: {}
      name: batch_normalization_102
      scale: false
      trainable: true
    inbound_nodes:
    - - - conv2d_102
        - 0
        - 0
        - {}
    name: batch_normalization_102
  - class_name: BatchNormalization
    config:
      axis: 3
      beta_constraint: null
      beta_initializer:
        class_name: Zeros
        config: {}
      beta_regularizer: null
      center: true
      dtype: float32
      epsilon: 0.001
      gamma_constraint: null
      gamma_initializer:
        class_name: Ones
        config: {}
      gamma_regularizer: null
      momentum: 0.99
      moving_mean_initializer:
        class_name: Zeros
        config: {}
      moving_variance_initializer:
        class_name: Ones
        config: {}
      name: batch_normalization_105
      scale: false
      trainable: true
    inbound_nodes:
    - - - conv2d_105
        - 0
        - 0
        - {}
    name: batch_normalization_105
  - class_name: BatchNormalization
    config:
      axis: 3
      beta_constraint: null
      beta_initializer:
        class_name: Zeros
        config: {}
      beta_regularizer: null
      center: true
      dtype: float32
      epsilon: 0.001
      gamma_constraint: null
      gamma_initializer:
        class_name: Ones
        config: {}
      gamma_regularizer: null
      momentum: 0.99
      moving_mean_initializer:
        class_name: Zeros
        config: {}
      moving_variance_initializer:
        class_name: Ones
        config: {}
      name: batch_normalization_106
      scale: false
      trainable: true
    inbound_nodes:
    - - - conv2d_106
        - 0
        - 0
        - {}
    name: batch_normalization_106
  - class_name: Activation
    config:
      activation: relu
      dtype: float32
      name: activation_149
      trainable: true
    inbound_nodes:
    - - - batch_normalization_100
        - 0
        - 0
        - {}
    name: activation_149
  - class_name: Activation
    config:
      activation: relu
      dtype: float32
      name: activation_151
      trainable: true
    inbound_nodes:
    - - - batch_normalization_102
        - 0
        - 0
        - {}
    name: activation_151
  - class_name: Activation
    config:
      activation: relu
      dtype: float32
      name: activation_154
      trainable: true
    inbound_nodes:
    - - - batch_normalization_105
        - 0
        - 0
        - {}
    name: activation_154
  - class_name: Activation
    config:
      activation: relu
      dtype: float32
      name: activation_155
      trainable: true
    inbound_nodes:
    - - - batch_normalization_106
        - 0
        - 0
        - {}
    name: activation_155
  - class_name: Concatenate
    config:
      axis: 3
      dtype: float32
      name: mixed0
      trainable: true
    inbound_nodes:
    - - - activation_149
        - 0
        - 0
        - &id003 {}
      - - activation_151
        - 0
        - 0
        - *id003
      - - activation_154
        - 0
        - 0
        - *id003
      - - activation_155
        - 0
        - 0
        - *id003
    name: mixed0
  - class_name: Conv2D
    config:
      activation: linear
      activity_regularizer: null
      bias_constraint: null
      bias_initializer:
        class_name: Zeros
        config: {}
      bias_regularizer: null
      data_format: channels_last
      dilation_rate: *id001
      dtype: float32
      filters: 64
      kernel_constraint: null
      kernel_initializer:
        class_name: VarianceScaling
        config:
          distribution: uniform
          mode: fan_avg
          scale: 1.0
          seed: null
      kernel_regularizer: null
      kernel_size: !!python/tuple
      - 1
      - 1
      name: conv2d_110
      padding: same
      strides: *id002
      trainable: true
      use_bias: false
    inbound_nodes:
    - - - mixed0
        - 0
        - 0
        - {}
    name: conv2d_110
  - class_name: BatchNormalization
    config:
      axis: 3
      beta_constraint: null
      beta_initializer:
        class_name: Zeros
        config: {}
      beta_regularizer: null
      center: true
      dtype: float32
      epsilon: 0.001
      gamma_constraint: null
      gamma_initializer:
        class_name: Ones
        config: {}
      gamma_regularizer: null
      momentum: 0.99
      moving_mean_initializer:
        class_name: Zeros
        config: {}
      moving_variance_initializer:
        class_name: Ones
        config: {}
      name: batch_normalization_110
      scale: false
      trainable: true
    inbound_nodes:
    - - - conv2d_110
        - 0
        - 0
        - {}
    name: batch_normalization_110
  - class_name: Activation
    config:
      activation: relu
      dtype: float32
      name: activation_159
      trainable: true
    inbound_nodes:
    - - - batch_normalization_110
        - 0
        - 0
        - {}
    name: activation_159
  - class_name: Conv2D
    config:
      activation: linear
      activity_regularizer: null
      bias_constraint: null
      bias_initializer:
        class_name: Zeros
        config: {}
      bias_regularizer: null
      data_format: channels_last
      dilation_rate: *id001
      dtype: float32
      filters: 48
      kernel_constraint: null
      kernel_initializer:
        class_name: VarianceScaling
        config:
          distribution: uniform
          mode: fan_avg
          scale: 1.0
          seed: null
      kernel_regularizer: null
      kernel_size: !!python/tuple
      - 1
      - 1
      name: conv2d_108
      padding: same
      strides: *id002
      trainable: true
      use_bias: false
    inbound_nodes:
    - - - mixed0
        - 0
        - 0
        - {}
    name: conv2d_108
  - class_name: Conv2D
    config:
      activation: linear
      activity_regularizer: null
      bias_constraint: null
      bias_initializer:
        class_name: Zeros
        config: {}
      bias_regularizer: null
      data_format: channels_last
      dilation_rate: *id001
      dtype: float32
      filters: 96
      kernel_constraint: null
      kernel_initializer:
        class_name: VarianceScaling
        config:
          distribution: uniform
          mode: fan_avg
          scale: 1.0
          seed: null
      kernel_regularizer: null
      kernel_size: !!python/tuple
      - 3
      - 3
      name: conv2d_111
      padding: same
      strides: *id002
      trainable: true
      use_bias: false
    inbound_nodes:
    - - - activation_159
        - 0
        - 0
        - {}
    name: conv2d_111
  - class_name: BatchNormalization
    config:
      axis: 3
      beta_constraint: null
      beta_initializer:
        class_name: Zeros
        config: {}
      beta_regularizer: null
      center: true
      dtype: float32
      epsilon: 0.001
      gamma_constraint: null
      gamma_initializer:
        class_name: Ones
        config: {}
      gamma_regularizer: null
      momentum: 0.99
      moving_mean_initializer:
        class_name: Zeros
        config: {}
      moving_variance_initializer:
        class_name: Ones
        config: {}
      name: batch_normalization_108
      scale: false
      trainable: true
    inbound_nodes:
    - - - conv2d_108
        - 0
        - 0
        - {}
    name: batch_normalization_108
  - class_name: BatchNormalization
    config:
      axis: 3
      beta_constraint: null
      beta_initializer:
        class_name: Zeros
        config: {}
      beta_regularizer: null
      center: true
      dtype: float32
      epsilon: 0.001
      gamma_constraint: null
      gamma_initializer:
        class_name: Ones
        config: {}
      gamma_regularizer: null
      momentum: 0.99
      moving_mean_initializer:
        class_name: Zeros
        config: {}
      moving_variance_initializer:
        class_name: Ones
        config: {}
      name: batch_normalization_111
      scale: false
      trainable: true
    inbound_nodes:
    - - - conv2d_111
        - 0
        - 0
        - {}
    name: batch_normalization_111
  - class_name: Activation
    config:
      activation: relu
      dtype: float32
      name: activation_157
      trainable: true
    inbound_nodes:
    - - - batch_normalization_108
        - 0
        - 0
        - {}
    name: activation_157
  - class_name: Activation
    config:
      activation: relu
      dtype: float32
      name: activation_160
      trainable: true
    inbound_nodes:
    - - - batch_normalization_111
        - 0
        - 0
        - {}
    name: activation_160
  - class_name: AveragePooling2D
    config:
      data_format: channels_last
      dtype: float32
      name: average_pooling2d_11
      padding: same
      pool_size: !!python/tuple
      - 3
      - 3
      strides: !!python/tuple
      - 1
      - 1
      trainable: true
    inbound_nodes:
    - - - mixed0
        - 0
        - 0
        - {}
    name: average_pooling2d_11
  - class_name: Conv2D
    config:
      activation: linear
      activity_regularizer: null
      bias_constraint: null
      bias_initializer:
        class_name: Zeros
        config: {}
      bias_regularizer: null
      data_format: channels_last
      dilation_rate: *id001
      dtype: float32
      filters: 64
      kernel_constraint: null
      kernel_initializer:
        class_name: VarianceScaling
        config:
          distribution: uniform
          mode: fan_avg
          scale: 1.0
          seed: null
      kernel_regularizer: null
      kernel_size: !!python/tuple
      - 1
      - 1
      name: conv2d_107
      padding: same
      strides: *id002
      trainable: true
      use_bias: false
    inbound_nodes:
    - - - mixed0
        - 0
        - 0
        - {}
    name: conv2d_107
  - class_name: Conv2D
    config:
      activation: linear
      activity_regularizer: null
      bias_constraint: null
      bias_initializer:
        class_name: Zeros
        config: {}
      bias_regularizer: null
      data_format: channels_last
      dilation_rate: *id001
      dtype: float32
      filters: 64
      kernel_constraint: null
      kernel_initializer:
        class_name: VarianceScaling
        config:
          distribution: uniform
          mode: fan_avg
          scale: 1.0
          seed: null
      kernel_regularizer: null
      kernel_size: !!python/tuple
      - 5
      - 5
      name: conv2d_109
      padding: same
      strides: *id002
      trainable: true
      use_bias: false
    inbound_nodes:
    - - - activation_157
        - 0
        - 0
        - {}
    name: conv2d_109
  - class_name: Conv2D
    config:
      activation: linear
      activity_regularizer: null
      bias_constraint: null
      bias_initializer:
        class_name: Zeros
        config: {}
      bias_regularizer: null
      data_format: channels_last
      dilation_rate: *id001
      dtype: float32
      filters: 96
      kernel_constraint: null
      kernel_initializer:
        class_name: VarianceScaling
        config:
          distribution: uniform
          mode: fan_avg
          scale: 1.0
          seed: null
      kernel_regularizer: null
      kernel_size: !!python/tuple
      - 3
      - 3
      name: conv2d_112
      padding: same
      strides: *id002
      trainable: true
      use_bias: false
    inbound_nodes:
    - - - activation_160
        - 0
        - 0
        - {}
    name: conv2d_112
  - class_name: Conv2D
    config:
      activation: linear
      activity_regularizer: null
      bias_constraint: null
      bias_initializer:
        class_name: Zeros
        config: {}
      bias_regularizer: null
      data_format: channels_last
      dilation_rate: *id001
      dtype: float32
      filters: 64
      kernel_constraint: null
      kernel_initializer:
        class_name: VarianceScaling
        config:
          distribution: uniform
          mode: fan_avg
          scale: 1.0
          seed: null
      kernel_regularizer: null
      kernel_size: !!python/tuple
      - 1
      - 1
      name: conv2d_113
      padding: same
      strides: *id002
      trainable: true
      use_bias: false
    inbound_nodes:
    - - - average_pooling2d_11
        - 0
        - 0
        - {}
    name: conv2d_113
  - class_name: BatchNormalization
    config:
      axis: 3
      beta_constraint: null
      beta_initializer:
        class_name: Zeros
        config: {}
      beta_regularizer: null
      center: true
      dtype: float32
      epsilon: 0.001
      gamma_constraint: null
      gamma_initializer:
        class_name: Ones
        config: {}
      gamma_regularizer: null
      momentum: 0.99
      moving_mean_initializer:
        class_name: Zeros
        config: {}
      moving_variance_initializer:
        class_name: Ones
        config: {}
      name: batch_normalization_107
      scale: false
      trainable: true
    inbound_nodes:
    - - - conv2d_107
        - 0
        - 0
        - {}
    name: batch_normalization_107
  - class_name: BatchNormalization
    config:
      axis: 3
      beta_constraint: null
      beta_initializer:
        class_name: Zeros
        config: {}
      beta_regularizer: null
      center: true
      dtype: float32
      epsilon: 0.001
      gamma_constraint: null
      gamma_initializer:
        class_name: Ones
        config: {}
      gamma_regularizer: null
      momentum: 0.99
      moving_mean_initializer:
        class_name: Zeros
        config: {}
      moving_variance_initializer:
        class_name: Ones
        config: {}
      name: batch_normalization_109
      scale: false
      trainable: true
    inbound_nodes:
    - - - conv2d_109
        - 0
        - 0
        - {}
    name: batch_normalization_109
  - class_name: BatchNormalization
    config:
      axis: 3
      beta_constraint: null
      beta_initializer:
        class_name: Zeros
        config: {}
      beta_regularizer: null
      center: true
      dtype: float32
      epsilon: 0.001
      gamma_constraint: null
      gamma_initializer:
        class_name: Ones
        config: {}
      gamma_regularizer: null
      momentum: 0.99
      moving_mean_initializer:
        class_name: Zeros
        config: {}
      moving_variance_initializer:
        class_name: Ones
        config: {}
      name: batch_normalization_112
      scale: false
      trainable: true
    inbound_nodes:
    - - - conv2d_112
        - 0
        - 0
        - {}
    name: batch_normalization_112
  - class_name: BatchNormalization
    config:
      axis: 3
      beta_constraint: null
      beta_initializer:
        class_name: Zeros
        config: {}
      beta_regularizer: null
      center: true
      dtype: float32
      epsilon: 0.001
      gamma_constraint: null
      gamma_initializer:
        class_name: Ones
        config: {}
      gamma_regularizer: null
      momentum: 0.99
      moving_mean_initializer:
        class_name: Zeros
        config: {}
      moving_variance_initializer:
        class_name: Ones
        config: {}
      name: batch_normalization_113
      scale: false
      trainable: true
    inbound_nodes:
    - - - conv2d_113
        - 0
        - 0
        - {}
    name: batch_normalization_113
  - class_name: Activation
    config:
      activation: relu
      dtype: float32
      name: activation_156
      trainable: true
    inbound_nodes:
    - - - batch_normalization_107
        - 0
        - 0
        - {}
    name: activation_156
  - class_name: Activation
    config:
      activation: relu
      dtype: float32
      name: activation_158
      trainable: true
    inbound_nodes:
    - - - batch_normalization_109
        - 0
        - 0
        - {}
    name: activation_158
  - class_name: Activation
    config:
      activation: relu
      dtype: float32
      name: activation_161
      trainable: true
    inbound_nodes:
    - - - batch_normalization_112
        - 0
        - 0
        - {}
    name: activation_161
  - class_name: Activation
    config:
      activation: relu
      dtype: float32
      name: activation_162
      trainable: true
    inbound_nodes:
    - - - batch_normalization_113
        - 0
        - 0
        - {}
    name: activation_162
  - class_name: Concatenate
    config:
      axis: 3
      dtype: float32
      name: mixed1
      trainable: true
    inbound_nodes:
    - - - activation_156
        - 0
        - 0
        - &id004 {}
      - - activation_158
        - 0
        - 0
        - *id004
      - - activation_161
        - 0
        - 0
        - *id004
      - - activation_162
        - 0
        - 0
        - *id004
    name: mixed1
  - class_name: Conv2D
    config:
      activation: linear
      activity_regularizer: null
      bias_constraint: null
      bias_initializer:
        class_name: Zeros
        config: {}
      bias_regularizer: null
      data_format: channels_last
      dilation_rate: *id001
      dtype: float32
      filters: 64
      kernel_constraint: null
      kernel_initializer:
        class_name: VarianceScaling
        config:
          distribution: uniform
          mode: fan_avg
          scale: 1.0
          seed: null
      kernel_regularizer: null
      kernel_size: !!python/tuple
      - 1
      - 1
      name: conv2d_117
      padding: same
      strides: *id002
      trainable: true
      use_bias: false
    inbound_nodes:
    - - - mixed1
        - 0
        - 0
        - {}
    name: conv2d_117
  - class_name: BatchNormalization
    config:
      axis: 3
      beta_constraint: null
      beta_initializer:
        class_name: Zeros
        config: {}
      beta_regularizer: null
      center: true
      dtype: float32
      epsilon: 0.001
      gamma_constraint: null
      gamma_initializer:
        class_name: Ones
        config: {}
      gamma_regularizer: null
      momentum: 0.99
      moving_mean_initializer:
        class_name: Zeros
        config: {}
      moving_variance_initializer:
        class_name: Ones
        config: {}
      name: batch_normalization_117
      scale: false
      trainable: true
    inbound_nodes:
    - - - conv2d_117
        - 0
        - 0
        - {}
    name: batch_normalization_117
  - class_name: Activation
    config:
      activation: relu
      dtype: float32
      name: activation_166
      trainable: true
    inbound_nodes:
    - - - batch_normalization_117
        - 0
        - 0
        - {}
    name: activation_166
  - class_name: Conv2D
    config:
      activation: linear
      activity_regularizer: null
      bias_constraint: null
      bias_initializer:
        class_name: Zeros
        config: {}
      bias_regularizer: null
      data_format: channels_last
      dilation_rate: *id001
      dtype: float32
      filters: 48
      kernel_constraint: null
      kernel_initializer:
        class_name: VarianceScaling
        config:
          distribution: uniform
          mode: fan_avg
          scale: 1.0
          seed: null
      kernel_regularizer: null
      kernel_size: !!python/tuple
      - 1
      - 1
      name: conv2d_115
      padding: same
      strides: *id002
      trainable: true
      use_bias: false
    inbound_nodes:
    - - - mixed1
        - 0
        - 0
        - {}
    name: conv2d_115
  - class_name: Conv2D
    config:
      activation: linear
      activity_regularizer: null
      bias_constraint: null
      bias_initializer:
        class_name: Zeros
        config: {}
      bias_regularizer: null
      data_format: channels_last
      dilation_rate: *id001
      dtype: float32
      filters: 96
      kernel_constraint: null
      kernel_initializer:
        class_name: VarianceScaling
        config:
          distribution: uniform
          mode: fan_avg
          scale: 1.0
          seed: null
      kernel_regularizer: null
      kernel_size: !!python/tuple
      - 3
      - 3
      name: conv2d_118
      padding: same
      strides: *id002
      trainable: true
      use_bias: false
    inbound_nodes:
    - - - activation_166
        - 0
        - 0
        - {}
    name: conv2d_118
  - class_name: BatchNormalization
    config:
      axis: 3
      beta_constraint: null
      beta_initializer:
        class_name: Zeros
        config: {}
      beta_regularizer: null
      center: true
      dtype: float32
      epsilon: 0.001
      gamma_constraint: null
      gamma_initializer:
        class_name: Ones
        config: {}
      gamma_regularizer: null
      momentum: 0.99
      moving_mean_initializer:
        class_name: Zeros
        config: {}
      moving_variance_initializer:
        class_name: Ones
        config: {}
      name: batch_normalization_115
      scale: false
      trainable: true
    inbound_nodes:
    - - - conv2d_115
        - 0
        - 0
        - {}
    name: batch_normalization_115
  - class_name: BatchNormalization
    config:
      axis: 3
      beta_constraint: null
      beta_initializer:
        class_name: Zeros
        config: {}
      beta_regularizer: null
      center: true
      dtype: float32
      epsilon: 0.001
      gamma_constraint: null
      gamma_initializer:
        class_name: Ones
        config: {}
      gamma_regularizer: null
      momentum: 0.99
      moving_mean_initializer:
        class_name: Zeros
        config: {}
      moving_variance_initializer:
        class_name: Ones
        config: {}
      name: batch_normalization_118
      scale: false
      trainable: true
    inbound_nodes:
    - - - conv2d_118
        - 0
        - 0
        - {}
    name: batch_normalization_118
  - class_name: Activation
    config:
      activation: relu
      dtype: float32
      name: activation_164
      trainable: true
    inbound_nodes:
    - - - batch_normalization_115
        - 0
        - 0
        - {}
    name: activation_164
  - class_name: Activation
    config:
      activation: relu
      dtype: float32
      name: activation_167
      trainable: true
    inbound_nodes:
    - - - batch_normalization_118
        - 0
        - 0
        - {}
    name: activation_167
  - class_name: AveragePooling2D
    config:
      data_format: channels_last
      dtype: float32
      name: average_pooling2d_12
      padding: same
      pool_size: !!python/tuple
      - 3
      - 3
      strides: !!python/tuple
      - 1
      - 1
      trainable: true
    inbound_nodes:
    - - - mixed1
        - 0
        - 0
        - {}
    name: average_pooling2d_12
  - class_name: Conv2D
    config:
      activation: linear
      activity_regularizer: null
      bias_constraint: null
      bias_initializer:
        class_name: Zeros
        config: {}
      bias_regularizer: null
      data_format: channels_last
      dilation_rate: *id001
      dtype: float32
      filters: 64
      kernel_constraint: null
      kernel_initializer:
        class_name: VarianceScaling
        config:
          distribution: uniform
          mode: fan_avg
          scale: 1.0
          seed: null
      kernel_regularizer: null
      kernel_size: !!python/tuple
      - 1
      - 1
      name: conv2d_114
      padding: same
      strides: *id002
      trainable: true
      use_bias: false
    inbound_nodes:
    - - - mixed1
        - 0
        - 0
        - {}
    name: conv2d_114
  - class_name: Conv2D
    config:
      activation: linear
      activity_regularizer: null
      bias_constraint: null
      bias_initializer:
        class_name: Zeros
        config: {}
      bias_regularizer: null
      data_format: channels_last
      dilation_rate: *id001
      dtype: float32
      filters: 64
      kernel_constraint: null
      kernel_initializer:
        class_name: VarianceScaling
        config:
          distribution: uniform
          mode: fan_avg
          scale: 1.0
          seed: null
      kernel_regularizer: null
      kernel_size: !!python/tuple
      - 5
      - 5
      name: conv2d_116
      padding: same
      strides: *id002
      trainable: true
      use_bias: false
    inbound_nodes:
    - - - activation_164
        - 0
        - 0
        - {}
    name: conv2d_116
  - class_name: Conv2D
    config:
      activation: linear
      activity_regularizer: null
      bias_constraint: null
      bias_initializer:
        class_name: Zeros
        config: {}
      bias_regularizer: null
      data_format: channels_last
      dilation_rate: *id001
      dtype: float32
      filters: 96
      kernel_constraint: null
      kernel_initializer:
        class_name: VarianceScaling
        config:
          distribution: uniform
          mode: fan_avg
          scale: 1.0
          seed: null
      kernel_regularizer: null
      kernel_size: !!python/tuple
      - 3
      - 3
      name: conv2d_119
      padding: same
      strides: *id002
      trainable: true
      use_bias: false
    inbound_nodes:
    - - - activation_167
        - 0
        - 0
        - {}
    name: conv2d_119
  - class_name: Conv2D
    config:
      activation: linear
      activity_regularizer: null
      bias_constraint: null
      bias_initializer:
        class_name: Zeros
        config: {}
      bias_regularizer: null
      data_format: channels_last
      dilation_rate: *id001
      dtype: float32
      filters: 64
      kernel_constraint: null
      kernel_initializer:
        class_name: VarianceScaling
        config:
          distribution: uniform
          mode: fan_avg
          scale: 1.0
          seed: null
      kernel_regularizer: null
      kernel_size: !!python/tuple
      - 1
      - 1
      name: conv2d_120
      padding: same
      strides: *id002
      trainable: true
      use_bias: false
    inbound_nodes:
    - - - average_pooling2d_12
        - 0
        - 0
        - {}
    name: conv2d_120
  - class_name: BatchNormalization
    config:
      axis: 3
      beta_constraint: null
      beta_initializer:
        class_name: Zeros
        config: {}
      beta_regularizer: null
      center: true
      dtype: float32
      epsilon: 0.001
      gamma_constraint: null
      gamma_initializer:
        class_name: Ones
        config: {}
      gamma_regularizer: null
      momentum: 0.99
      moving_mean_initializer:
        class_name: Zeros
        config: {}
      moving_variance_initializer:
        class_name: Ones
        config: {}
      name: batch_normalization_114
      scale: false
      trainable: true
    inbound_nodes:
    - - - conv2d_114
        - 0
        - 0
        - {}
    name: batch_normalization_114
  - class_name: BatchNormalization
    config:
      axis: 3
      beta_constraint: null
      beta_initializer:
        class_name: Zeros
        config: {}
      beta_regularizer: null
      center: true
      dtype: float32
      epsilon: 0.001
      gamma_constraint: null
      gamma_initializer:
        class_name: Ones
        config: {}
      gamma_regularizer: null
      momentum: 0.99
      moving_mean_initializer:
        class_name: Zeros
        config: {}
      moving_variance_initializer:
        class_name: Ones
        config: {}
      name: batch_normalization_116
      scale: false
      trainable: true
    inbound_nodes:
    - - - conv2d_116
        - 0
        - 0
        - {}
    name: batch_normalization_116
  - class_name: BatchNormalization
    config:
      axis: 3
      beta_constraint: null
      beta_initializer:
        class_name: Zeros
        config: {}
      beta_regularizer: null
      center: true
      dtype: float32
      epsilon: 0.001
      gamma_constraint: null
      gamma_initializer:
        class_name: Ones
        config: {}
      gamma_regularizer: null
      momentum: 0.99
      moving_mean_initializer:
        class_name: Zeros
        config: {}
      moving_variance_initializer:
        class_name: Ones
        config: {}
      name: batch_normalization_119
      scale: false
      trainable: true
    inbound_nodes:
    - - - conv2d_119
        - 0
        - 0
        - {}
    name: batch_normalization_119
  - class_name: BatchNormalization
    config:
      axis: 3
      beta_constraint: null
      beta_initializer:
        class_name: Zeros
        config: {}
      beta_regularizer: null
      center: true
      dtype: float32
      epsilon: 0.001
      gamma_constraint: null
      gamma_initializer:
        class_name: Ones
        config: {}
      gamma_regularizer: null
      momentum: 0.99
      moving_mean_initializer:
        class_name: Zeros
        config: {}
      moving_variance_initializer:
        class_name: Ones
        config: {}
      name: batch_normalization_120
      scale: false
      trainable: true
    inbound_nodes:
    - - - conv2d_120
        - 0
        - 0
        - {}
    name: batch_normalization_120
  - class_name: Activation
    config:
      activation: relu
      dtype: float32
      name: activation_163
      trainable: true
    inbound_nodes:
    - - - batch_normalization_114
        - 0
        - 0
        - {}
    name: activation_163
  - class_name: Activation
    config:
      activation: relu
      dtype: float32
      name: activation_165
      trainable: true
    inbound_nodes:
    - - - batch_normalization_116
        - 0
        - 0
        - {}
    name: activation_165
  - class_name: Activation
    config:
      activation: relu
      dtype: float32
      name: activation_168
      trainable: true
    inbound_nodes:
    - - - batch_normalization_119
        - 0
        - 0
        - {}
    name: activation_168
  - class_name: Activation
    config:
      activation: relu
      dtype: float32
      name: activation_169
      trainable: true
    inbound_nodes:
    - - - batch_normalization_120
        - 0
        - 0
        - {}
    name: activation_169
  - class_name: Concatenate
    config:
      axis: 3
      dtype: float32
      name: mixed2
      trainable: true
    inbound_nodes:
    - - - activation_163
        - 0
        - 0
        - &id005 {}
      - - activation_165
        - 0
        - 0
        - *id005
      - - activation_168
        - 0
        - 0
        - *id005
      - - activation_169
        - 0
        - 0
        - *id005
    name: mixed2
  - class_name: Conv2D
    config:
      activation: linear
      activity_regularizer: null
      bias_constraint: null
      bias_initializer:
        class_name: Zeros
        config: {}
      bias_regularizer: null
      data_format: channels_last
      dilation_rate: *id001
      dtype: float32
      filters: 64
      kernel_constraint: null
      kernel_initializer:
        class_name: VarianceScaling
        config:
          distribution: uniform
          mode: fan_avg
          scale: 1.0
          seed: null
      kernel_regularizer: null
      kernel_size: !!python/tuple
      - 1
      - 1
      name: conv2d_122
      padding: same
      strides: *id002
      trainable: true
      use_bias: false
    inbound_nodes:
    - - - mixed2
        - 0
        - 0
        - {}
    name: conv2d_122
  - class_name: BatchNormalization
    config:
      axis: 3
      beta_constraint: null
      beta_initializer:
        class_name: Zeros
        config: {}
      beta_regularizer: null
      center: true
      dtype: float32
      epsilon: 0.001
      gamma_constraint: null
      gamma_initializer:
        class_name: Ones
        config: {}
      gamma_regularizer: null
      momentum: 0.99
      moving_mean_initializer:
        class_name: Zeros
        config: {}
      moving_variance_initializer:
        class_name: Ones
        config: {}
      name: batch_normalization_122
      scale: false
      trainable: true
    inbound_nodes:
    - - - conv2d_122
        - 0
        - 0
        - {}
    name: batch_normalization_122
  - class_name: Activation
    config:
      activation: relu
      dtype: float32
      name: activation_171
      trainable: true
    inbound_nodes:
    - - - batch_normalization_122
        - 0
        - 0
        - {}
    name: activation_171
  - class_name: Conv2D
    config:
      activation: linear
      activity_regularizer: null
      bias_constraint: null
      bias_initializer:
        class_name: Zeros
        config: {}
      bias_regularizer: null
      data_format: channels_last
      dilation_rate: *id001
      dtype: float32
      filters: 96
      kernel_constraint: null
      kernel_initializer:
        class_name: VarianceScaling
        config:
          distribution: uniform
          mode: fan_avg
          scale: 1.0
          seed: null
      kernel_regularizer: null
      kernel_size: !!python/tuple
      - 3
      - 3
      name: conv2d_123
      padding: same
      strides: *id002
      trainable: true
      use_bias: false
    inbound_nodes:
    - - - activation_171
        - 0
        - 0
        - {}
    name: conv2d_123
  - class_name: BatchNormalization
    config:
      axis: 3
      beta_constraint: null
      beta_initializer:
        class_name: Zeros
        config: {}
      beta_regularizer: null
      center: true
      dtype: float32
      epsilon: 0.001
      gamma_constraint: null
      gamma_initializer:
        class_name: Ones
        config: {}
      gamma_regularizer: null
      momentum: 0.99
      moving_mean_initializer:
        class_name: Zeros
        config: {}
      moving_variance_initializer:
        class_name: Ones
        config: {}
      name: batch_normalization_123
      scale: false
      trainable: true
    inbound_nodes:
    - - - conv2d_123
        - 0
        - 0
        - {}
    name: batch_normalization_123
  - class_name: Activation
    config:
      activation: relu
      dtype: float32
      name: activation_172
      trainable: true
    inbound_nodes:
    - - - batch_normalization_123
        - 0
        - 0
        - {}
    name: activation_172
  - class_name: Conv2D
    config:
      activation: linear
      activity_regularizer: null
      bias_constraint: null
      bias_initializer:
        class_name: Zeros
        config: {}
      bias_regularizer: null
      data_format: channels_last
      dilation_rate: *id001
      dtype: float32
      filters: 384
      kernel_constraint: null
      kernel_initializer:
        class_name: VarianceScaling
        config:
          distribution: uniform
          mode: fan_avg
          scale: 1.0
          seed: null
      kernel_regularizer: null
      kernel_size: !!python/tuple
      - 3
      - 3
      name: conv2d_121
      padding: valid
      strides: !!python/tuple
      - 2
      - 2
      trainable: true
      use_bias: false
    inbound_nodes:
    - - - mixed2
        - 0
        - 0
        - {}
    name: conv2d_121
  - class_name: Conv2D
    config:
      activation: linear
      activity_regularizer: null
      bias_constraint: null
      bias_initializer:
        class_name: Zeros
        config: {}
      bias_regularizer: null
      data_format: channels_last
      dilation_rate: *id001
      dtype: float32
      filters: 96
      kernel_constraint: null
      kernel_initializer:
        class_name: VarianceScaling
        config:
          distribution: uniform
          mode: fan_avg
          scale: 1.0
          seed: null
      kernel_regularizer: null
      kernel_size: !!python/tuple
      - 3
      - 3
      name: conv2d_124
      padding: valid
      strides: !!python/tuple
      - 2
      - 2
      trainable: true
      use_bias: false
    inbound_nodes:
    - - - activation_172
        - 0
        - 0
        - {}
    name: conv2d_124
  - class_name: BatchNormalization
    config:
      axis: 3
      beta_constraint: null
      beta_initializer:
        class_name: Zeros
        config: {}
      beta_regularizer: null
      center: true
      dtype: float32
      epsilon: 0.001
      gamma_constraint: null
      gamma_initializer:
        class_name: Ones
        config: {}
      gamma_regularizer: null
      momentum: 0.99
      moving_mean_initializer:
        class_name: Zeros
        config: {}
      moving_variance_initializer:
        class_name: Ones
        config: {}
      name: batch_normalization_121
      scale: false
      trainable: true
    inbound_nodes:
    - - - conv2d_121
        - 0
        - 0
        - {}
    name: batch_normalization_121
  - class_name: BatchNormalization
    config:
      axis: 3
      beta_constraint: null
      beta_initializer:
        class_name: Zeros
        config: {}
      beta_regularizer: null
      center: true
      dtype: float32
      epsilon: 0.001
      gamma_constraint: null
      gamma_initializer:
        class_name: Ones
        config: {}
      gamma_regularizer: null
      momentum: 0.99
      moving_mean_initializer:
        class_name: Zeros
        config: {}
      moving_variance_initializer:
        class_name: Ones
        config: {}
      name: batch_normalization_124
      scale: false
      trainable: true
    inbound_nodes:
    - - - conv2d_124
        - 0
        - 0
        - {}
    name: batch_normalization_124
  - class_name: Activation
    config:
      activation: relu
      dtype: float32
      name: activation_170
      trainable: true
    inbound_nodes:
    - - - batch_normalization_121
        - 0
        - 0
        - {}
    name: activation_170
  - class_name: Activation
    config:
      activation: relu
      dtype: float32
      name: activation_173
      trainable: true
    inbound_nodes:
    - - - batch_normalization_124
        - 0
        - 0
        - {}
    name: activation_173
  - class_name: MaxPooling2D
    config:
      data_format: channels_last
      dtype: float32
      name: max_pooling2d_8
      padding: valid
      pool_size: !!python/tuple
      - 3
      - 3
      strides: !!python/tuple
      - 2
      - 2
      trainable: true
    inbound_nodes:
    - - - mixed2
        - 0
        - 0
        - {}
    name: max_pooling2d_8
  - class_name: Concatenate
    config:
      axis: 3
      dtype: float32
      name: mixed3
      trainable: true
    inbound_nodes:
    - - - activation_170
        - 0
        - 0
        - &id006 {}
      - - activation_173
        - 0
        - 0
        - *id006
      - - max_pooling2d_8
        - 0
        - 0
        - *id006
    name: mixed3
  - class_name: Conv2D
    config:
      activation: linear
      activity_regularizer: null
      bias_constraint: null
      bias_initializer:
        class_name: Zeros
        config: {}
      bias_regularizer: null
      data_format: channels_last
      dilation_rate: *id001
      dtype: float32
      filters: 128
      kernel_constraint: null
      kernel_initializer:
        class_name: VarianceScaling
        config:
          distribution: uniform
          mode: fan_avg
          scale: 1.0
          seed: null
      kernel_regularizer: null
      kernel_size: !!python/tuple
      - 1
      - 1
      name: conv2d_129
      padding: same
      strides: *id002
      trainable: true
      use_bias: false
    inbound_nodes:
    - - - mixed3
        - 0
        - 0
        - {}
    name: conv2d_129
  - class_name: BatchNormalization
    config:
      axis: 3
      beta_constraint: null
      beta_initializer:
        class_name: Zeros
        config: {}
      beta_regularizer: null
      center: true
      dtype: float32
      epsilon: 0.001
      gamma_constraint: null
      gamma_initializer:
        class_name: Ones
        config: {}
      gamma_regularizer: null
      momentum: 0.99
      moving_mean_initializer:
        class_name: Zeros
        config: {}
      moving_variance_initializer:
        class_name: Ones
        config: {}
      name: batch_normalization_129
      scale: false
      trainable: true
    inbound_nodes:
    - - - conv2d_129
        - 0
        - 0
        - {}
    name: batch_normalization_129
  - class_name: Activation
    config:
      activation: relu
      dtype: float32
      name: activation_178
      trainable: true
    inbound_nodes:
    - - - batch_normalization_129
        - 0
        - 0
        - {}
    name: activation_178
  - class_name: Conv2D
    config:
      activation: linear
      activity_regularizer: null
      bias_constraint: null
      bias_initializer:
        class_name: Zeros
        config: {}
      bias_regularizer: null
      data_format: channels_last
      dilation_rate: *id001
      dtype: float32
      filters: 128
      kernel_constraint: null
      kernel_initializer:
        class_name: VarianceScaling
        config:
          distribution: uniform
          mode: fan_avg
          scale: 1.0
          seed: null
      kernel_regularizer: null
      kernel_size: !!python/tuple
      - 7
      - 1
      name: conv2d_130
      padding: same
      strides: *id002
      trainable: true
      use_bias: false
    inbound_nodes:
    - - - activation_178
        - 0
        - 0
        - {}
    name: conv2d_130
  - class_name: BatchNormalization
    config:
      axis: 3
      beta_constraint: null
      beta_initializer:
        class_name: Zeros
        config: {}
      beta_regularizer: null
      center: true
      dtype: float32
      epsilon: 0.001
      gamma_constraint: null
      gamma_initializer:
        class_name: Ones
        config: {}
      gamma_regularizer: null
      momentum: 0.99
      moving_mean_initializer:
        class_name: Zeros
        config: {}
      moving_variance_initializer:
        class_name: Ones
        config: {}
      name: batch_normalization_130
      scale: false
      trainable: true
    inbound_nodes:
    - - - conv2d_130
        - 0
        - 0
        - {}
    name: batch_normalization_130
  - class_name: Activation
    config:
      activation: relu
      dtype: float32
      name: activation_179
      trainable: true
    inbound_nodes:
    - - - batch_normalization_130
        - 0
        - 0
        - {}
    name: activation_179
  - class_name: Conv2D
    config:
      activation: linear
      activity_regularizer: null
      bias_constraint: null
      bias_initializer:
        class_name: Zeros
        config: {}
      bias_regularizer: null
      data_format: channels_last
      dilation_rate: *id001
      dtype: float32
      filters: 128
      kernel_constraint: null
      kernel_initializer:
        class_name: VarianceScaling
        config:
          distribution: uniform
          mode: fan_avg
          scale: 1.0
          seed: null
      kernel_regularizer: null
      kernel_size: !!python/tuple
      - 1
      - 1
      name: conv2d_126
      padding: same
      strides: *id002
      trainable: true
      use_bias: false
    inbound_nodes:
    - - - mixed3
        - 0
        - 0
        - {}
    name: conv2d_126
  - class_name: Conv2D
    config:
      activation: linear
      activity_regularizer: null
      bias_constraint: null
      bias_initializer:
        class_name: Zeros
        config: {}
      bias_regularizer: null
      data_format: channels_last
      dilation_rate: *id001
      dtype: float32
      filters: 128
      kernel_constraint: null
      kernel_initializer:
        class_name: VarianceScaling
        config:
          distribution: uniform
          mode: fan_avg
          scale: 1.0
          seed: null
      kernel_regularizer: null
      kernel_size: !!python/tuple
      - 1
      - 7
      name: conv2d_131
      padding: same
      strides: *id002
      trainable: true
      use_bias: false
    inbound_nodes:
    - - - activation_179
        - 0
        - 0
        - {}
    name: conv2d_131
  - class_name: BatchNormalization
    config:
      axis: 3
      beta_constraint: null
      beta_initializer:
        class_name: Zeros
        config: {}
      beta_regularizer: null
      center: true
      dtype: float32
      epsilon: 0.001
      gamma_constraint: null
      gamma_initializer:
        class_name: Ones
        config: {}
      gamma_regularizer: null
      momentum: 0.99
      moving_mean_initializer:
        class_name: Zeros
        config: {}
      moving_variance_initializer:
        class_name: Ones
        config: {}
      name: batch_normalization_126
      scale: false
      trainable: true
    inbound_nodes:
    - - - conv2d_126
        - 0
        - 0
        - {}
    name: batch_normalization_126
  - class_name: BatchNormalization
    config:
      axis: 3
      beta_constraint: null
      beta_initializer:
        class_name: Zeros
        config: {}
      beta_regularizer: null
      center: true
      dtype: float32
      epsilon: 0.001
      gamma_constraint: null
      gamma_initializer:
        class_name: Ones
        config: {}
      gamma_regularizer: null
      momentum: 0.99
      moving_mean_initializer:
        class_name: Zeros
        config: {}
      moving_variance_initializer:
        class_name: Ones
        config: {}
      name: batch_normalization_131
      scale: false
      trainable: true
    inbound_nodes:
    - - - conv2d_131
        - 0
        - 0
        - {}
    name: batch_normalization_131
  - class_name: Activation
    config:
      activation: relu
      dtype: float32
      name: activation_175
      trainable: true
    inbound_nodes:
    - - - batch_normalization_126
        - 0
        - 0
        - {}
    name: activation_175
  - class_name: Activation
    config:
      activation: relu
      dtype: float32
      name: activation_180
      trainable: true
    inbound_nodes:
    - - - batch_normalization_131
        - 0
        - 0
        - {}
    name: activation_180
  - class_name: Conv2D
    config:
      activation: linear
      activity_regularizer: null
      bias_constraint: null
      bias_initializer:
        class_name: Zeros
        config: {}
      bias_regularizer: null
      data_format: channels_last
      dilation_rate: *id001
      dtype: float32
      filters: 128
      kernel_constraint: null
      kernel_initializer:
        class_name: VarianceScaling
        config:
          distribution: uniform
          mode: fan_avg
          scale: 1.0
          seed: null
      kernel_regularizer: null
      kernel_size: !!python/tuple
      - 1
      - 7
      name: conv2d_127
      padding: same
      strides: *id002
      trainable: true
      use_bias: false
    inbound_nodes:
    - - - activation_175
        - 0
        - 0
        - {}
    name: conv2d_127
  - class_name: Conv2D
    config:
      activation: linear
      activity_regularizer: null
      bias_constraint: null
      bias_initializer:
        class_name: Zeros
        config: {}
      bias_regularizer: null
      data_format: channels_last
      dilation_rate: *id001
      dtype: float32
      filters: 128
      kernel_constraint: null
      kernel_initializer:
        class_name: VarianceScaling
        config:
          distribution: uniform
          mode: fan_avg
          scale: 1.0
          seed: null
      kernel_regularizer: null
      kernel_size: !!python/tuple
      - 7
      - 1
      name: conv2d_132
      padding: same
      strides: *id002
      trainable: true
      use_bias: false
    inbound_nodes:
    - - - activation_180
        - 0
        - 0
        - {}
    name: conv2d_132
  - class_name: BatchNormalization
    config:
      axis: 3
      beta_constraint: null
      beta_initializer:
        class_name: Zeros
        config: {}
      beta_regularizer: null
      center: true
      dtype: float32
      epsilon: 0.001
      gamma_constraint: null
      gamma_initializer:
        class_name: Ones
        config: {}
      gamma_regularizer: null
      momentum: 0.99
      moving_mean_initializer:
        class_name: Zeros
        config: {}
      moving_variance_initializer:
        class_name: Ones
        config: {}
      name: batch_normalization_127
      scale: false
      trainable: true
    inbound_nodes:
    - - - conv2d_127
        - 0
        - 0
        - {}
    name: batch_normalization_127
  - class_name: BatchNormalization
    config:
      axis: 3
      beta_constraint: null
      beta_initializer:
        class_name: Zeros
        config: {}
      beta_regularizer: null
      center: true
      dtype: float32
      epsilon: 0.001
      gamma_constraint: null
      gamma_initializer:
        class_name: Ones
        config: {}
      gamma_regularizer: null
      momentum: 0.99
      moving_mean_initializer:
        class_name: Zeros
        config: {}
      moving_variance_initializer:
        class_name: Ones
        config: {}
      name: batch_normalization_132
      scale: false
      trainable: true
    inbound_nodes:
    - - - conv2d_132
        - 0
        - 0
        - {}
    name: batch_normalization_132
  - class_name: Activation
    config:
      activation: relu
      dtype: float32
      name: activation_176
      trainable: true
    inbound_nodes:
    - - - batch_normalization_127
        - 0
        - 0
        - {}
    name: activation_176
  - class_name: Activation
    config:
      activation: relu
      dtype: float32
      name: activation_181
      trainable: true
    inbound_nodes:
    - - - batch_normalization_132
        - 0
        - 0
        - {}
    name: activation_181
  - class_name: AveragePooling2D
    config:
      data_format: channels_last
      dtype: float32
      name: average_pooling2d_13
      padding: same
      pool_size: !!python/tuple
      - 3
      - 3
      strides: !!python/tuple
      - 1
      - 1
      trainable: true
    inbound_nodes:
    - - - mixed3
        - 0
        - 0
        - {}
    name: average_pooling2d_13
  - class_name: Conv2D
    config:
      activation: linear
      activity_regularizer: null
      bias_constraint: null
      bias_initializer:
        class_name: Zeros
        config: {}
      bias_regularizer: null
      data_format: channels_last
      dilation_rate: *id001
      dtype: float32
      filters: 192
      kernel_constraint: null
      kernel_initializer:
        class_name: VarianceScaling
        config:
          distribution: uniform
          mode: fan_avg
          scale: 1.0
          seed: null
      kernel_regularizer: null
      kernel_size: !!python/tuple
      - 1
      - 1
      name: conv2d_125
      padding: same
      strides: *id002
      trainable: true
      use_bias: false
    inbound_nodes:
    - - - mixed3
        - 0
        - 0
        - {}
    name: conv2d_125
  - class_name: Conv2D
    config:
      activation: linear
      activity_regularizer: null
      bias_constraint: null
      bias_initializer:
        class_name: Zeros
        config: {}
      bias_regularizer: null
      data_format: channels_last
      dilation_rate: *id001
      dtype: float32
      filters: 192
      kernel_constraint: null
      kernel_initializer:
        class_name: VarianceScaling
        config:
          distribution: uniform
          mode: fan_avg
          scale: 1.0
          seed: null
      kernel_regularizer: null
      kernel_size: !!python/tuple
      - 7
      - 1
      name: conv2d_128
      padding: same
      strides: *id002
      trainable: true
      use_bias: false
    inbound_nodes:
    - - - activation_176
        - 0
        - 0
        - {}
    name: conv2d_128
  - class_name: Conv2D
    config:
      activation: linear
      activity_regularizer: null
      bias_constraint: null
      bias_initializer:
        class_name: Zeros
        config: {}
      bias_regularizer: null
      data_format: channels_last
      dilation_rate: *id001
      dtype: float32
      filters: 192
      kernel_constraint: null
      kernel_initializer:
        class_name: VarianceScaling
        config:
          distribution: uniform
          mode: fan_avg
          scale: 1.0
          seed: null
      kernel_regularizer: null
      kernel_size: !!python/tuple
      - 1
      - 7
      name: conv2d_133
      padding: same
      strides: *id002
      trainable: true
      use_bias: false
    inbound_nodes:
    - - - activation_181
        - 0
        - 0
        - {}
    name: conv2d_133
  - class_name: Conv2D
    config:
      activation: linear
      activity_regularizer: null
      bias_constraint: null
      bias_initializer:
        class_name: Zeros
        config: {}
      bias_regularizer: null
      data_format: channels_last
      dilation_rate: *id001
      dtype: float32
      filters: 192
      kernel_constraint: null
      kernel_initializer:
        class_name: VarianceScaling
        config:
          distribution: uniform
          mode: fan_avg
          scale: 1.0
          seed: null
      kernel_regularizer: null
      kernel_size: !!python/tuple
      - 1
      - 1
      name: conv2d_134
      padding: same
      strides: *id002
      trainable: true
      use_bias: false
    inbound_nodes:
    - - - average_pooling2d_13
        - 0
        - 0
        - {}
    name: conv2d_134
  - class_name: BatchNormalization
    config:
      axis: 3
      beta_constraint: null
      beta_initializer:
        class_name: Zeros
        config: {}
      beta_regularizer: null
      center: true
      dtype: float32
      epsilon: 0.001
      gamma_constraint: null
      gamma_initializer:
        class_name: Ones
        config: {}
      gamma_regularizer: null
      momentum: 0.99
      moving_mean_initializer:
        class_name: Zeros
        config: {}
      moving_variance_initializer:
        class_name: Ones
        config: {}
      name: batch_normalization_125
      scale: false
      trainable: true
    inbound_nodes:
    - - - conv2d_125
        - 0
        - 0
        - {}
    name: batch_normalization_125
  - class_name: BatchNormalization
    config:
      axis: 3
      beta_constraint: null
      beta_initializer:
        class_name: Zeros
        config: {}
      beta_regularizer: null
      center: true
      dtype: float32
      epsilon: 0.001
      gamma_constraint: null
      gamma_initializer:
        class_name: Ones
        config: {}
      gamma_regularizer: null
      momentum: 0.99
      moving_mean_initializer:
        class_name: Zeros
        config: {}
      moving_variance_initializer:
        class_name: Ones
        config: {}
      name: batch_normalization_128
      scale: false
      trainable: true
    inbound_nodes:
    - - - conv2d_128
        - 0
        - 0
        - {}
    name: batch_normalization_128
  - class_name: BatchNormalization
    config:
      axis: 3
      beta_constraint: null
      beta_initializer:
        class_name: Zeros
        config: {}
      beta_regularizer: null
      center: true
      dtype: float32
      epsilon: 0.001
      gamma_constraint: null
      gamma_initializer:
        class_name: Ones
        config: {}
      gamma_regularizer: null
      momentum: 0.99
      moving_mean_initializer:
        class_name: Zeros
        config: {}
      moving_variance_initializer:
        class_name: Ones
        config: {}
      name: batch_normalization_133
      scale: false
      trainable: true
    inbound_nodes:
    - - - conv2d_133
        - 0
        - 0
        - {}
    name: batch_normalization_133
  - class_name: BatchNormalization
    config:
      axis: 3
      beta_constraint: null
      beta_initializer:
        class_name: Zeros
        config: {}
      beta_regularizer: null
      center: true
      dtype: float32
      epsilon: 0.001
      gamma_constraint: null
      gamma_initializer:
        class_name: Ones
        config: {}
      gamma_regularizer: null
      momentum: 0.99
      moving_mean_initializer:
        class_name: Zeros
        config: {}
      moving_variance_initializer:
        class_name: Ones
        config: {}
      name: batch_normalization_134
      scale: false
      trainable: true
    inbound_nodes:
    - - - conv2d_134
        - 0
        - 0
        - {}
    name: batch_normalization_134
  - class_name: Activation
    config:
      activation: relu
      dtype: float32
      name: activation_174
      trainable: true
    inbound_nodes:
    - - - batch_normalization_125
        - 0
        - 0
        - {}
    name: activation_174
  - class_name: Activation
    config:
      activation: relu
      dtype: float32
      name: activation_177
      trainable: true
    inbound_nodes:
    - - - batch_normalization_128
        - 0
        - 0
        - {}
    name: activation_177
  - class_name: Activation
    config:
      activation: relu
      dtype: float32
      name: activation_182
      trainable: true
    inbound_nodes:
    - - - batch_normalization_133
        - 0
        - 0
        - {}
    name: activation_182
  - class_name: Activation
    config:
      activation: relu
      dtype: float32
      name: activation_183
      trainable: true
    inbound_nodes:
    - - - batch_normalization_134
        - 0
        - 0
        - {}
    name: activation_183
  - class_name: Concatenate
    config:
      axis: 3
      dtype: float32
      name: mixed4
      trainable: true
    inbound_nodes:
    - - - activation_174
        - 0
        - 0
        - &id007 {}
      - - activation_177
        - 0
        - 0
        - *id007
      - - activation_182
        - 0
        - 0
        - *id007
      - - activation_183
        - 0
        - 0
        - *id007
    name: mixed4
  - class_name: Conv2D
    config:
      activation: linear
      activity_regularizer: null
      bias_constraint: null
      bias_initializer:
        class_name: Zeros
        config: {}
      bias_regularizer: null
      data_format: channels_last
      dilation_rate: *id001
      dtype: float32
      filters: 160
      kernel_constraint: null
      kernel_initializer:
        class_name: VarianceScaling
        config:
          distribution: uniform
          mode: fan_avg
          scale: 1.0
          seed: null
      kernel_regularizer: null
      kernel_size: !!python/tuple
      - 1
      - 1
      name: conv2d_139
      padding: same
      strides: *id002
      trainable: true
      use_bias: false
    inbound_nodes:
    - - - mixed4
        - 0
        - 0
        - {}
    name: conv2d_139
  - class_name: BatchNormalization
    config:
      axis: 3
      beta_constraint: null
      beta_initializer:
        class_name: Zeros
        config: {}
      beta_regularizer: null
      center: true
      dtype: float32
      epsilon: 0.001
      gamma_constraint: null
      gamma_initializer:
        class_name: Ones
        config: {}
      gamma_regularizer: null
      momentum: 0.99
      moving_mean_initializer:
        class_name: Zeros
        config: {}
      moving_variance_initializer:
        class_name: Ones
        config: {}
      name: batch_normalization_139
      scale: false
      trainable: true
    inbound_nodes:
    - - - conv2d_139
        - 0
        - 0
        - {}
    name: batch_normalization_139
  - class_name: Activation
    config:
      activation: relu
      dtype: float32
      name: activation_188
      trainable: true
    inbound_nodes:
    - - - batch_normalization_139
        - 0
        - 0
        - {}
    name: activation_188
  - class_name: Conv2D
    config:
      activation: linear
      activity_regularizer: null
      bias_constraint: null
      bias_initializer:
        class_name: Zeros
        config: {}
      bias_regularizer: null
      data_format: channels_last
      dilation_rate: *id001
      dtype: float32
      filters: 160
      kernel_constraint: null
      kernel_initializer:
        class_name: VarianceScaling
        config:
          distribution: uniform
          mode: fan_avg
          scale: 1.0
          seed: null
      kernel_regularizer: null
      kernel_size: !!python/tuple
      - 7
      - 1
      name: conv2d_140
      padding: same
      strides: *id002
      trainable: true
      use_bias: false
    inbound_nodes:
    - - - activation_188
        - 0
        - 0
        - {}
    name: conv2d_140
  - class_name: BatchNormalization
    config:
      axis: 3
      beta_constraint: null
      beta_initializer:
        class_name: Zeros
        config: {}
      beta_regularizer: null
      center: true
      dtype: float32
      epsilon: 0.001
      gamma_constraint: null
      gamma_initializer:
        class_name: Ones
        config: {}
      gamma_regularizer: null
      momentum: 0.99
      moving_mean_initializer:
        class_name: Zeros
        config: {}
      moving_variance_initializer:
        class_name: Ones
        config: {}
      name: batch_normalization_140
      scale: false
      trainable: true
    inbound_nodes:
    - - - conv2d_140
        - 0
        - 0
        - {}
    name: batch_normalization_140
  - class_name: Activation
    config:
      activation: relu
      dtype: float32
      name: activation_189
      trainable: true
    inbound_nodes:
    - - - batch_normalization_140
        - 0
        - 0
        - {}
    name: activation_189
  - class_name: Conv2D
    config:
      activation: linear
      activity_regularizer: null
      bias_constraint: null
      bias_initializer:
        class_name: Zeros
        config: {}
      bias_regularizer: null
      data_format: channels_last
      dilation_rate: *id001
      dtype: float32
      filters: 160
      kernel_constraint: null
      kernel_initializer:
        class_name: VarianceScaling
        config:
          distribution: uniform
          mode: fan_avg
          scale: 1.0
          seed: null
      kernel_regularizer: null
      kernel_size: !!python/tuple
      - 1
      - 1
      name: conv2d_136
      padding: same
      strides: *id002
      trainable: true
      use_bias: false
    inbound_nodes:
    - - - mixed4
        - 0
        - 0
        - {}
    name: conv2d_136
  - class_name: Conv2D
    config:
      activation: linear
      activity_regularizer: null
      bias_constraint: null
      bias_initializer:
        class_name: Zeros
        config: {}
      bias_regularizer: null
      data_format: channels_last
      dilation_rate: *id001
      dtype: float32
      filters: 160
      kernel_constraint: null
      kernel_initializer:
        class_name: VarianceScaling
        config:
          distribution: uniform
          mode: fan_avg
          scale: 1.0
          seed: null
      kernel_regularizer: null
      kernel_size: !!python/tuple
      - 1
      - 7
      name: conv2d_141
      padding: same
      strides: *id002
      trainable: true
      use_bias: false
    inbound_nodes:
    - - - activation_189
        - 0
        - 0
        - {}
    name: conv2d_141
  - class_name: BatchNormalization
    config:
      axis: 3
      beta_constraint: null
      beta_initializer:
        class_name: Zeros
        config: {}
      beta_regularizer: null
      center: true
      dtype: float32
      epsilon: 0.001
      gamma_constraint: null
      gamma_initializer:
        class_name: Ones
        config: {}
      gamma_regularizer: null
      momentum: 0.99
      moving_mean_initializer:
        class_name: Zeros
        config: {}
      moving_variance_initializer:
        class_name: Ones
        config: {}
      name: batch_normalization_136
      scale: false
      trainable: true
    inbound_nodes:
    - - - conv2d_136
        - 0
        - 0
        - {}
    name: batch_normalization_136
  - class_name: BatchNormalization
    config:
      axis: 3
      beta_constraint: null
      beta_initializer:
        class_name: Zeros
        config: {}
      beta_regularizer: null
      center: true
      dtype: float32
      epsilon: 0.001
      gamma_constraint: null
      gamma_initializer:
        class_name: Ones
        config: {}
      gamma_regularizer: null
      momentum: 0.99
      moving_mean_initializer:
        class_name: Zeros
        config: {}
      moving_variance_initializer:
        class_name: Ones
        config: {}
      name: batch_normalization_141
      scale: false
      trainable: true
    inbound_nodes:
    - - - conv2d_141
        - 0
        - 0
        - {}
    name: batch_normalization_141
  - class_name: Activation
    config:
      activation: relu
      dtype: float32
      name: activation_185
      trainable: true
    inbound_nodes:
    - - - batch_normalization_136
        - 0
        - 0
        - {}
    name: activation_185
  - class_name: Activation
    config:
      activation: relu
      dtype: float32
      name: activation_190
      trainable: true
    inbound_nodes:
    - - - batch_normalization_141
        - 0
        - 0
        - {}
    name: activation_190
  - class_name: Conv2D
    config:
      activation: linear
      activity_regularizer: null
      bias_constraint: null
      bias_initializer:
        class_name: Zeros
        config: {}
      bias_regularizer: null
      data_format: channels_last
      dilation_rate: *id001
      dtype: float32
      filters: 160
      kernel_constraint: null
      kernel_initializer:
        class_name: VarianceScaling
        config:
          distribution: uniform
          mode: fan_avg
          scale: 1.0
          seed: null
      kernel_regularizer: null
      kernel_size: !!python/tuple
      - 1
      - 7
      name: conv2d_137
      padding: same
      strides: *id002
      trainable: true
      use_bias: false
    inbound_nodes:
    - - - activation_185
        - 0
        - 0
        - {}
    name: conv2d_137
  - class_name: Conv2D
    config:
      activation: linear
      activity_regularizer: null
      bias_constraint: null
      bias_initializer:
        class_name: Zeros
        config: {}
      bias_regularizer: null
      data_format: channels_last
      dilation_rate: *id001
      dtype: float32
      filters: 160
      kernel_constraint: null
      kernel_initializer:
        class_name: VarianceScaling
        config:
          distribution: uniform
          mode: fan_avg
          scale: 1.0
          seed: null
      kernel_regularizer: null
      kernel_size: !!python/tuple
      - 7
      - 1
      name: conv2d_142
      padding: same
      strides: *id002
      trainable: true
      use_bias: false
    inbound_nodes:
    - - - activation_190
        - 0
        - 0
        - {}
    name: conv2d_142
  - class_name: BatchNormalization
    config:
      axis: 3
      beta_constraint: null
      beta_initializer:
        class_name: Zeros
        config: {}
      beta_regularizer: null
      center: true
      dtype: float32
      epsilon: 0.001
      gamma_constraint: null
      gamma_initializer:
        class_name: Ones
        config: {}
      gamma_regularizer: null
      momentum: 0.99
      moving_mean_initializer:
        class_name: Zeros
        config: {}
      moving_variance_initializer:
        class_name: Ones
        config: {}
      name: batch_normalization_137
      scale: false
      trainable: true
    inbound_nodes:
    - - - conv2d_137
        - 0
        - 0
        - {}
    name: batch_normalization_137
  - class_name: BatchNormalization
    config:
      axis: 3
      beta_constraint: null
      beta_initializer:
        class_name: Zeros
        config: {}
      beta_regularizer: null
      center: true
      dtype: float32
      epsilon: 0.001
      gamma_constraint: null
      gamma_initializer:
        class_name: Ones
        config: {}
      gamma_regularizer: null
      momentum: 0.99
      moving_mean_initializer:
        class_name: Zeros
        config: {}
      moving_variance_initializer:
        class_name: Ones
        config: {}
      name: batch_normalization_142
      scale: false
      trainable: true
    inbound_nodes:
    - - - conv2d_142
        - 0
        - 0
        - {}
    name: batch_normalization_142
  - class_name: Activation
    config:
      activation: relu
      dtype: float32
      name: activation_186
      trainable: true
    inbound_nodes:
    - - - batch_normalization_137
        - 0
        - 0
        - {}
    name: activation_186
  - class_name: Activation
    config:
      activation: relu
      dtype: float32
      name: activation_191
      trainable: true
    inbound_nodes:
    - - - batch_normalization_142
        - 0
        - 0
        - {}
    name: activation_191
  - class_name: AveragePooling2D
    config:
      data_format: channels_last
      dtype: float32
      name: average_pooling2d_14
      padding: same
      pool_size: &id009 !!python/tuple
      - 3
      - 3
      strides: &id010 !!python/tuple
      - 1
      - 1
      trainable: true
    inbound_nodes:
    - - - mixed4
        - 0
        - 0
        - {}
    name: average_pooling2d_14
  - class_name: Conv2D
    config:
      activation: linear
      activity_regularizer: null
      bias_constraint: null
      bias_initializer:
        class_name: Zeros
        config: {}
      bias_regularizer: null
      data_format: channels_last
      dilation_rate: *id001
      dtype: float32
      filters: 192
      kernel_constraint: null
      kernel_initializer:
        class_name: VarianceScaling
        config:
          distribution: uniform
          mode: fan_avg
          scale: 1.0
          seed: null
      kernel_regularizer: null
      kernel_size: !!python/tuple
      - 1
      - 1
      name: conv2d_135
      padding: same
      strides: *id002
      trainable: true
      use_bias: false
    inbound_nodes:
    - - - mixed4
        - 0
        - 0
        - {}
    name: conv2d_135
  - class_name: Conv2D
    config:
      activation: linear
      activity_regularizer: null
      bias_constraint: null
      bias_initializer:
        class_name: Zeros
        config: {}
      bias_regularizer: null
      data_format: channels_last
      dilation_rate: *id001
      dtype: float32
      filters: 192
      kernel_constraint: null
      kernel_initializer:
        class_name: VarianceScaling
        config:
          distribution: uniform
          mode: fan_avg
          scale: 1.0
          seed: null
      kernel_regularizer: null
      kernel_size: !!python/tuple
      - 7
      - 1
      name: conv2d_138
      padding: same
      strides: *id002
      trainable: true
      use_bias: false
    inbound_nodes:
    - - - activation_186
        - 0
        - 0
        - {}
    name: conv2d_138
  - class_name: Conv2D
    config:
      activation: linear
      activity_regularizer: null
      bias_constraint: null
      bias_initializer:
        class_name: Zeros
        config: {}
      bias_regularizer: null
      data_format: channels_last
      dilation_rate: *id001
      dtype: float32
      filters: 192
      kernel_constraint: null
      kernel_initializer:
        class_name: VarianceScaling
        config:
          distribution: uniform
          mode: fan_avg
          scale: 1.0
          seed: null
      kernel_regularizer: null
      kernel_size: !!python/tuple
      - 1
      - 7
      name: conv2d_143
      padding: same
      strides: *id002
      trainable: true
      use_bias: false
    inbound_nodes:
    - - - activation_191
        - 0
        - 0
        - {}
    name: conv2d_143
  - class_name: Conv2D
    config:
      activation: linear
      activity_regularizer: null
      bias_constraint: null
      bias_initializer:
        class_name: Zeros
        config: {}
      bias_regularizer: null
      data_format: channels_last
      dilation_rate: *id001
      dtype: float32
      filters: 192
      kernel_constraint: null
      kernel_initializer:
        class_name: VarianceScaling
        config:
          distribution: uniform
          mode: fan_avg
          scale: 1.0
          seed: null
      kernel_regularizer: null
      kernel_size: !!python/tuple
      - 1
      - 1
      name: conv2d_144
      padding: same
      strides: *id002
      trainable: true
      use_bias: false
    inbound_nodes:
    - - - average_pooling2d_14
        - 0
        - 0
        - {}
    name: conv2d_144
  - class_name: BatchNormalization
    config:
      axis: 3
      beta_constraint: null
      beta_initializer:
        class_name: Zeros
        config: {}
      beta_regularizer: null
      center: true
      dtype: float32
      epsilon: 0.001
      gamma_constraint: null
      gamma_initializer:
        class_name: Ones
        config: {}
      gamma_regularizer: null
      momentum: 0.99
      moving_mean_initializer:
        class_name: Zeros
        config: {}
      moving_variance_initializer:
        class_name: Ones
        config: {}
      name: batch_normalization_135
      scale: false
      trainable: true
    inbound_nodes:
    - - - conv2d_135
        - 0
        - 0
        - {}
    name: batch_normalization_135
  - class_name: BatchNormalization
    config:
      axis: 3
      beta_constraint: null
      beta_initializer:
        class_name: Zeros
        config: {}
      beta_regularizer: null
      center: true
      dtype: float32
      epsilon: 0.001
      gamma_constraint: null
      gamma_initializer:
        class_name: Ones
        config: {}
      gamma_regularizer: null
      momentum: 0.99
      moving_mean_initializer:
        class_name: Zeros
        config: {}
      moving_variance_initializer:
        class_name: Ones
        config: {}
      name: batch_normalization_138
      scale: false
      trainable: true
    inbound_nodes:
    - - - conv2d_138
        - 0
        - 0
        - {}
    name: batch_normalization_138
  - class_name: BatchNormalization
    config:
      axis: 3
      beta_constraint: null
      beta_initializer:
        class_name: Zeros
        config: {}
      beta_regularizer: null
      center: true
      dtype: float32
      epsilon: 0.001
      gamma_constraint: null
      gamma_initializer:
        class_name: Ones
        config: {}
      gamma_regularizer: null
      momentum: 0.99
      moving_mean_initializer:
        class_name: Zeros
        config: {}
      moving_variance_initializer:
        class_name: Ones
        config: {}
      name: batch_normalization_143
      scale: false
      trainable: true
    inbound_nodes:
    - - - conv2d_143
        - 0
        - 0
        - {}
    name: batch_normalization_143
  - class_name: BatchNormalization
    config:
      axis: 3
      beta_constraint: null
      beta_initializer:
        class_name: Zeros
        config: {}
      beta_regularizer: null
      center: true
      dtype: float32
      epsilon: 0.001
      gamma_constraint: null
      gamma_initializer:
        class_name: Ones
        config: {}
      gamma_regularizer: null
      momentum: 0.99
      moving_mean_initializer:
        class_name: Zeros
        config: {}
      moving_variance_initializer:
        class_name: Ones
        config: {}
      name: batch_normalization_144
      scale: false
      trainable: true
    inbound_nodes:
    - - - conv2d_144
        - 0
        - 0
        - {}
    name: batch_normalization_144
  - class_name: Activation
    config:
      activation: relu
      dtype: float32
      name: activation_184
      trainable: true
    inbound_nodes:
    - - - batch_normalization_135
        - 0
        - 0
        - {}
    name: activation_184
  - class_name: Activation
    config:
      activation: relu
      dtype: float32
      name: activation_187
      trainable: true
    inbound_nodes:
    - - - batch_normalization_138
        - 0
        - 0
        - {}
    name: activation_187
  - class_name: Activation
    config:
      activation: relu
      dtype: float32
      name: activation_192
      trainable: true
    inbound_nodes:
    - - - batch_normalization_143
        - 0
        - 0
        - {}
    name: activation_192
  - class_name: Activation
    config:
      activation: relu
      dtype: float32
      name: activation_193
      trainable: true
    inbound_nodes:
    - - - batch_normalization_144
        - 0
        - 0
        - {}
    name: activation_193
  - class_name: Concatenate
    config:
      axis: 3
      dtype: float32
      name: mixed5
      trainable: true
    inbound_nodes:
    - - - activation_184
        - 0
        - 0
        - &id008 {}
      - - activation_187
        - 0
        - 0
        - *id008
      - - activation_192
        - 0
        - 0
        - *id008
      - - activation_193
        - 0
        - 0
        - *id008
    name: mixed5
  - class_name: Conv2D
    config:
      activation: linear
      activity_regularizer: null
      bias_constraint: null
      bias_initializer:
        class_name: Zeros
        config: {}
      bias_regularizer: null
      data_format: channels_last
      dilation_rate: *id001
      dtype: float32
      filters: 160
      kernel_constraint: null
      kernel_initializer:
        class_name: VarianceScaling
        config:
          distribution: uniform
          mode: fan_avg
          scale: 1.0
          seed: null
      kernel_regularizer: null
      kernel_size: !!python/tuple
      - 1
      - 1
      name: conv2d_149
      padding: same
      strides: *id002
      trainable: true
      use_bias: false
    inbound_nodes:
    - - - mixed5
        - 0
        - 0
        - {}
    name: conv2d_149
  - class_name: BatchNormalization
    config:
      axis: 3
      beta_constraint: null
      beta_initializer:
        class_name: Zeros
        config: {}
      beta_regularizer: null
      center: true
      dtype: float32
      epsilon: 0.001
      gamma_constraint: null
      gamma_initializer:
        class_name: Ones
        config: {}
      gamma_regularizer: null
      momentum: 0.99
      moving_mean_initializer:
        class_name: Zeros
        config: {}
      moving_variance_initializer:
        class_name: Ones
        config: {}
      name: batch_normalization_149
      scale: false
      trainable: true
    inbound_nodes:
    - - - conv2d_149
        - 0
        - 0
        - {}
    name: batch_normalization_149
  - class_name: Activation
    config:
      activation: relu
      dtype: float32
      name: activation_198
      trainable: true
    inbound_nodes:
    - - - batch_normalization_149
        - 0
        - 0
        - {}
    name: activation_198
  - class_name: Conv2D
    config:
      activation: linear
      activity_regularizer: null
      bias_constraint: null
      bias_initializer:
        class_name: Zeros
        config: {}
      bias_regularizer: null
      data_format: channels_last
      dilation_rate: *id001
      dtype: float32
      filters: 160
      kernel_constraint: null
      kernel_initializer:
        class_name: VarianceScaling
        config:
          distribution: uniform
          mode: fan_avg
          scale: 1.0
          seed: null
      kernel_regularizer: null
      kernel_size: !!python/tuple
      - 7
      - 1
      name: conv2d_150
      padding: same
      strides: *id002
      trainable: true
      use_bias: false
    inbound_nodes:
    - - - activation_198
        - 0
        - 0
        - {}
    name: conv2d_150
  - class_name: BatchNormalization
    config:
      axis: 3
      beta_constraint: null
      beta_initializer:
        class_name: Zeros
        config: {}
      beta_regularizer: null
      center: true
      dtype: float32
      epsilon: 0.001
      gamma_constraint: null
      gamma_initializer:
        class_name: Ones
        config: {}
      gamma_regularizer: null
      momentum: 0.99
      moving_mean_initializer:
        class_name: Zeros
        config: {}
      moving_variance_initializer:
        class_name: Ones
        config: {}
      name: batch_normalization_150
      scale: false
      trainable: true
    inbound_nodes:
    - - - conv2d_150
        - 0
        - 0
        - {}
    name: batch_normalization_150
  - class_name: Activation
    config:
      activation: relu
      dtype: float32
      name: activation_199
      trainable: true
    inbound_nodes:
    - - - batch_normalization_150
        - 0
        - 0
        - {}
    name: activation_199
  - class_name: Conv2D
    config:
      activation: linear
      activity_regularizer: null
      bias_constraint: null
      bias_initializer:
        class_name: Zeros
        config: {}
      bias_regularizer: null
      data_format: channels_last
      dilation_rate: *id001
      dtype: float32
      filters: 160
      kernel_constraint: null
      kernel_initializer:
        class_name: VarianceScaling
        config:
          distribution: uniform
          mode: fan_avg
          scale: 1.0
          seed: null
      kernel_regularizer: null
      kernel_size: !!python/tuple
      - 1
      - 1
      name: conv2d_146
      padding: same
      strides: *id002
      trainable: true
      use_bias: false
    inbound_nodes:
    - - - mixed5
        - 0
        - 0
        - {}
    name: conv2d_146
  - class_name: Conv2D
    config:
      activation: linear
      activity_regularizer: null
      bias_constraint: null
      bias_initializer:
        class_name: Zeros
        config: {}
      bias_regularizer: null
      data_format: channels_last
      dilation_rate: *id001
      dtype: float32
      filters: 160
      kernel_constraint: null
      kernel_initializer:
        class_name: VarianceScaling
        config:
          distribution: uniform
          mode: fan_avg
          scale: 1.0
          seed: null
      kernel_regularizer: null
      kernel_size: !!python/tuple
      - 1
      - 7
      name: conv2d_151
      padding: same
      strides: *id002
      trainable: true
      use_bias: false
    inbound_nodes:
    - - - activation_199
        - 0
        - 0
        - {}
    name: conv2d_151
  - class_name: BatchNormalization
    config:
      axis: 3
      beta_constraint: null
      beta_initializer:
        class_name: Zeros
        config: {}
      beta_regularizer: null
      center: true
      dtype: float32
      epsilon: 0.001
      gamma_constraint: null
      gamma_initializer:
        class_name: Ones
        config: {}
      gamma_regularizer: null
      momentum: 0.99
      moving_mean_initializer:
        class_name: Zeros
        config: {}
      moving_variance_initializer:
        class_name: Ones
        config: {}
      name: batch_normalization_146
      scale: false
      trainable: true
    inbound_nodes:
    - - - conv2d_146
        - 0
        - 0
        - {}
    name: batch_normalization_146
  - class_name: BatchNormalization
    config:
      axis: 3
      beta_constraint: null
      beta_initializer:
        class_name: Zeros
        config: {}
      beta_regularizer: null
      center: true
      dtype: float32
      epsilon: 0.001
      gamma_constraint: null
      gamma_initializer:
        class_name: Ones
        config: {}
      gamma_regularizer: null
      momentum: 0.99
      moving_mean_initializer:
        class_name: Zeros
        config: {}
      moving_variance_initializer:
        class_name: Ones
        config: {}
      name: batch_normalization_151
      scale: false
      trainable: true
    inbound_nodes:
    - - - conv2d_151
        - 0
        - 0
        - {}
    name: batch_normalization_151
  - class_name: Activation
    config:
      activation: relu
      dtype: float32
      name: activation_195
      trainable: true
    inbound_nodes:
    - - - batch_normalization_146
        - 0
        - 0
        - {}
    name: activation_195
  - class_name: Activation
    config:
      activation: relu
      dtype: float32
      name: activation_200
      trainable: true
    inbound_nodes:
    - - - batch_normalization_151
        - 0
        - 0
        - {}
    name: activation_200
  - class_name: Conv2D
    config:
      activation: linear
      activity_regularizer: null
      bias_constraint: null
      bias_initializer:
        class_name: Zeros
        config: {}
      bias_regularizer: null
      data_format: channels_last
      dilation_rate: *id001
      dtype: float32
      filters: 160
      kernel_constraint: null
      kernel_initializer:
        class_name: VarianceScaling
        config:
          distribution: uniform
          mode: fan_avg
          scale: 1.0
          seed: null
      kernel_regularizer: null
      kernel_size: !!python/tuple
      - 1
      - 7
      name: conv2d_147
      padding: same
      strides: *id002
      trainable: true
      use_bias: false
    inbound_nodes:
    - - - activation_195
        - 0
        - 0
        - {}
    name: conv2d_147
  - class_name: Conv2D
    config:
      activation: linear
      activity_regularizer: null
      bias_constraint: null
      bias_initializer:
        class_name: Zeros
        config: {}
      bias_regularizer: null
      data_format: channels_last
      dilation_rate: *id001
      dtype: float32
      filters: 160
      kernel_constraint: null
      kernel_initializer:
        class_name: VarianceScaling
        config:
          distribution: uniform
          mode: fan_avg
          scale: 1.0
          seed: null
      kernel_regularizer: null
      kernel_size: !!python/tuple
      - 7
      - 1
      name: conv2d_152
      padding: same
      strides: *id002
      trainable: true
      use_bias: false
    inbound_nodes:
    - - - activation_200
        - 0
        - 0
        - {}
    name: conv2d_152
  - class_name: BatchNormalization
    config:
      axis: 3
      beta_constraint: null
      beta_initializer:
        class_name: Zeros
        config: {}
      beta_regularizer: null
      center: true
      dtype: float32
      epsilon: 0.001
      gamma_constraint: null
      gamma_initializer:
        class_name: Ones
        config: {}
      gamma_regularizer: null
      momentum: 0.99
      moving_mean_initializer:
        class_name: Zeros
        config: {}
      moving_variance_initializer:
        class_name: Ones
        config: {}
      name: batch_normalization_147
      scale: false
      trainable: true
    inbound_nodes:
    - - - conv2d_147
        - 0
        - 0
        - {}
    name: batch_normalization_147
  - class_name: BatchNormalization
    config:
      axis: 3
      beta_constraint: null
      beta_initializer:
        class_name: Zeros
        config: {}
      beta_regularizer: null
      center: true
      dtype: float32
      epsilon: 0.001
      gamma_constraint: null
      gamma_initializer:
        class_name: Ones
        config: {}
      gamma_regularizer: null
      momentum: 0.99
      moving_mean_initializer:
        class_name: Zeros
        config: {}
      moving_variance_initializer:
        class_name: Ones
        config: {}
      name: batch_normalization_152
      scale: false
      trainable: true
    inbound_nodes:
    - - - conv2d_152
        - 0
        - 0
        - {}
    name: batch_normalization_152
  - class_name: Activation
    config:
      activation: relu
      dtype: float32
      name: activation_196
      trainable: true
    inbound_nodes:
    - - - batch_normalization_147
        - 0
        - 0
        - {}
    name: activation_196
  - class_name: Activation
    config:
      activation: relu
      dtype: float32
      name: activation_201
      trainable: true
    inbound_nodes:
    - - - batch_normalization_152
        - 0
        - 0
        - {}
    name: activation_201
  - class_name: AveragePooling2D
    config:
      data_format: channels_last
      dtype: float32
      name: average_pooling2d_15
      padding: same
      pool_size: *id009
      strides: *id010
      trainable: true
    inbound_nodes:
    - - - mixed5
        - 0
        - 0
        - {}
    name: average_pooling2d_15
  - class_name: Conv2D
    config:
      activation: linear
      activity_regularizer: null
      bias_constraint: null
      bias_initializer:
        class_name: Zeros
        config: {}
      bias_regularizer: null
      data_format: channels_last
      dilation_rate: *id001
      dtype: float32
      filters: 192
      kernel_constraint: null
      kernel_initializer:
        class_name: VarianceScaling
        config:
          distribution: uniform
          mode: fan_avg
          scale: 1.0
          seed: null
      kernel_regularizer: null
      kernel_size: !!python/tuple
      - 1
      - 1
      name: conv2d_145
      padding: same
      strides: *id002
      trainable: true
      use_bias: false
    inbound_nodes:
    - - - mixed5
        - 0
        - 0
        - {}
    name: conv2d_145
  - class_name: Conv2D
    config:
      activation: linear
      activity_regularizer: null
      bias_constraint: null
      bias_initializer:
        class_name: Zeros
        config: {}
      bias_regularizer: null
      data_format: channels_last
      dilation_rate: *id001
      dtype: float32
      filters: 192
      kernel_constraint: null
      kernel_initializer:
        class_name: VarianceScaling
        config:
          distribution: uniform
          mode: fan_avg
          scale: 1.0
          seed: null
      kernel_regularizer: null
      kernel_size: !!python/tuple
      - 7
      - 1
      name: conv2d_148
      padding: same
      strides: *id002
      trainable: true
      use_bias: false
    inbound_nodes:
    - - - activation_196
        - 0
        - 0
        - {}
    name: conv2d_148
  - class_name: Conv2D
    config:
      activation: linear
      activity_regularizer: null
      bias_constraint: null
      bias_initializer:
        class_name: Zeros
        config: {}
      bias_regularizer: null
      data_format: channels_last
      dilation_rate: *id001
      dtype: float32
      filters: 192
      kernel_constraint: null
      kernel_initializer:
        class_name: VarianceScaling
        config:
          distribution: uniform
          mode: fan_avg
          scale: 1.0
          seed: null
      kernel_regularizer: null
      kernel_size: !!python/tuple
      - 1
      - 7
      name: conv2d_153
      padding: same
      strides: *id002
      trainable: true
      use_bias: false
    inbound_nodes:
    - - - activation_201
        - 0
        - 0
        - {}
    name: conv2d_153
  - class_name: Conv2D
    config:
      activation: linear
      activity_regularizer: null
      bias_constraint: null
      bias_initializer:
        class_name: Zeros
        config: {}
      bias_regularizer: null
      data_format: channels_last
      dilation_rate: *id001
      dtype: float32
      filters: 192
      kernel_constraint: null
      kernel_initializer:
        class_name: VarianceScaling
        config:
          distribution: uniform
          mode: fan_avg
          scale: 1.0
          seed: null
      kernel_regularizer: null
      kernel_size: !!python/tuple
      - 1
      - 1
      name: conv2d_154
      padding: same
      strides: *id002
      trainable: true
      use_bias: false
    inbound_nodes:
    - - - average_pooling2d_15
        - 0
        - 0
        - {}
    name: conv2d_154
  - class_name: BatchNormalization
    config:
      axis: 3
      beta_constraint: null
      beta_initializer:
        class_name: Zeros
        config: {}
      beta_regularizer: null
      center: true
      dtype: float32
      epsilon: 0.001
      gamma_constraint: null
      gamma_initializer:
        class_name: Ones
        config: {}
      gamma_regularizer: null
      momentum: 0.99
      moving_mean_initializer:
        class_name: Zeros
        config: {}
      moving_variance_initializer:
        class_name: Ones
        config: {}
      name: batch_normalization_145
      scale: false
      trainable: true
    inbound_nodes:
    - - - conv2d_145
        - 0
        - 0
        - {}
    name: batch_normalization_145
  - class_name: BatchNormalization
    config:
      axis: 3
      beta_constraint: null
      beta_initializer:
        class_name: Zeros
        config: {}
      beta_regularizer: null
      center: true
      dtype: float32
      epsilon: 0.001
      gamma_constraint: null
      gamma_initializer:
        class_name: Ones
        config: {}
      gamma_regularizer: null
      momentum: 0.99
      moving_mean_initializer:
        class_name: Zeros
        config: {}
      moving_variance_initializer:
        class_name: Ones
        config: {}
      name: batch_normalization_148
      scale: false
      trainable: true
    inbound_nodes:
    - - - conv2d_148
        - 0
        - 0
        - {}
    name: batch_normalization_148
  - class_name: BatchNormalization
    config:
      axis: 3
      beta_constraint: null
      beta_initializer:
        class_name: Zeros
        config: {}
      beta_regularizer: null
      center: true
      dtype: float32
      epsilon: 0.001
      gamma_constraint: null
      gamma_initializer:
        class_name: Ones
        config: {}
      gamma_regularizer: null
      momentum: 0.99
      moving_mean_initializer:
        class_name: Zeros
        config: {}
      moving_variance_initializer:
        class_name: Ones
        config: {}
      name: batch_normalization_153
      scale: false
      trainable: true
    inbound_nodes:
    - - - conv2d_153
        - 0
        - 0
        - {}
    name: batch_normalization_153
  - class_name: BatchNormalization
    config:
      axis: 3
      beta_constraint: null
      beta_initializer:
        class_name: Zeros
        config: {}
      beta_regularizer: null
      center: true
      dtype: float32
      epsilon: 0.001
      gamma_constraint: null
      gamma_initializer:
        class_name: Ones
        config: {}
      gamma_regularizer: null
      momentum: 0.99
      moving_mean_initializer:
        class_name: Zeros
        config: {}
      moving_variance_initializer:
        class_name: Ones
        config: {}
      name: batch_normalization_154
      scale: false
      trainable: true
    inbound_nodes:
    - - - conv2d_154
        - 0
        - 0
        - {}
    name: batch_normalization_154
  - class_name: Activation
    config:
      activation: relu
      dtype: float32
      name: activation_194
      trainable: true
    inbound_nodes:
    - - - batch_normalization_145
        - 0
        - 0
        - {}
    name: activation_194
  - class_name: Activation
    config:
      activation: relu
      dtype: float32
      name: activation_197
      trainable: true
    inbound_nodes:
    - - - batch_normalization_148
        - 0
        - 0
        - {}
    name: activation_197
  - class_name: Activation
    config:
      activation: relu
      dtype: float32
      name: activation_202
      trainable: true
    inbound_nodes:
    - - - batch_normalization_153
        - 0
        - 0
        - {}
    name: activation_202
  - class_name: Activation
    config:
      activation: relu
      dtype: float32
      name: activation_203
      trainable: true
    inbound_nodes:
    - - - batch_normalization_154
        - 0
        - 0
        - {}
    name: activation_203
  - class_name: Concatenate
    config:
      axis: 3
      dtype: float32
      name: mixed6
      trainable: true
    inbound_nodes:
    - - - activation_194
        - 0
        - 0
        - &id011 {}
      - - activation_197
        - 0
        - 0
        - *id011
      - - activation_202
        - 0
        - 0
        - *id011
      - - activation_203
        - 0
        - 0
        - *id011
    name: mixed6
  - class_name: Conv2D
    config:
      activation: linear
      activity_regularizer: null
      bias_constraint: null
      bias_initializer:
        class_name: Zeros
        config: {}
      bias_regularizer: null
      data_format: channels_last
      dilation_rate: *id001
      dtype: float32
      filters: 192
      kernel_constraint: null
      kernel_initializer:
        class_name: VarianceScaling
        config:
          distribution: uniform
          mode: fan_avg
          scale: 1.0
          seed: null
      kernel_regularizer: null
      kernel_size: !!python/tuple
      - 1
      - 1
      name: conv2d_159
      padding: same
      strides: *id002
      trainable: true
      use_bias: false
    inbound_nodes:
    - - - mixed6
        - 0
        - 0
        - {}
    name: conv2d_159
  - class_name: BatchNormalization
    config:
      axis: 3
      beta_constraint: null
      beta_initializer:
        class_name: Zeros
        config: {}
      beta_regularizer: null
      center: true
      dtype: float32
      epsilon: 0.001
      gamma_constraint: null
      gamma_initializer:
        class_name: Ones
        config: {}
      gamma_regularizer: null
      momentum: 0.99
      moving_mean_initializer:
        class_name: Zeros
        config: {}
      moving_variance_initializer:
        class_name: Ones
        config: {}
      name: batch_normalization_159
      scale: false
      trainable: true
    inbound_nodes:
    - - - conv2d_159
        - 0
        - 0
        - {}
    name: batch_normalization_159
  - class_name: Activation
    config:
      activation: relu
      dtype: float32
      name: activation_208
      trainable: true
    inbound_nodes:
    - - - batch_normalization_159
        - 0
        - 0
        - {}
    name: activation_208
  - class_name: Conv2D
    config:
      activation: linear
      activity_regularizer: null
      bias_constraint: null
      bias_initializer:
        class_name: Zeros
        config: {}
      bias_regularizer: null
      data_format: channels_last
      dilation_rate: *id001
      dtype: float32
      filters: 192
      kernel_constraint: null
      kernel_initializer:
        class_name: VarianceScaling
        config:
          distribution: uniform
          mode: fan_avg
          scale: 1.0
          seed: null
      kernel_regularizer: null
      kernel_size: !!python/tuple
      - 7
      - 1
      name: conv2d_160
      padding: same
      strides: *id002
      trainable: true
      use_bias: false
    inbound_nodes:
    - - - activation_208
        - 0
        - 0
        - {}
    name: conv2d_160
  - class_name: BatchNormalization
    config:
      axis: 3
      beta_constraint: null
      beta_initializer:
        class_name: Zeros
        config: {}
      beta_regularizer: null
      center: true
      dtype: float32
      epsilon: 0.001
      gamma_constraint: null
      gamma_initializer:
        class_name: Ones
        config: {}
      gamma_regularizer: null
      momentum: 0.99
      moving_mean_initializer:
        class_name: Zeros
        config: {}
      moving_variance_initializer:
        class_name: Ones
        config: {}
      name: batch_normalization_160
      scale: false
      trainable: true
    inbound_nodes:
    - - - conv2d_160
        - 0
        - 0
        - {}
    name: batch_normalization_160
  - class_name: Activation
    config:
      activation: relu
      dtype: float32
      name: activation_209
      trainable: true
    inbound_nodes:
    - - - batch_normalization_160
        - 0
        - 0
        - {}
    name: activation_209
  - class_name: Conv2D
    config:
      activation: linear
      activity_regularizer: null
      bias_constraint: null
      bias_initializer:
        class_name: Zeros
        config: {}
      bias_regularizer: null
      data_format: channels_last
      dilation_rate: *id001
      dtype: float32
      filters: 192
      kernel_constraint: null
      kernel_initializer:
        class_name: VarianceScaling
        config:
          distribution: uniform
          mode: fan_avg
          scale: 1.0
          seed: null
      kernel_regularizer: null
      kernel_size: !!python/tuple
      - 1
      - 1
      name: conv2d_156
      padding: same
      strides: *id002
      trainable: true
      use_bias: false
    inbound_nodes:
    - - - mixed6
        - 0
        - 0
        - {}
    name: conv2d_156
  - class_name: Conv2D
    config:
      activation: linear
      activity_regularizer: null
      bias_constraint: null
      bias_initializer:
        class_name: Zeros
        config: {}
      bias_regularizer: null
      data_format: channels_last
      dilation_rate: *id001
      dtype: float32
      filters: 192
      kernel_constraint: null
      kernel_initializer:
        class_name: VarianceScaling
        config:
          distribution: uniform
          mode: fan_avg
          scale: 1.0
          seed: null
      kernel_regularizer: null
      kernel_size: !!python/tuple
      - 1
      - 7
      name: conv2d_161
      padding: same
      strides: *id002
      trainable: true
      use_bias: false
    inbound_nodes:
    - - - activation_209
        - 0
        - 0
        - {}
    name: conv2d_161
  - class_name: BatchNormalization
    config:
      axis: 3
      beta_constraint: null
      beta_initializer:
        class_name: Zeros
        config: {}
      beta_regularizer: null
      center: true
      dtype: float32
      epsilon: 0.001
      gamma_constraint: null
      gamma_initializer:
        class_name: Ones
        config: {}
      gamma_regularizer: null
      momentum: 0.99
      moving_mean_initializer:
        class_name: Zeros
        config: {}
      moving_variance_initializer:
        class_name: Ones
        config: {}
      name: batch_normalization_156
      scale: false
      trainable: true
    inbound_nodes:
    - - - conv2d_156
        - 0
        - 0
        - {}
    name: batch_normalization_156
  - class_name: BatchNormalization
    config:
      axis: 3
      beta_constraint: null
      beta_initializer:
        class_name: Zeros
        config: {}
      beta_regularizer: null
      center: true
      dtype: float32
      epsilon: 0.001
      gamma_constraint: null
      gamma_initializer:
        class_name: Ones
        config: {}
      gamma_regularizer: null
      momentum: 0.99
      moving_mean_initializer:
        class_name: Zeros
        config: {}
      moving_variance_initializer:
        class_name: Ones
        config: {}
      name: batch_normalization_161
      scale: false
      trainable: true
    inbound_nodes:
    - - - conv2d_161
        - 0
        - 0
        - {}
    name: batch_normalization_161
  - class_name: Activation
    config:
      activation: relu
      dtype: float32
      name: activation_205
      trainable: true
    inbound_nodes:
    - - - batch_normalization_156
        - 0
        - 0
        - {}
    name: activation_205
  - class_name: Activation
    config:
      activation: relu
      dtype: float32
      name: activation_210
      trainable: true
    inbound_nodes:
    - - - batch_normalization_161
        - 0
        - 0
        - {}
    name: activation_210
  - class_name: Conv2D
    config:
      activation: linear
      activity_regularizer: null
      bias_constraint: null
      bias_initializer:
        class_name: Zeros
        config: {}
      bias_regularizer: null
      data_format: channels_last
      dilation_rate: *id001
      dtype: float32
      filters: 192
      kernel_constraint: null
      kernel_initializer:
        class_name: VarianceScaling
        config:
          distribution: uniform
          mode: fan_avg
          scale: 1.0
          seed: null
      kernel_regularizer: null
      kernel_size: !!python/tuple
      - 1
      - 7
      name: conv2d_157
      padding: same
      strides: *id002
      trainable: true
      use_bias: false
    inbound_nodes:
    - - - activation_205
        - 0
        - 0
        - {}
    name: conv2d_157
  - class_name: Conv2D
    config:
      activation: linear
      activity_regularizer: null
      bias_constraint: null
      bias_initializer:
        class_name: Zeros
        config: {}
      bias_regularizer: null
      data_format: channels_last
      dilation_rate: *id001
      dtype: float32
      filters: 192
      kernel_constraint: null
      kernel_initializer:
        class_name: VarianceScaling
        config:
          distribution: uniform
          mode: fan_avg
          scale: 1.0
          seed: null
      kernel_regularizer: null
      kernel_size: !!python/tuple
      - 7
      - 1
      name: conv2d_162
      padding: same
      strides: *id002
      trainable: true
      use_bias: false
    inbound_nodes:
    - - - activation_210
        - 0
        - 0
        - {}
    name: conv2d_162
  - class_name: BatchNormalization
    config:
      axis: 3
      beta_constraint: null
      beta_initializer:
        class_name: Zeros
        config: {}
      beta_regularizer: null
      center: true
      dtype: float32
      epsilon: 0.001
      gamma_constraint: null
      gamma_initializer:
        class_name: Ones
        config: {}
      gamma_regularizer: null
      momentum: 0.99
      moving_mean_initializer:
        class_name: Zeros
        config: {}
      moving_variance_initializer:
        class_name: Ones
        config: {}
      name: batch_normalization_157
      scale: false
      trainable: true
    inbound_nodes:
    - - - conv2d_157
        - 0
        - 0
        - {}
    name: batch_normalization_157
  - class_name: BatchNormalization
    config:
      axis: 3
      beta_constraint: null
      beta_initializer:
        class_name: Zeros
        config: {}
      beta_regularizer: null
      center: true
      dtype: float32
      epsilon: 0.001
      gamma_constraint: null
      gamma_initializer:
        class_name: Ones
        config: {}
      gamma_regularizer: null
      momentum: 0.99
      moving_mean_initializer:
        class_name: Zeros
        config: {}
      moving_variance_initializer:
        class_name: Ones
        config: {}
      name: batch_normalization_162
      scale: false
      trainable: true
    inbound_nodes:
    - - - conv2d_162
        - 0
        - 0
        - {}
    name: batch_normalization_162
  - class_name: Activation
    config:
      activation: relu
      dtype: float32
      name: activation_206
      trainable: true
    inbound_nodes:
    - - - batch_normalization_157
        - 0
        - 0
        - {}
    name: activation_206
  - class_name: Activation
    config:
      activation: relu
      dtype: float32
      name: activation_211
      trainable: true
    inbound_nodes:
    - - - batch_normalization_162
        - 0
        - 0
        - {}
    name: activation_211
  - class_name: AveragePooling2D
    config:
      data_format: channels_last
      dtype: float32
      name: average_pooling2d_16
      padding: same
      pool_size: !!python/tuple
      - 3
      - 3
      strides: !!python/tuple
      - 1
      - 1
      trainable: true
    inbound_nodes:
    - - - mixed6
        - 0
        - 0
        - {}
    name: average_pooling2d_16
  - class_name: Conv2D
    config:
      activation: linear
      activity_regularizer: null
      bias_constraint: null
      bias_initializer:
        class_name: Zeros
        config: {}
      bias_regularizer: null
      data_format: channels_last
      dilation_rate: *id001
      dtype: float32
      filters: 192
      kernel_constraint: null
      kernel_initializer:
        class_name: VarianceScaling
        config:
          distribution: uniform
          mode: fan_avg
          scale: 1.0
          seed: null
      kernel_regularizer: null
      kernel_size: !!python/tuple
      - 1
      - 1
      name: conv2d_155
      padding: same
      strides: *id002
      trainable: true
      use_bias: false
    inbound_nodes:
    - - - mixed6
        - 0
        - 0
        - {}
    name: conv2d_155
  - class_name: Conv2D
    config:
      activation: linear
      activity_regularizer: null
      bias_constraint: null
      bias_initializer:
        class_name: Zeros
        config: {}
      bias_regularizer: null
      data_format: channels_last
      dilation_rate: *id001
      dtype: float32
      filters: 192
      kernel_constraint: null
      kernel_initializer:
        class_name: VarianceScaling
        config:
          distribution: uniform
          mode: fan_avg
          scale: 1.0
          seed: null
      kernel_regularizer: null
      kernel_size: !!python/tuple
      - 7
      - 1
      name: conv2d_158
      padding: same
      strides: *id002
      trainable: true
      use_bias: false
    inbound_nodes:
    - - - activation_206
        - 0
        - 0
        - {}
    name: conv2d_158
  - class_name: Conv2D
    config:
      activation: linear
      activity_regularizer: null
      bias_constraint: null
      bias_initializer:
        class_name: Zeros
        config: {}
      bias_regularizer: null
      data_format: channels_last
      dilation_rate: *id001
      dtype: float32
      filters: 192
      kernel_constraint: null
      kernel_initializer:
        class_name: VarianceScaling
        config:
          distribution: uniform
          mode: fan_avg
          scale: 1.0
          seed: null
      kernel_regularizer: null
      kernel_size: !!python/tuple
      - 1
      - 7
      name: conv2d_163
      padding: same
      strides: *id002
      trainable: true
      use_bias: false
    inbound_nodes:
    - - - activation_211
        - 0
        - 0
        - {}
    name: conv2d_163
  - class_name: Conv2D
    config:
      activation: linear
      activity_regularizer: null
      bias_constraint: null
      bias_initializer:
        class_name: Zeros
        config: {}
      bias_regularizer: null
      data_format: channels_last
      dilation_rate: *id001
      dtype: float32
      filters: 192
      kernel_constraint: null
      kernel_initializer:
        class_name: VarianceScaling
        config:
          distribution: uniform
          mode: fan_avg
          scale: 1.0
          seed: null
      kernel_regularizer: null
      kernel_size: !!python/tuple
      - 1
      - 1
      name: conv2d_164
      padding: same
      strides: *id002
      trainable: true
      use_bias: false
    inbound_nodes:
    - - - average_pooling2d_16
        - 0
        - 0
        - {}
    name: conv2d_164
  - class_name: BatchNormalization
    config:
      axis: 3
      beta_constraint: null
      beta_initializer:
        class_name: Zeros
        config: {}
      beta_regularizer: null
      center: true
      dtype: float32
      epsilon: 0.001
      gamma_constraint: null
      gamma_initializer:
        class_name: Ones
        config: {}
      gamma_regularizer: null
      momentum: 0.99
      moving_mean_initializer:
        class_name: Zeros
        config: {}
      moving_variance_initializer:
        class_name: Ones
        config: {}
      name: batch_normalization_155
      scale: false
      trainable: true
    inbound_nodes:
    - - - conv2d_155
        - 0
        - 0
        - {}
    name: batch_normalization_155
  - class_name: BatchNormalization
    config:
      axis: 3
      beta_constraint: null
      beta_initializer:
        class_name: Zeros
        config: {}
      beta_regularizer: null
      center: true
      dtype: float32
      epsilon: 0.001
      gamma_constraint: null
      gamma_initializer:
        class_name: Ones
        config: {}
      gamma_regularizer: null
      momentum: 0.99
      moving_mean_initializer:
        class_name: Zeros
        config: {}
      moving_variance_initializer:
        class_name: Ones
        config: {}
      name: batch_normalization_158
      scale: false
      trainable: true
    inbound_nodes:
    - - - conv2d_158
        - 0
        - 0
        - {}
    name: batch_normalization_158
  - class_name: BatchNormalization
    config:
      axis: 3
      beta_constraint: null
      beta_initializer:
        class_name: Zeros
        config: {}
      beta_regularizer: null
      center: true
      dtype: float32
      epsilon: 0.001
      gamma_constraint: null
      gamma_initializer:
        class_name: Ones
        config: {}
      gamma_regularizer: null
      momentum: 0.99
      moving_mean_initializer:
        class_name: Zeros
        config: {}
      moving_variance_initializer:
        class_name: Ones
        config: {}
      name: batch_normalization_163
      scale: false
      trainable: true
    inbound_nodes:
    - - - conv2d_163
        - 0
        - 0
        - {}
    name: batch_normalization_163
  - class_name: BatchNormalization
    config:
      axis: 3
      beta_constraint: null
      beta_initializer:
        class_name: Zeros
        config: {}
      beta_regularizer: null
      center: true
      dtype: float32
      epsilon: 0.001
      gamma_constraint: null
      gamma_initializer:
        class_name: Ones
        config: {}
      gamma_regularizer: null
      momentum: 0.99
      moving_mean_initializer:
        class_name: Zeros
        config: {}
      moving_variance_initializer:
        class_name: Ones
        config: {}
      name: batch_normalization_164
      scale: false
      trainable: true
    inbound_nodes:
    - - - conv2d_164
        - 0
        - 0
        - {}
    name: batch_normalization_164
  - class_name: Activation
    config:
      activation: relu
      dtype: float32
      name: activation_204
      trainable: true
    inbound_nodes:
    - - - batch_normalization_155
        - 0
        - 0
        - {}
    name: activation_204
  - class_name: Activation
    config:
      activation: relu
      dtype: float32
      name: activation_207
      trainable: true
    inbound_nodes:
    - - - batch_normalization_158
        - 0
        - 0
        - {}
    name: activation_207
  - class_name: Activation
    config:
      activation: relu
      dtype: float32
      name: activation_212
      trainable: true
    inbound_nodes:
    - - - batch_normalization_163
        - 0
        - 0
        - {}
    name: activation_212
  - class_name: Activation
    config:
      activation: relu
      dtype: float32
      name: activation_213
      trainable: true
    inbound_nodes:
    - - - batch_normalization_164
        - 0
        - 0
        - {}
    name: activation_213
  - class_name: Concatenate
    config:
      axis: 3
      dtype: float32
      name: mixed7
      trainable: true
    inbound_nodes:
    - - - activation_204
        - 0
        - 0
        - &id012 {}
      - - activation_207
        - 0
        - 0
        - *id012
      - - activation_212
        - 0
        - 0
        - *id012
      - - activation_213
        - 0
        - 0
        - *id012
    name: mixed7
  - class_name: Conv2D
    config:
      activation: linear
      activity_regularizer: null
      bias_constraint: null
      bias_initializer:
        class_name: Zeros
        config: {}
      bias_regularizer: null
      data_format: channels_last
      dilation_rate: *id001
      dtype: float32
      filters: 192
      kernel_constraint: null
      kernel_initializer:
        class_name: VarianceScaling
        config:
          distribution: uniform
          mode: fan_avg
          scale: 1.0
          seed: null
      kernel_regularizer: null
      kernel_size: !!python/tuple
      - 1
      - 1
      name: conv2d_167
      padding: same
      strides: *id002
      trainable: true
      use_bias: false
    inbound_nodes:
    - - - mixed7
        - 0
        - 0
        - {}
    name: conv2d_167
  - class_name: BatchNormalization
    config:
      axis: 3
      beta_constraint: null
      beta_initializer:
        class_name: Zeros
        config: {}
      beta_regularizer: null
      center: true
      dtype: float32
      epsilon: 0.001
      gamma_constraint: null
      gamma_initializer:
        class_name: Ones
        config: {}
      gamma_regularizer: null
      momentum: 0.99
      moving_mean_initializer:
        class_name: Zeros
        config: {}
      moving_variance_initializer:
        class_name: Ones
        config: {}
      name: batch_normalization_167
      scale: false
      trainable: true
    inbound_nodes:
    - - - conv2d_167
        - 0
        - 0
        - {}
    name: batch_normalization_167
  - class_name: Activation
    config:
      activation: relu
      dtype: float32
      name: activation_216
      trainable: true
    inbound_nodes:
    - - - batch_normalization_167
        - 0
        - 0
        - {}
    name: activation_216
  - class_name: Conv2D
    config:
      activation: linear
      activity_regularizer: null
      bias_constraint: null
      bias_initializer:
        class_name: Zeros
        config: {}
      bias_regularizer: null
      data_format: channels_last
      dilation_rate: *id001
      dtype: float32
      filters: 192
      kernel_constraint: null
      kernel_initializer:
        class_name: VarianceScaling
        config:
          distribution: uniform
          mode: fan_avg
          scale: 1.0
          seed: null
      kernel_regularizer: null
      kernel_size: !!python/tuple
      - 1
      - 7
      name: conv2d_168
      padding: same
      strides: *id002
      trainable: true
      use_bias: false
    inbound_nodes:
    - - - activation_216
        - 0
        - 0
        - {}
    name: conv2d_168
  - class_name: BatchNormalization
    config:
      axis: 3
      beta_constraint: null
      beta_initializer:
        class_name: Zeros
        config: {}
      beta_regularizer: null
      center: true
      dtype: float32
      epsilon: 0.001
      gamma_constraint: null
      gamma_initializer:
        class_name: Ones
        config: {}
      gamma_regularizer: null
      momentum: 0.99
      moving_mean_initializer:
        class_name: Zeros
        config: {}
      moving_variance_initializer:
        class_name: Ones
        config: {}
      name: batch_normalization_168
      scale: false
      trainable: true
    inbound_nodes:
    - - - conv2d_168
        - 0
        - 0
        - {}
    name: batch_normalization_168
  - class_name: Activation
    config:
      activation: relu
      dtype: float32
      name: activation_217
      trainable: true
    inbound_nodes:
    - - - batch_normalization_168
        - 0
        - 0
        - {}
    name: activation_217
  - class_name: Conv2D
    config:
      activation: linear
      activity_regularizer: null
      bias_constraint: null
      bias_initializer:
        class_name: Zeros
        config: {}
      bias_regularizer: null
      data_format: channels_last
      dilation_rate: *id001
      dtype: float32
      filters: 192
      kernel_constraint: null
      kernel_initializer:
        class_name: VarianceScaling
        config:
          distribution: uniform
          mode: fan_avg
          scale: 1.0
          seed: null
      kernel_regularizer: null
      kernel_size: !!python/tuple
      - 1
      - 1
      name: conv2d_165
      padding: same
      strides: *id002
      trainable: true
      use_bias: false
    inbound_nodes:
    - - - mixed7
        - 0
        - 0
        - {}
    name: conv2d_165
  - class_name: Conv2D
    config:
      activation: linear
      activity_regularizer: null
      bias_constraint: null
      bias_initializer:
        class_name: Zeros
        config: {}
      bias_regularizer: null
      data_format: channels_last
      dilation_rate: *id001
      dtype: float32
      filters: 192
      kernel_constraint: null
      kernel_initializer:
        class_name: VarianceScaling
        config:
          distribution: uniform
          mode: fan_avg
          scale: 1.0
          seed: null
      kernel_regularizer: null
      kernel_size: !!python/tuple
      - 7
      - 1
      name: conv2d_169
      padding: same
      strides: *id002
      trainable: true
      use_bias: false
    inbound_nodes:
    - - - activation_217
        - 0
        - 0
        - {}
    name: conv2d_169
  - class_name: BatchNormalization
    config:
      axis: 3
      beta_constraint: null
      beta_initializer:
        class_name: Zeros
        config: {}
      beta_regularizer: null
      center: true
      dtype: float32
      epsilon: 0.001
      gamma_constraint: null
      gamma_initializer:
        class_name: Ones
        config: {}
      gamma_regularizer: null
      momentum: 0.99
      moving_mean_initializer:
        class_name: Zeros
        config: {}
      moving_variance_initializer:
        class_name: Ones
        config: {}
      name: batch_normalization_165
      scale: false
      trainable: true
    inbound_nodes:
    - - - conv2d_165
        - 0
        - 0
        - {}
    name: batch_normalization_165
  - class_name: BatchNormalization
    config:
      axis: 3
      beta_constraint: null
      beta_initializer:
        class_name: Zeros
        config: {}
      beta_regularizer: null
      center: true
      dtype: float32
      epsilon: 0.001
      gamma_constraint: null
      gamma_initializer:
        class_name: Ones
        config: {}
      gamma_regularizer: null
      momentum: 0.99
      moving_mean_initializer:
        class_name: Zeros
        config: {}
      moving_variance_initializer:
        class_name: Ones
        config: {}
      name: batch_normalization_169
      scale: false
      trainable: true
    inbound_nodes:
    - - - conv2d_169
        - 0
        - 0
        - {}
    name: batch_normalization_169
  - class_name: Activation
    config:
      activation: relu
      dtype: float32
      name: activation_214
      trainable: true
    inbound_nodes:
    - - - batch_normalization_165
        - 0
        - 0
        - {}
    name: activation_214
  - class_name: Activation
    config:
      activation: relu
      dtype: float32
      name: activation_218
      trainable: true
    inbound_nodes:
    - - - batch_normalization_169
        - 0
        - 0
        - {}
    name: activation_218
  - class_name: Conv2D
    config:
      activation: linear
      activity_regularizer: null
      bias_constraint: null
      bias_initializer:
        class_name: Zeros
        config: {}
      bias_regularizer: null
      data_format: channels_last
      dilation_rate: *id001
      dtype: float32
      filters: 320
      kernel_constraint: null
      kernel_initializer:
        class_name: VarianceScaling
        config:
          distribution: uniform
          mode: fan_avg
          scale: 1.0
          seed: null
      kernel_regularizer: null
      kernel_size: !!python/tuple
      - 3
      - 3
      name: conv2d_166
      padding: valid
      strides: !!python/tuple
      - 2
      - 2
      trainable: true
      use_bias: false
    inbound_nodes:
    - - - activation_214
        - 0
        - 0
        - {}
    name: conv2d_166
  - class_name: Conv2D
    config:
      activation: linear
      activity_regularizer: null
      bias_constraint: null
      bias_initializer:
        class_name: Zeros
        config: {}
      bias_regularizer: null
      data_format: channels_last
      dilation_rate: *id001
      dtype: float32
      filters: 192
      kernel_constraint: null
      kernel_initializer:
        class_name: VarianceScaling
        config:
          distribution: uniform
          mode: fan_avg
          scale: 1.0
          seed: null
      kernel_regularizer: null
      kernel_size: !!python/tuple
      - 3
      - 3
      name: conv2d_170
      padding: valid
      strides: !!python/tuple
      - 2
      - 2
      trainable: true
      use_bias: false
    inbound_nodes:
    - - - activation_218
        - 0
        - 0
        - {}
    name: conv2d_170
  - class_name: BatchNormalization
    config:
      axis: 3
      beta_constraint: null
      beta_initializer:
        class_name: Zeros
        config: {}
      beta_regularizer: null
      center: true
      dtype: float32
      epsilon: 0.001
      gamma_constraint: null
      gamma_initializer:
        class_name: Ones
        config: {}
      gamma_regularizer: null
      momentum: 0.99
      moving_mean_initializer:
        class_name: Zeros
        config: {}
      moving_variance_initializer:
        class_name: Ones
        config: {}
      name: batch_normalization_166
      scale: false
      trainable: true
    inbound_nodes:
    - - - conv2d_166
        - 0
        - 0
        - {}
    name: batch_normalization_166
  - class_name: BatchNormalization
    config:
      axis: 3
      beta_constraint: null
      beta_initializer:
        class_name: Zeros
        config: {}
      beta_regularizer: null
      center: true
      dtype: float32
      epsilon: 0.001
      gamma_constraint: null
      gamma_initializer:
        class_name: Ones
        config: {}
      gamma_regularizer: null
      momentum: 0.99
      moving_mean_initializer:
        class_name: Zeros
        config: {}
      moving_variance_initializer:
        class_name: Ones
        config: {}
      name: batch_normalization_170
      scale: false
      trainable: true
    inbound_nodes:
    - - - conv2d_170
        - 0
        - 0
        - {}
    name: batch_normalization_170
  - class_name: Activation
    config:
      activation: relu
      dtype: float32
      name: activation_215
      trainable: true
    inbound_nodes:
    - - - batch_normalization_166
        - 0
        - 0
        - {}
    name: activation_215
  - class_name: Activation
    config:
      activation: relu
      dtype: float32
      name: activation_219
      trainable: true
    inbound_nodes:
    - - - batch_normalization_170
        - 0
        - 0
        - {}
    name: activation_219
  - class_name: MaxPooling2D
    config:
      data_format: channels_last
      dtype: float32
      name: max_pooling2d_9
      padding: valid
      pool_size: !!python/tuple
      - 3
      - 3
      strides: !!python/tuple
      - 2
      - 2
      trainable: true
    inbound_nodes:
    - - - mixed7
        - 0
        - 0
        - {}
    name: max_pooling2d_9
  - class_name: Concatenate
    config:
      axis: 3
      dtype: float32
      name: mixed8
      trainable: true
    inbound_nodes:
    - - - activation_215
        - 0
        - 0
        - &id013 {}
      - - activation_219
        - 0
        - 0
        - *id013
      - - max_pooling2d_9
        - 0
        - 0
        - *id013
    name: mixed8
  - class_name: Conv2D
    config:
      activation: linear
      activity_regularizer: null
      bias_constraint: null
      bias_initializer:
        class_name: Zeros
        config: {}
      bias_regularizer: null
      data_format: channels_last
      dilation_rate: *id001
      dtype: float32
      filters: 448
      kernel_constraint: null
      kernel_initializer:
        class_name: VarianceScaling
        config:
          distribution: uniform
          mode: fan_avg
          scale: 1.0
          seed: null
      kernel_regularizer: null
      kernel_size: !!python/tuple
      - 1
      - 1
      name: conv2d_175
      padding: same
      strides: *id002
      trainable: true
      use_bias: false
    inbound_nodes:
    - - - mixed8
        - 0
        - 0
        - {}
    name: conv2d_175
  - class_name: BatchNormalization
    config:
      axis: 3
      beta_constraint: null
      beta_initializer:
        class_name: Zeros
        config: {}
      beta_regularizer: null
      center: true
      dtype: float32
      epsilon: 0.001
      gamma_constraint: null
      gamma_initializer:
        class_name: Ones
        config: {}
      gamma_regularizer: null
      momentum: 0.99
      moving_mean_initializer:
        class_name: Zeros
        config: {}
      moving_variance_initializer:
        class_name: Ones
        config: {}
      name: batch_normalization_175
      scale: false
      trainable: true
    inbound_nodes:
    - - - conv2d_175
        - 0
        - 0
        - {}
    name: batch_normalization_175
  - class_name: Activation
    config:
      activation: relu
      dtype: float32
      name: activation_224
      trainable: true
    inbound_nodes:
    - - - batch_normalization_175
        - 0
        - 0
        - {}
    name: activation_224
  - class_name: Conv2D
    config:
      activation: linear
      activity_regularizer: null
      bias_constraint: null
      bias_initializer:
        class_name: Zeros
        config: {}
      bias_regularizer: null
      data_format: channels_last
      dilation_rate: *id001
      dtype: float32
      filters: 384
      kernel_constraint: null
      kernel_initializer:
        class_name: VarianceScaling
        config:
          distribution: uniform
          mode: fan_avg
          scale: 1.0
          seed: null
      kernel_regularizer: null
      kernel_size: !!python/tuple
      - 1
      - 1
      name: conv2d_172
      padding: same
      strides: *id002
      trainable: true
      use_bias: false
    inbound_nodes:
    - - - mixed8
        - 0
        - 0
        - {}
    name: conv2d_172
  - class_name: Conv2D
    config:
      activation: linear
      activity_regularizer: null
      bias_constraint: null
      bias_initializer:
        class_name: Zeros
        config: {}
      bias_regularizer: null
      data_format: channels_last
      dilation_rate: *id001
      dtype: float32
      filters: 384
      kernel_constraint: null
      kernel_initializer:
        class_name: VarianceScaling
        config:
          distribution: uniform
          mode: fan_avg
          scale: 1.0
          seed: null
      kernel_regularizer: null
      kernel_size: !!python/tuple
      - 3
      - 3
      name: conv2d_176
      padding: same
      strides: *id002
      trainable: true
      use_bias: false
    inbound_nodes:
    - - - activation_224
        - 0
        - 0
        - {}
    name: conv2d_176
  - class_name: BatchNormalization
    config:
      axis: 3
      beta_constraint: null
      beta_initializer:
        class_name: Zeros
        config: {}
      beta_regularizer: null
      center: true
      dtype: float32
      epsilon: 0.001
      gamma_constraint: null
      gamma_initializer:
        class_name: Ones
        config: {}
      gamma_regularizer: null
      momentum: 0.99
      moving_mean_initializer:
        class_name: Zeros
        config: {}
      moving_variance_initializer:
        class_name: Ones
        config: {}
      name: batch_normalization_172
      scale: false
      trainable: true
    inbound_nodes:
    - - - conv2d_172
        - 0
        - 0
        - {}
    name: batch_normalization_172
  - class_name: BatchNormalization
    config:
      axis: 3
      beta_constraint: null
      beta_initializer:
        class_name: Zeros
        config: {}
      beta_regularizer: null
      center: true
      dtype: float32
      epsilon: 0.001
      gamma_constraint: null
      gamma_initializer:
        class_name: Ones
        config: {}
      gamma_regularizer: null
      momentum: 0.99
      moving_mean_initializer:
        class_name: Zeros
        config: {}
      moving_variance_initializer:
        class_name: Ones
        config: {}
      name: batch_normalization_176
      scale: false
      trainable: true
    inbound_nodes:
    - - - conv2d_176
        - 0
        - 0
        - {}
    name: batch_normalization_176
  - class_name: Activation
    config:
      activation: relu
      dtype: float32
      name: activation_221
      trainable: true
    inbound_nodes:
    - - - batch_normalization_172
        - 0
        - 0
        - {}
    name: activation_221
  - class_name: Activation
    config:
      activation: relu
      dtype: float32
      name: activation_225
      trainable: true
    inbound_nodes:
    - - - batch_normalization_176
        - 0
        - 0
        - {}
    name: activation_225
  - class_name: Conv2D
    config:
      activation: linear
      activity_regularizer: null
      bias_constraint: null
      bias_initializer:
        class_name: Zeros
        config: {}
      bias_regularizer: null
      data_format: channels_last
      dilation_rate: *id001
      dtype: float32
      filters: 384
      kernel_constraint: null
      kernel_initializer:
        class_name: VarianceScaling
        config:
          distribution: uniform
          mode: fan_avg
          scale: 1.0
          seed: null
      kernel_regularizer: null
      kernel_size: !!python/tuple
      - 1
      - 3
      name: conv2d_173
      padding: same
      strides: *id002
      trainable: true
      use_bias: false
    inbound_nodes:
    - - - activation_221
        - 0
        - 0
        - {}
    name: conv2d_173
  - class_name: Conv2D
    config:
      activation: linear
      activity_regularizer: null
      bias_constraint: null
      bias_initializer:
        class_name: Zeros
        config: {}
      bias_regularizer: null
      data_format: channels_last
      dilation_rate: *id001
      dtype: float32
      filters: 384
      kernel_constraint: null
      kernel_initializer:
        class_name: VarianceScaling
        config:
          distribution: uniform
          mode: fan_avg
          scale: 1.0
          seed: null
      kernel_regularizer: null
      kernel_size: !!python/tuple
      - 3
      - 1
      name: conv2d_174
      padding: same
      strides: *id002
      trainable: true
      use_bias: false
    inbound_nodes:
    - - - activation_221
        - 0
        - 0
        - {}
    name: conv2d_174
  - class_name: Conv2D
    config:
      activation: linear
      activity_regularizer: null
      bias_constraint: null
      bias_initializer:
        class_name: Zeros
        config: {}
      bias_regularizer: null
      data_format: channels_last
      dilation_rate: *id001
      dtype: float32
      filters: 384
      kernel_constraint: null
      kernel_initializer:
        class_name: VarianceScaling
        config:
          distribution: uniform
          mode: fan_avg
          scale: 1.0
          seed: null
      kernel_regularizer: null
      kernel_size: !!python/tuple
      - 1
      - 3
      name: conv2d_177
      padding: same
      strides: *id002
      trainable: true
      use_bias: false
    inbound_nodes:
    - - - activation_225
        - 0
        - 0
        - {}
    name: conv2d_177
  - class_name: Conv2D
    config:
      activation: linear
      activity_regularizer: null
      bias_constraint: null
      bias_initializer:
        class_name: Zeros
        config: {}
      bias_regularizer: null
      data_format: channels_last
      dilation_rate: *id001
      dtype: float32
      filters: 384
      kernel_constraint: null
      kernel_initializer:
        class_name: VarianceScaling
        config:
          distribution: uniform
          mode: fan_avg
          scale: 1.0
          seed: null
      kernel_regularizer: null
      kernel_size: !!python/tuple
      - 3
      - 1
      name: conv2d_178
      padding: same
      strides: *id002
      trainable: true
      use_bias: false
    inbound_nodes:
    - - - activation_225
        - 0
        - 0
        - {}
    name: conv2d_178
  - class_name: AveragePooling2D
    config:
      data_format: channels_last
      dtype: float32
      name: average_pooling2d_17
      padding: same
      pool_size: &id017 !!python/tuple
      - 3
      - 3
      strides: &id018 !!python/tuple
      - 1
      - 1
      trainable: true
    inbound_nodes:
    - - - mixed8
        - 0
        - 0
        - {}
    name: average_pooling2d_17
  - class_name: Conv2D
    config:
      activation: linear
      activity_regularizer: null
      bias_constraint: null
      bias_initializer:
        class_name: Zeros
        config: {}
      bias_regularizer: null
      data_format: channels_last
      dilation_rate: *id001
      dtype: float32
      filters: 320
      kernel_constraint: null
      kernel_initializer:
        class_name: VarianceScaling
        config:
          distribution: uniform
          mode: fan_avg
          scale: 1.0
          seed: null
      kernel_regularizer: null
      kernel_size: !!python/tuple
      - 1
      - 1
      name: conv2d_171
      padding: same
      strides: *id002
      trainable: true
      use_bias: false
    inbound_nodes:
    - - - mixed8
        - 0
        - 0
        - {}
    name: conv2d_171
  - class_name: BatchNormalization
    config:
      axis: 3
      beta_constraint: null
      beta_initializer:
        class_name: Zeros
        config: {}
      beta_regularizer: null
      center: true
      dtype: float32
      epsilon: 0.001
      gamma_constraint: null
      gamma_initializer:
        class_name: Ones
        config: {}
      gamma_regularizer: null
      momentum: 0.99
      moving_mean_initializer:
        class_name: Zeros
        config: {}
      moving_variance_initializer:
        class_name: Ones
        config: {}
      name: batch_normalization_173
      scale: false
      trainable: true
    inbound_nodes:
    - - - conv2d_173
        - 0
        - 0
        - {}
    name: batch_normalization_173
  - class_name: BatchNormalization
    config:
      axis: 3
      beta_constraint: null
      beta_initializer:
        class_name: Zeros
        config: {}
      beta_regularizer: null
      center: true
      dtype: float32
      epsilon: 0.001
      gamma_constraint: null
      gamma_initializer:
        class_name: Ones
        config: {}
      gamma_regularizer: null
      momentum: 0.99
      moving_mean_initializer:
        class_name: Zeros
        config: {}
      moving_variance_initializer:
        class_name: Ones
        config: {}
      name: batch_normalization_174
      scale: false
      trainable: true
    inbound_nodes:
    - - - conv2d_174
        - 0
        - 0
        - {}
    name: batch_normalization_174
  - class_name: BatchNormalization
    config:
      axis: 3
      beta_constraint: null
      beta_initializer:
        class_name: Zeros
        config: {}
      beta_regularizer: null
      center: true
      dtype: float32
      epsilon: 0.001
      gamma_constraint: null
      gamma_initializer:
        class_name: Ones
        config: {}
      gamma_regularizer: null
      momentum: 0.99
      moving_mean_initializer:
        class_name: Zeros
        config: {}
      moving_variance_initializer:
        class_name: Ones
        config: {}
      name: batch_normalization_177
      scale: false
      trainable: true
    inbound_nodes:
    - - - conv2d_177
        - 0
        - 0
        - {}
    name: batch_normalization_177
  - class_name: BatchNormalization
    config:
      axis: 3
      beta_constraint: null
      beta_initializer:
        class_name: Zeros
        config: {}
      beta_regularizer: null
      center: true
      dtype: float32
      epsilon: 0.001
      gamma_constraint: null
      gamma_initializer:
        class_name: Ones
        config: {}
      gamma_regularizer: null
      momentum: 0.99
      moving_mean_initializer:
        class_name: Zeros
        config: {}
      moving_variance_initializer:
        class_name: Ones
        config: {}
      name: batch_normalization_178
      scale: false
      trainable: true
    inbound_nodes:
    - - - conv2d_178
        - 0
        - 0
        - {}
    name: batch_normalization_178
  - class_name: Conv2D
    config:
      activation: linear
      activity_regularizer: null
      bias_constraint: null
      bias_initializer:
        class_name: Zeros
        config: {}
      bias_regularizer: null
      data_format: channels_last
      dilation_rate: *id001
      dtype: float32
      filters: 192
      kernel_constraint: null
      kernel_initializer:
        class_name: VarianceScaling
        config:
          distribution: uniform
          mode: fan_avg
          scale: 1.0
          seed: null
      kernel_regularizer: null
      kernel_size: !!python/tuple
      - 1
      - 1
      name: conv2d_179
      padding: same
      strides: *id002
      trainable: true
      use_bias: false
    inbound_nodes:
    - - - average_pooling2d_17
        - 0
        - 0
        - {}
    name: conv2d_179
  - class_name: BatchNormalization
    config:
      axis: 3
      beta_constraint: null
      beta_initializer:
        class_name: Zeros
        config: {}
      beta_regularizer: null
      center: true
      dtype: float32
      epsilon: 0.001
      gamma_constraint: null
      gamma_initializer:
        class_name: Ones
        config: {}
      gamma_regularizer: null
      momentum: 0.99
      moving_mean_initializer:
        class_name: Zeros
        config: {}
      moving_variance_initializer:
        class_name: Ones
        config: {}
      name: batch_normalization_171
      scale: false
      trainable: true
    inbound_nodes:
    - - - conv2d_171
        - 0
        - 0
        - {}
    name: batch_normalization_171
  - class_name: Activation
    config:
      activation: relu
      dtype: float32
      name: activation_222
      trainable: true
    inbound_nodes:
    - - - batch_normalization_173
        - 0
        - 0
        - {}
    name: activation_222
  - class_name: Activation
    config:
      activation: relu
      dtype: float32
      name: activation_223
      trainable: true
    inbound_nodes:
    - - - batch_normalization_174
        - 0
        - 0
        - {}
    name: activation_223
  - class_name: Activation
    config:
      activation: relu
      dtype: float32
      name: activation_226
      trainable: true
    inbound_nodes:
    - - - batch_normalization_177
        - 0
        - 0
        - {}
    name: activation_226
  - class_name: Activation
    config:
      activation: relu
      dtype: float32
      name: activation_227
      trainable: true
    inbound_nodes:
    - - - batch_normalization_178
        - 0
        - 0
        - {}
    name: activation_227
  - class_name: BatchNormalization
    config:
      axis: 3
      beta_constraint: null
      beta_initializer:
        class_name: Zeros
        config: {}
      beta_regularizer: null
      center: true
      dtype: float32
      epsilon: 0.001
      gamma_constraint: null
      gamma_initializer:
        class_name: Ones
        config: {}
      gamma_regularizer: null
      momentum: 0.99
      moving_mean_initializer:
        class_name: Zeros
        config: {}
      moving_variance_initializer:
        class_name: Ones
        config: {}
      name: batch_normalization_179
      scale: false
      trainable: true
    inbound_nodes:
    - - - conv2d_179
        - 0
        - 0
        - {}
    name: batch_normalization_179
  - class_name: Activation
    config:
      activation: relu
      dtype: float32
      name: activation_220
      trainable: true
    inbound_nodes:
    - - - batch_normalization_171
        - 0
        - 0
        - {}
    name: activation_220
  - class_name: Concatenate
    config:
      axis: 3
      dtype: float32
      name: mixed9_0
      trainable: true
    inbound_nodes:
    - - - activation_222
        - 0
        - 0
        - &id014 {}
      - - activation_223
        - 0
        - 0
        - *id014
    name: mixed9_0
  - class_name: Concatenate
    config:
      axis: 3
      dtype: float32
      name: concatenate_3
      trainable: true
    inbound_nodes:
    - - - activation_226
        - 0
        - 0
        - &id015 {}
      - - activation_227
        - 0
        - 0
        - *id015
    name: concatenate_3
  - class_name: Activation
    config:
      activation: relu
      dtype: float32
      name: activation_228
      trainable: true
    inbound_nodes:
    - - - batch_normalization_179
        - 0
        - 0
        - {}
    name: activation_228
  - class_name: Concatenate
    config:
      axis: 3
      dtype: float32
      name: mixed9
      trainable: true
    inbound_nodes:
    - - - activation_220
        - 0
        - 0
        - &id016 {}
      - - mixed9_0
        - 0
        - 0
        - *id016
      - - concatenate_3
        - 0
        - 0
        - *id016
      - - activation_228
        - 0
        - 0
        - *id016
    name: mixed9
  - class_name: Conv2D
    config:
      activation: linear
      activity_regularizer: null
      bias_constraint: null
      bias_initializer:
        class_name: Zeros
        config: {}
      bias_regularizer: null
      data_format: channels_last
      dilation_rate: *id001
      dtype: float32
      filters: 448
      kernel_constraint: null
      kernel_initializer:
        class_name: VarianceScaling
        config:
          distribution: uniform
          mode: fan_avg
          scale: 1.0
          seed: null
      kernel_regularizer: null
      kernel_size: !!python/tuple
      - 1
      - 1
      name: conv2d_184
      padding: same
      strides: *id002
      trainable: true
      use_bias: false
    inbound_nodes:
    - - - mixed9
        - 0
        - 0
        - {}
    name: conv2d_184
  - class_name: BatchNormalization
    config:
      axis: 3
      beta_constraint: null
      beta_initializer:
        class_name: Zeros
        config: {}
      beta_regularizer: null
      center: true
      dtype: float32
      epsilon: 0.001
      gamma_constraint: null
      gamma_initializer:
        class_name: Ones
        config: {}
      gamma_regularizer: null
      momentum: 0.99
      moving_mean_initializer:
        class_name: Zeros
        config: {}
      moving_variance_initializer:
        class_name: Ones
        config: {}
      name: batch_normalization_184
      scale: false
      trainable: true
    inbound_nodes:
    - - - conv2d_184
        - 0
        - 0
        - {}
    name: batch_normalization_184
  - class_name: Activation
    config:
      activation: relu
      dtype: float32
      name: activation_233
      trainable: true
    inbound_nodes:
    - - - batch_normalization_184
        - 0
        - 0
        - {}
    name: activation_233
  - class_name: Conv2D
    config:
      activation: linear
      activity_regularizer: null
      bias_constraint: null
      bias_initializer:
        class_name: Zeros
        config: {}
      bias_regularizer: null
      data_format: channels_last
      dilation_rate: *id001
      dtype: float32
      filters: 384
      kernel_constraint: null
      kernel_initializer:
        class_name: VarianceScaling
        config:
          distribution: uniform
          mode: fan_avg
          scale: 1.0
          seed: null
      kernel_regularizer: null
      kernel_size: !!python/tuple
      - 1
      - 1
      name: conv2d_181
      padding: same
      strides: *id002
      trainable: true
      use_bias: false
    inbound_nodes:
    - - - mixed9
        - 0
        - 0
        - {}
    name: conv2d_181
  - class_name: Conv2D
    config:
      activation: linear
      activity_regularizer: null
      bias_constraint: null
      bias_initializer:
        class_name: Zeros
        config: {}
      bias_regularizer: null
      data_format: channels_last
      dilation_rate: *id001
      dtype: float32
      filters: 384
      kernel_constraint: null
      kernel_initializer:
        class_name: VarianceScaling
        config:
          distribution: uniform
          mode: fan_avg
          scale: 1.0
          seed: null
      kernel_regularizer: null
      kernel_size: !!python/tuple
      - 3
      - 3
      name: conv2d_185
      padding: same
      strides: *id002
      trainable: true
      use_bias: false
    inbound_nodes:
    - - - activation_233
        - 0
        - 0
        - {}
    name: conv2d_185
  - class_name: BatchNormalization
    config:
      axis: 3
      beta_constraint: null
      beta_initializer:
        class_name: Zeros
        config: {}
      beta_regularizer: null
      center: true
      dtype: float32
      epsilon: 0.001
      gamma_constraint: null
      gamma_initializer:
        class_name: Ones
        config: {}
      gamma_regularizer: null
      momentum: 0.99
      moving_mean_initializer:
        class_name: Zeros
        config: {}
      moving_variance_initializer:
        class_name: Ones
        config: {}
      name: batch_normalization_181
      scale: false
      trainable: true
    inbound_nodes:
    - - - conv2d_181
        - 0
        - 0
        - {}
    name: batch_normalization_181
  - class_name: BatchNormalization
    config:
      axis: 3
      beta_constraint: null
      beta_initializer:
        class_name: Zeros
        config: {}
      beta_regularizer: null
      center: true
      dtype: float32
      epsilon: 0.001
      gamma_constraint: null
      gamma_initializer:
        class_name: Ones
        config: {}
      gamma_regularizer: null
      momentum: 0.99
      moving_mean_initializer:
        class_name: Zeros
        config: {}
      moving_variance_initializer:
        class_name: Ones
        config: {}
      name: batch_normalization_185
      scale: false
      trainable: true
    inbound_nodes:
    - - - conv2d_185
        - 0
        - 0
        - {}
    name: batch_normalization_185
  - class_name: Activation
    config:
      activation: relu
      dtype: float32
      name: activation_230
      trainable: true
    inbound_nodes:
    - - - batch_normalization_181
        - 0
        - 0
        - {}
    name: activation_230
  - class_name: Activation
    config:
      activation: relu
      dtype: float32
      name: activation_234
      trainable: true
    inbound_nodes:
    - - - batch_normalization_185
        - 0
        - 0
        - {}
    name: activation_234
  - class_name: Conv2D
    config:
      activation: linear
      activity_regularizer: null
      bias_constraint: null
      bias_initializer:
        class_name: Zeros
        config: {}
      bias_regularizer: null
      data_format: channels_last
      dilation_rate: *id001
      dtype: float32
      filters: 384
      kernel_constraint: null
      kernel_initializer:
        class_name: VarianceScaling
        config:
          distribution: uniform
          mode: fan_avg
          scale: 1.0
          seed: null
      kernel_regularizer: null
      kernel_size: !!python/tuple
      - 1
      - 3
      name: conv2d_182
      padding: same
      strides: *id002
      trainable: true
      use_bias: false
    inbound_nodes:
    - - - activation_230
        - 0
        - 0
        - {}
    name: conv2d_182
  - class_name: Conv2D
    config:
      activation: linear
      activity_regularizer: null
      bias_constraint: null
      bias_initializer:
        class_name: Zeros
        config: {}
      bias_regularizer: null
      data_format: channels_last
      dilation_rate: *id001
      dtype: float32
      filters: 384
      kernel_constraint: null
      kernel_initializer:
        class_name: VarianceScaling
        config:
          distribution: uniform
          mode: fan_avg
          scale: 1.0
          seed: null
      kernel_regularizer: null
      kernel_size: !!python/tuple
      - 3
      - 1
      name: conv2d_183
      padding: same
      strides: *id002
      trainable: true
      use_bias: false
    inbound_nodes:
    - - - activation_230
        - 0
        - 0
        - {}
    name: conv2d_183
  - class_name: Conv2D
    config:
      activation: linear
      activity_regularizer: null
      bias_constraint: null
      bias_initializer:
        class_name: Zeros
        config: {}
      bias_regularizer: null
      data_format: channels_last
      dilation_rate: *id001
      dtype: float32
      filters: 384
      kernel_constraint: null
      kernel_initializer:
        class_name: VarianceScaling
        config:
          distribution: uniform
          mode: fan_avg
          scale: 1.0
          seed: null
      kernel_regularizer: null
      kernel_size: !!python/tuple
      - 1
      - 3
      name: conv2d_186
      padding: same
      strides: *id002
      trainable: true
      use_bias: false
    inbound_nodes:
    - - - activation_234
        - 0
        - 0
        - {}
    name: conv2d_186
  - class_name: Conv2D
    config:
      activation: linear
      activity_regularizer: null
      bias_constraint: null
      bias_initializer:
        class_name: Zeros
        config: {}
      bias_regularizer: null
      data_format: channels_last
      dilation_rate: *id001
      dtype: float32
      filters: 384
      kernel_constraint: null
      kernel_initializer:
        class_name: VarianceScaling
        config:
          distribution: uniform
          mode: fan_avg
          scale: 1.0
          seed: null
      kernel_regularizer: null
      kernel_size: !!python/tuple
      - 3
      - 1
      name: conv2d_187
      padding: same
      strides: *id002
      trainable: true
      use_bias: false
    inbound_nodes:
    - - - activation_234
        - 0
        - 0
        - {}
    name: conv2d_187
  - class_name: AveragePooling2D
    config:
      data_format: channels_last
      dtype: float32
      name: average_pooling2d_18
      padding: same
      pool_size: *id017
      strides: *id018
      trainable: true
    inbound_nodes:
    - - - mixed9
        - 0
        - 0
        - {}
    name: average_pooling2d_18
  - class_name: Conv2D
    config:
      activation: linear
      activity_regularizer: null
      bias_constraint: null
      bias_initializer:
        class_name: Zeros
        config: {}
      bias_regularizer: null
      data_format: channels_last
      dilation_rate: *id001
      dtype: float32
      filters: 320
      kernel_constraint: null
      kernel_initializer:
        class_name: VarianceScaling
        config:
          distribution: uniform
          mode: fan_avg
          scale: 1.0
          seed: null
      kernel_regularizer: null
      kernel_size: !!python/tuple
      - 1
      - 1
      name: conv2d_180
      padding: same
      strides: *id002
      trainable: true
      use_bias: false
    inbound_nodes:
    - - - mixed9
        - 0
        - 0
        - {}
    name: conv2d_180
  - class_name: BatchNormalization
    config:
      axis: 3
      beta_constraint: null
      beta_initializer:
        class_name: Zeros
        config: {}
      beta_regularizer: null
      center: true
      dtype: float32
      epsilon: 0.001
      gamma_constraint: null
      gamma_initializer:
        class_name: Ones
        config: {}
      gamma_regularizer: null
      momentum: 0.99
      moving_mean_initializer:
        class_name: Zeros
        config: {}
      moving_variance_initializer:
        class_name: Ones
        config: {}
      name: batch_normalization_182
      scale: false
      trainable: true
    inbound_nodes:
    - - - conv2d_182
        - 0
        - 0
        - {}
    name: batch_normalization_182
  - class_name: BatchNormalization
    config:
      axis: 3
      beta_constraint: null
      beta_initializer:
        class_name: Zeros
        config: {}
      beta_regularizer: null
      center: true
      dtype: float32
      epsilon: 0.001
      gamma_constraint: null
      gamma_initializer:
        class_name: Ones
        config: {}
      gamma_regularizer: null
      momentum: 0.99
      moving_mean_initializer:
        class_name: Zeros
        config: {}
      moving_variance_initializer:
        class_name: Ones
        config: {}
      name: batch_normalization_183
      scale: false
      trainable: true
    inbound_nodes:
    - - - conv2d_183
        - 0
        - 0
        - {}
    name: batch_normalization_183
  - class_name: BatchNormalization
    config:
      axis: 3
      beta_constraint: null
      beta_initializer:
        class_name: Zeros
        config: {}
      beta_regularizer: null
      center: true
      dtype: float32
      epsilon: 0.001
      gamma_constraint: null
      gamma_initializer:
        class_name: Ones
        config: {}
      gamma_regularizer: null
      momentum: 0.99
      moving_mean_initializer:
        class_name: Zeros
        config: {}
      moving_variance_initializer:
        class_name: Ones
        config: {}
      name: batch_normalization_186
      scale: false
      trainable: true
    inbound_nodes:
    - - - conv2d_186
        - 0
        - 0
        - {}
    name: batch_normalization_186
  - class_name: BatchNormalization
    config:
      axis: 3
      beta_constraint: null
      beta_initializer:
        class_name: Zeros
        config: {}
      beta_regularizer: null
      center: true
      dtype: float32
      epsilon: 0.001
      gamma_constraint: null
      gamma_initializer:
        class_name: Ones
        config: {}
      gamma_regularizer: null
      momentum: 0.99
      moving_mean_initializer:
        class_name: Zeros
        config: {}
      moving_variance_initializer:
        class_name: Ones
        config: {}
      name: batch_normalization_187
      scale: false
      trainable: true
    inbound_nodes:
    - - - conv2d_187
        - 0
        - 0
        - {}
    name: batch_normalization_187
  - class_name: Conv2D
    config:
      activation: linear
      activity_regularizer: null
      bias_constraint: null
      bias_initializer:
        class_name: Zeros
        config: {}
      bias_regularizer: null
      data_format: channels_last
      dilation_rate: *id001
      dtype: float32
      filters: 192
      kernel_constraint: null
      kernel_initializer:
        class_name: VarianceScaling
        config:
          distribution: uniform
          mode: fan_avg
          scale: 1.0
          seed: null
      kernel_regularizer: null
      kernel_size: !!python/tuple
      - 1
      - 1
      name: conv2d_188
      padding: same
      strides: *id002
      trainable: true
      use_bias: false
    inbound_nodes:
    - - - average_pooling2d_18
        - 0
        - 0
        - {}
    name: conv2d_188
  - class_name: BatchNormalization
    config:
      axis: 3
      beta_constraint: null
      beta_initializer:
        class_name: Zeros
        config: {}
      beta_regularizer: null
      center: true
      dtype: float32
      epsilon: 0.001
      gamma_constraint: null
      gamma_initializer:
        class_name: Ones
        config: {}
      gamma_regularizer: null
      momentum: 0.99
      moving_mean_initializer:
        class_name: Zeros
        config: {}
      moving_variance_initializer:
        class_name: Ones
        config: {}
      name: batch_normalization_180
      scale: false
      trainable: true
    inbound_nodes:
    - - - conv2d_180
        - 0
        - 0
        - {}
    name: batch_normalization_180
  - class_name: Activation
    config:
      activation: relu
      dtype: float32
      name: activation_231
      trainable: true
    inbound_nodes:
    - - - batch_normalization_182
        - 0
        - 0
        - {}
    name: activation_231
  - class_name: Activation
    config:
      activation: relu
      dtype: float32
      name: activation_232
      trainable: true
    inbound_nodes:
    - - - batch_normalization_183
        - 0
        - 0
        - {}
    name: activation_232
  - class_name: Activation
    config:
      activation: relu
      dtype: float32
      name: activation_235
      trainable: true
    inbound_nodes:
    - - - batch_normalization_186
        - 0
        - 0
        - {}
    name: activation_235
  - class_name: Activation
    config:
      activation: relu
      dtype: float32
      name: activation_236
      trainable: true
    inbound_nodes:
    - - - batch_normalization_187
        - 0
        - 0
        - {}
    name: activation_236
  - class_name: BatchNormalization
    config:
      axis: 3
      beta_constraint: null
      beta_initializer:
        class_name: Zeros
        config: {}
      beta_regularizer: null
      center: true
      dtype: float32
      epsilon: 0.001
      gamma_constraint: null
      gamma_initializer:
        class_name: Ones
        config: {}
      gamma_regularizer: null
      momentum: 0.99
      moving_mean_initializer:
        class_name: Zeros
        config: {}
      moving_variance_initializer:
        class_name: Ones
        config: {}
      name: batch_normalization_188
      scale: false
      trainable: true
    inbound_nodes:
    - - - conv2d_188
        - 0
        - 0
        - {}
    name: batch_normalization_188
  - class_name: Activation
    config:
      activation: relu
      dtype: float32
      name: activation_229
      trainable: true
    inbound_nodes:
    - - - batch_normalization_180
        - 0
        - 0
        - {}
    name: activation_229
  - class_name: Concatenate
    config:
      axis: 3
      dtype: float32
      name: mixed9_1
      trainable: true
    inbound_nodes:
    - - - activation_231
        - 0
        - 0
        - &id019 {}
      - - activation_232
        - 0
        - 0
        - *id019
    name: mixed9_1
  - class_name: Concatenate
    config:
      axis: 3
      dtype: float32
      name: concatenate_4
      trainable: true
    inbound_nodes:
    - - - activation_235
        - 0
        - 0
        - &id020 {}
      - - activation_236
        - 0
        - 0
        - *id020
    name: concatenate_4
  - class_name: Activation
    config:
      activation: relu
      dtype: float32
      name: activation_237
      trainable: true
    inbound_nodes:
    - - - batch_normalization_188
        - 0
        - 0
        - {}
    name: activation_237
  - class_name: Concatenate
    config:
      axis: 3
      dtype: float32
      name: mixed10
      trainable: true
    inbound_nodes:
    - - - activation_229
        - 0
        - 0
        - &id021 {}
      - - mixed9_1
        - 0
        - 0
        - *id021
      - - concatenate_4
        - 0
        - 0
        - *id021
      - - activation_237
        - 0
        - 0
        - *id021
    name: mixed10
  - class_name: GlobalAveragePooling2D
    config:
      data_format: channels_last
      dtype: float32
      name: global_average_pooling2d_1
      trainable: true
    inbound_nodes:
    - - - mixed10
        - 0
        - 0
        - {}
    name: global_average_pooling2d_1
  - class_name: Dense
    config:
      activation: relu
      activity_regularizer: null
      bias_constraint: null
      bias_initializer:
        class_name: Zeros
        config: {}
      bias_regularizer: null
      dtype: float32
      kernel_constraint: null
      kernel_initializer:
        class_name: VarianceScaling
        config:
          distribution: uniform
          mode: fan_avg
          scale: 1.0
          seed: null
      kernel_regularizer: null
      name: dense_5
      trainable: true
      units: 1024
      use_bias: true
    inbound_nodes:
    - - - global_average_pooling2d_1
        - 0
        - 0
        - {}
    name: dense_5
  - class_name: Dense
    config:
      activation: softmax
      activity_regularizer: null
      bias_constraint: null
      bias_initializer:
        class_name: Zeros
        config: {}
      bias_regularizer: null
      dtype: float32
      kernel_constraint: null
      kernel_initializer:
        class_name: VarianceScaling
        config:
          distribution: uniform
          mode: fan_avg
          scale: 1.0
          seed: null
      kernel_regularizer: null
      name: dense_6
      trainable: true
      units: 4
      use_bias: true
    inbound_nodes:
    - - - dense_5
        - 0
        - 0
        - {}
    name: dense_6
  name: model_3
  output_layers:
  - - dense_6
    - 0
    - 0
keras_version: 2.3.1
