backend: tensorflow
class_name: Model
config:
  input_layers:
  - - input_2
    - 0
    - 0
  layers:
  - class_name: InputLayer
    config:
      batch_input_shape: !!python/tuple
      - null
      - 224
      - 224
      - 3
      dtype: float32
      name: input_2
      sparse: false
    inbound_nodes: []
    name: input_2
  - class_name: Conv2D
    config:
      activation: linear
      activity_regularizer: null
      bias_constraint: null
      bias_initializer:
        class_name: Zeros
        config: {}
      bias_regularizer: null
      data_format: channels_last
      dilation_rate: &id001 !!python/tuple
      - 1
      - 1
      dtype: float32
      filters: 32
      kernel_constraint: null
      kernel_initializer:
        class_name: VarianceScaling
        config:
          distribution: uniform
          mode: fan_avg
          scale: 1.0
          seed: null
      kernel_regularizer: null
      kernel_size: !!python/tuple
      - 3
      - 3
      name: conv2d_1
      padding: valid
      strides: !!python/tuple
      - 2
      - 2
      trainable: false
      use_bias: false
    inbound_nodes:
    - - - input_2
        - 0
        - 0
        - {}
    name: conv2d_1
  - class_name: BatchNormalization
    config:
      axis: 3
      beta_constraint: null
      beta_initializer:
        class_name: Zeros
        config: {}
      beta_regularizer: null
      center: true
      dtype: float32
      epsilon: 0.001
      gamma_constraint: null
      gamma_initializer:
        class_name: Ones
        config: {}
      gamma_regularizer: null
      momentum: 0.99
      moving_mean_initializer:
        class_name: Zeros
        config: {}
      moving_variance_initializer:
        class_name: Ones
        config: {}
      name: batch_normalization_1
      scale: false
      trainable: false
    inbound_nodes:
    - - - conv2d_1
        - 0
        - 0
        - {}
    name: batch_normalization_1
  - class_name: Activation
    config:
      activation: relu
      dtype: float32
      name: activation_50
      trainable: false
    inbound_nodes:
    - - - batch_normalization_1
        - 0
        - 0
        - {}
    name: activation_50
  - class_name: Conv2D
    config:
      activation: linear
      activity_regularizer: null
      bias_constraint: null
      bias_initializer:
        class_name: Zeros
        config: {}
      bias_regularizer: null
      data_format: channels_last
      dilation_rate: *id001
      dtype: float32
      filters: 32
      kernel_constraint: null
      kernel_initializer:
        class_name: VarianceScaling
        config:
          distribution: uniform
          mode: fan_avg
          scale: 1.0
          seed: null
      kernel_regularizer: null
      kernel_size: !!python/tuple
      - 3
      - 3
      name: conv2d_2
      padding: valid
      strides: &id002 !!python/tuple
      - 1
      - 1
      trainable: false
      use_bias: false
    inbound_nodes:
    - - - activation_50
        - 0
        - 0
        - {}
    name: conv2d_2
  - class_name: BatchNormalization
    config:
      axis: 3
      beta_constraint: null
      beta_initializer:
        class_name: Zeros
        config: {}
      beta_regularizer: null
      center: true
      dtype: float32
      epsilon: 0.001
      gamma_constraint: null
      gamma_initializer:
        class_name: Ones
        config: {}
      gamma_regularizer: null
      momentum: 0.99
      moving_mean_initializer:
        class_name: Zeros
        config: {}
      moving_variance_initializer:
        class_name: Ones
        config: {}
      name: batch_normalization_2
      scale: false
      trainable: false
    inbound_nodes:
    - - - conv2d_2
        - 0
        - 0
        - {}
    name: batch_normalization_2
  - class_name: Activation
    config:
      activation: relu
      dtype: float32
      name: activation_51
      trainable: false
    inbound_nodes:
    - - - batch_normalization_2
        - 0
        - 0
        - {}
    name: activation_51
  - class_name: Conv2D
    config:
      activation: linear
      activity_regularizer: null
      bias_constraint: null
      bias_initializer:
        class_name: Zeros
        config: {}
      bias_regularizer: null
      data_format: channels_last
      dilation_rate: *id001
      dtype: float32
      filters: 64
      kernel_constraint: null
      kernel_initializer:
        class_name: VarianceScaling
        config:
          distribution: uniform
          mode: fan_avg
          scale: 1.0
          seed: null
      kernel_regularizer: null
      kernel_size: !!python/tuple
      - 3
      - 3
      name: conv2d_3
      padding: same
      strides: *id002
      trainable: false
      use_bias: false
    inbound_nodes:
    - - - activation_51
        - 0
        - 0
        - {}
    name: conv2d_3
  - class_name: BatchNormalization
    config:
      axis: 3
      beta_constraint: null
      beta_initializer:
        class_name: Zeros
        config: {}
      beta_regularizer: null
      center: true
      dtype: float32
      epsilon: 0.001
      gamma_constraint: null
      gamma_initializer:
        class_name: Ones
        config: {}
      gamma_regularizer: null
      momentum: 0.99
      moving_mean_initializer:
        class_name: Zeros
        config: {}
      moving_variance_initializer:
        class_name: Ones
        config: {}
      name: batch_normalization_3
      scale: false
      trainable: false
    inbound_nodes:
    - - - conv2d_3
        - 0
        - 0
        - {}
    name: batch_normalization_3
  - class_name: Activation
    config:
      activation: relu
      dtype: float32
      name: activation_52
      trainable: false
    inbound_nodes:
    - - - batch_normalization_3
        - 0
        - 0
        - {}
    name: activation_52
  - class_name: MaxPooling2D
    config:
      data_format: channels_last
      dtype: float32
      name: max_pooling2d_2
      padding: valid
      pool_size: !!python/tuple
      - 3
      - 3
      strides: !!python/tuple
      - 2
      - 2
      trainable: false
    inbound_nodes:
    - - - activation_52
        - 0
        - 0
        - {}
    name: max_pooling2d_2
  - class_name: Conv2D
    config:
      activation: linear
      activity_regularizer: null
      bias_constraint: null
      bias_initializer:
        class_name: Zeros
        config: {}
      bias_regularizer: null
      data_format: channels_last
      dilation_rate: *id001
      dtype: float32
      filters: 80
      kernel_constraint: null
      kernel_initializer:
        class_name: VarianceScaling
        config:
          distribution: uniform
          mode: fan_avg
          scale: 1.0
          seed: null
      kernel_regularizer: null
      kernel_size: !!python/tuple
      - 1
      - 1
      name: conv2d_4
      padding: valid
      strides: *id002
      trainable: false
      use_bias: false
    inbound_nodes:
    - - - max_pooling2d_2
        - 0
        - 0
        - {}
    name: conv2d_4
  - class_name: BatchNormalization
    config:
      axis: 3
      beta_constraint: null
      beta_initializer:
        class_name: Zeros
        config: {}
      beta_regularizer: null
      center: true
      dtype: float32
      epsilon: 0.001
      gamma_constraint: null
      gamma_initializer:
        class_name: Ones
        config: {}
      gamma_regularizer: null
      momentum: 0.99
      moving_mean_initializer:
        class_name: Zeros
        config: {}
      moving_variance_initializer:
        class_name: Ones
        config: {}
      name: batch_normalization_4
      scale: false
      trainable: false
    inbound_nodes:
    - - - conv2d_4
        - 0
        - 0
        - {}
    name: batch_normalization_4
  - class_name: Activation
    config:
      activation: relu
      dtype: float32
      name: activation_53
      trainable: false
    inbound_nodes:
    - - - batch_normalization_4
        - 0
        - 0
        - {}
    name: activation_53
  - class_name: Conv2D
    config:
      activation: linear
      activity_regularizer: null
      bias_constraint: null
      bias_initializer:
        class_name: Zeros
        config: {}
      bias_regularizer: null
      data_format: channels_last
      dilation_rate: *id001
      dtype: float32
      filters: 192
      kernel_constraint: null
      kernel_initializer:
        class_name: VarianceScaling
        config:
          distribution: uniform
          mode: fan_avg
          scale: 1.0
          seed: null
      kernel_regularizer: null
      kernel_size: !!python/tuple
      - 3
      - 3
      name: conv2d_5
      padding: valid
      strides: *id002
      trainable: false
      use_bias: false
    inbound_nodes:
    - - - activation_53
        - 0
        - 0
        - {}
    name: conv2d_5
  - class_name: BatchNormalization
    config:
      axis: 3
      beta_constraint: null
      beta_initializer:
        class_name: Zeros
        config: {}
      beta_regularizer: null
      center: true
      dtype: float32
      epsilon: 0.001
      gamma_constraint: null
      gamma_initializer:
        class_name: Ones
        config: {}
      gamma_regularizer: null
      momentum: 0.99
      moving_mean_initializer:
        class_name: Zeros
        config: {}
      moving_variance_initializer:
        class_name: Ones
        config: {}
      name: batch_normalization_5
      scale: false
      trainable: false
    inbound_nodes:
    - - - conv2d_5
        - 0
        - 0
        - {}
    name: batch_normalization_5
  - class_name: Activation
    config:
      activation: relu
      dtype: float32
      name: activation_54
      trainable: false
    inbound_nodes:
    - - - batch_normalization_5
        - 0
        - 0
        - {}
    name: activation_54
  - class_name: MaxPooling2D
    config:
      data_format: channels_last
      dtype: float32
      name: max_pooling2d_3
      padding: valid
      pool_size: !!python/tuple
      - 3
      - 3
      strides: !!python/tuple
      - 2
      - 2
      trainable: false
    inbound_nodes:
    - - - activation_54
        - 0
        - 0
        - {}
    name: max_pooling2d_3
  - class_name: Conv2D
    config:
      activation: linear
      activity_regularizer: null
      bias_constraint: null
      bias_initializer:
        class_name: Zeros
        config: {}
      bias_regularizer: null
      data_format: channels_last
      dilation_rate: *id001
      dtype: float32
      filters: 64
      kernel_constraint: null
      kernel_initializer:
        class_name: VarianceScaling
        config:
          distribution: uniform
          mode: fan_avg
          scale: 1.0
          seed: null
      kernel_regularizer: null
      kernel_size: !!python/tuple
      - 1
      - 1
      name: conv2d_9
      padding: same
      strides: *id002
      trainable: false
      use_bias: false
    inbound_nodes:
    - - - max_pooling2d_3
        - 0
        - 0
        - {}
    name: conv2d_9
  - class_name: BatchNormalization
    config:
      axis: 3
      beta_constraint: null
      beta_initializer:
        class_name: Zeros
        config: {}
      beta_regularizer: null
      center: true
      dtype: float32
      epsilon: 0.001
      gamma_constraint: null
      gamma_initializer:
        class_name: Ones
        config: {}
      gamma_regularizer: null
      momentum: 0.99
      moving_mean_initializer:
        class_name: Zeros
        config: {}
      moving_variance_initializer:
        class_name: Ones
        config: {}
      name: batch_normalization_9
      scale: false
      trainable: false
    inbound_nodes:
    - - - conv2d_9
        - 0
        - 0
        - {}
    name: batch_normalization_9
  - class_name: Activation
    config:
      activation: relu
      dtype: float32
      name: activation_58
      trainable: false
    inbound_nodes:
    - - - batch_normalization_9
        - 0
        - 0
        - {}
    name: activation_58
  - class_name: Conv2D
    config:
      activation: linear
      activity_regularizer: null
      bias_constraint: null
      bias_initializer:
        class_name: Zeros
        config: {}
      bias_regularizer: null
      data_format: channels_last
      dilation_rate: *id001
      dtype: float32
      filters: 48
      kernel_constraint: null
      kernel_initializer:
        class_name: VarianceScaling
        config:
          distribution: uniform
          mode: fan_avg
          scale: 1.0
          seed: null
      kernel_regularizer: null
      kernel_size: !!python/tuple
      - 1
      - 1
      name: conv2d_7
      padding: same
      strides: *id002
      trainable: false
      use_bias: false
    inbound_nodes:
    - - - max_pooling2d_3
        - 0
        - 0
        - {}
    name: conv2d_7
  - class_name: Conv2D
    config:
      activation: linear
      activity_regularizer: null
      bias_constraint: null
      bias_initializer:
        class_name: Zeros
        config: {}
      bias_regularizer: null
      data_format: channels_last
      dilation_rate: *id001
      dtype: float32
      filters: 96
      kernel_constraint: null
      kernel_initializer:
        class_name: VarianceScaling
        config:
          distribution: uniform
          mode: fan_avg
          scale: 1.0
          seed: null
      kernel_regularizer: null
      kernel_size: !!python/tuple
      - 3
      - 3
      name: conv2d_10
      padding: same
      strides: *id002
      trainable: false
      use_bias: false
    inbound_nodes:
    - - - activation_58
        - 0
        - 0
        - {}
    name: conv2d_10
  - class_name: BatchNormalization
    config:
      axis: 3
      beta_constraint: null
      beta_initializer:
        class_name: Zeros
        config: {}
      beta_regularizer: null
      center: true
      dtype: float32
      epsilon: 0.001
      gamma_constraint: null
      gamma_initializer:
        class_name: Ones
        config: {}
      gamma_regularizer: null
      momentum: 0.99
      moving_mean_initializer:
        class_name: Zeros
        config: {}
      moving_variance_initializer:
        class_name: Ones
        config: {}
      name: batch_normalization_7
      scale: false
      trainable: false
    inbound_nodes:
    - - - conv2d_7
        - 0
        - 0
        - {}
    name: batch_normalization_7
  - class_name: BatchNormalization
    config:
      axis: 3
      beta_constraint: null
      beta_initializer:
        class_name: Zeros
        config: {}
      beta_regularizer: null
      center: true
      dtype: float32
      epsilon: 0.001
      gamma_constraint: null
      gamma_initializer:
        class_name: Ones
        config: {}
      gamma_regularizer: null
      momentum: 0.99
      moving_mean_initializer:
        class_name: Zeros
        config: {}
      moving_variance_initializer:
        class_name: Ones
        config: {}
      name: batch_normalization_10
      scale: false
      trainable: false
    inbound_nodes:
    - - - conv2d_10
        - 0
        - 0
        - {}
    name: batch_normalization_10
  - class_name: Activation
    config:
      activation: relu
      dtype: float32
      name: activation_56
      trainable: false
    inbound_nodes:
    - - - batch_normalization_7
        - 0
        - 0
        - {}
    name: activation_56
  - class_name: Activation
    config:
      activation: relu
      dtype: float32
      name: activation_59
      trainable: false
    inbound_nodes:
    - - - batch_normalization_10
        - 0
        - 0
        - {}
    name: activation_59
  - class_name: AveragePooling2D
    config:
      data_format: channels_last
      dtype: float32
      name: average_pooling2d_1
      padding: same
      pool_size: !!python/tuple
      - 3
      - 3
      strides: !!python/tuple
      - 1
      - 1
      trainable: false
    inbound_nodes:
    - - - max_pooling2d_3
        - 0
        - 0
        - {}
    name: average_pooling2d_1
  - class_name: Conv2D
    config:
      activation: linear
      activity_regularizer: null
      bias_constraint: null
      bias_initializer:
        class_name: Zeros
        config: {}
      bias_regularizer: null
      data_format: channels_last
      dilation_rate: *id001
      dtype: float32
      filters: 64
      kernel_constraint: null
      kernel_initializer:
        class_name: VarianceScaling
        config:
          distribution: uniform
          mode: fan_avg
          scale: 1.0
          seed: null
      kernel_regularizer: null
      kernel_size: !!python/tuple
      - 1
      - 1
      name: conv2d_6
      padding: same
      strides: *id002
      trainable: false
      use_bias: false
    inbound_nodes:
    - - - max_pooling2d_3
        - 0
        - 0
        - {}
    name: conv2d_6
  - class_name: Conv2D
    config:
      activation: linear
      activity_regularizer: null
      bias_constraint: null
      bias_initializer:
        class_name: Zeros
        config: {}
      bias_regularizer: null
      data_format: channels_last
      dilation_rate: *id001
      dtype: float32
      filters: 64
      kernel_constraint: null
      kernel_initializer:
        class_name: VarianceScaling
        config:
          distribution: uniform
          mode: fan_avg
          scale: 1.0
          seed: null
      kernel_regularizer: null
      kernel_size: !!python/tuple
      - 5
      - 5
      name: conv2d_8
      padding: same
      strides: *id002
      trainable: false
      use_bias: false
    inbound_nodes:
    - - - activation_56
        - 0
        - 0
        - {}
    name: conv2d_8
  - class_name: Conv2D
    config:
      activation: linear
      activity_regularizer: null
      bias_constraint: null
      bias_initializer:
        class_name: Zeros
        config: {}
      bias_regularizer: null
      data_format: channels_last
      dilation_rate: *id001
      dtype: float32
      filters: 96
      kernel_constraint: null
      kernel_initializer:
        class_name: VarianceScaling
        config:
          distribution: uniform
          mode: fan_avg
          scale: 1.0
          seed: null
      kernel_regularizer: null
      kernel_size: !!python/tuple
      - 3
      - 3
      name: conv2d_11
      padding: same
      strides: *id002
      trainable: false
      use_bias: false
    inbound_nodes:
    - - - activation_59
        - 0
        - 0
        - {}
    name: conv2d_11
  - class_name: Conv2D
    config:
      activation: linear
      activity_regularizer: null
      bias_constraint: null
      bias_initializer:
        class_name: Zeros
        config: {}
      bias_regularizer: null
      data_format: channels_last
      dilation_rate: *id001
      dtype: float32
      filters: 32
      kernel_constraint: null
      kernel_initializer:
        class_name: VarianceScaling
        config:
          distribution: uniform
          mode: fan_avg
          scale: 1.0
          seed: null
      kernel_regularizer: null
      kernel_size: !!python/tuple
      - 1
      - 1
      name: conv2d_12
      padding: same
      strides: *id002
      trainable: false
      use_bias: false
    inbound_nodes:
    - - - average_pooling2d_1
        - 0
        - 0
        - {}
    name: conv2d_12
  - class_name: BatchNormalization
    config:
      axis: 3
      beta_constraint: null
      beta_initializer:
        class_name: Zeros
        config: {}
      beta_regularizer: null
      center: true
      dtype: float32
      epsilon: 0.001
      gamma_constraint: null
      gamma_initializer:
        class_name: Ones
        config: {}
      gamma_regularizer: null
      momentum: 0.99
      moving_mean_initializer:
        class_name: Zeros
        config: {}
      moving_variance_initializer:
        class_name: Ones
        config: {}
      name: batch_normalization_6
      scale: false
      trainable: false
    inbound_nodes:
    - - - conv2d_6
        - 0
        - 0
        - {}
    name: batch_normalization_6
  - class_name: BatchNormalization
    config:
      axis: 3
      beta_constraint: null
      beta_initializer:
        class_name: Zeros
        config: {}
      beta_regularizer: null
      center: true
      dtype: float32
      epsilon: 0.001
      gamma_constraint: null
      gamma_initializer:
        class_name: Ones
        config: {}
      gamma_regularizer: null
      momentum: 0.99
      moving_mean_initializer:
        class_name: Zeros
        config: {}
      moving_variance_initializer:
        class_name: Ones
        config: {}
      name: batch_normalization_8
      scale: false
      trainable: false
    inbound_nodes:
    - - - conv2d_8
        - 0
        - 0
        - {}
    name: batch_normalization_8
  - class_name: BatchNormalization
    config:
      axis: 3
      beta_constraint: null
      beta_initializer:
        class_name: Zeros
        config: {}
      beta_regularizer: null
      center: true
      dtype: float32
      epsilon: 0.001
      gamma_constraint: null
      gamma_initializer:
        class_name: Ones
        config: {}
      gamma_regularizer: null
      momentum: 0.99
      moving_mean_initializer:
        class_name: Zeros
        config: {}
      moving_variance_initializer:
        class_name: Ones
        config: {}
      name: batch_normalization_11
      scale: false
      trainable: false
    inbound_nodes:
    - - - conv2d_11
        - 0
        - 0
        - {}
    name: batch_normalization_11
  - class_name: BatchNormalization
    config:
      axis: 3
      beta_constraint: null
      beta_initializer:
        class_name: Zeros
        config: {}
      beta_regularizer: null
      center: true
      dtype: float32
      epsilon: 0.001
      gamma_constraint: null
      gamma_initializer:
        class_name: Ones
        config: {}
      gamma_regularizer: null
      momentum: 0.99
      moving_mean_initializer:
        class_name: Zeros
        config: {}
      moving_variance_initializer:
        class_name: Ones
        config: {}
      name: batch_normalization_12
      scale: false
      trainable: false
    inbound_nodes:
    - - - conv2d_12
        - 0
        - 0
        - {}
    name: batch_normalization_12
  - class_name: Activation
    config:
      activation: relu
      dtype: float32
      name: activation_55
      trainable: false
    inbound_nodes:
    - - - batch_normalization_6
        - 0
        - 0
        - {}
    name: activation_55
  - class_name: Activation
    config:
      activation: relu
      dtype: float32
      name: activation_57
      trainable: false
    inbound_nodes:
    - - - batch_normalization_8
        - 0
        - 0
        - {}
    name: activation_57
  - class_name: Activation
    config:
      activation: relu
      dtype: float32
      name: activation_60
      trainable: false
    inbound_nodes:
    - - - batch_normalization_11
        - 0
        - 0
        - {}
    name: activation_60
  - class_name: Activation
    config:
      activation: relu
      dtype: float32
      name: activation_61
      trainable: false
    inbound_nodes:
    - - - batch_normalization_12
        - 0
        - 0
        - {}
    name: activation_61
  - class_name: Concatenate
    config:
      axis: 3
      dtype: float32
      name: mixed0
      trainable: false
    inbound_nodes:
    - - - activation_55
        - 0
        - 0
        - &id003 {}
      - - activation_57
        - 0
        - 0
        - *id003
      - - activation_60
        - 0
        - 0
        - *id003
      - - activation_61
        - 0
        - 0
        - *id003
    name: mixed0
  - class_name: Conv2D
    config:
      activation: linear
      activity_regularizer: null
      bias_constraint: null
      bias_initializer:
        class_name: Zeros
        config: {}
      bias_regularizer: null
      data_format: channels_last
      dilation_rate: *id001
      dtype: float32
      filters: 64
      kernel_constraint: null
      kernel_initializer:
        class_name: VarianceScaling
        config:
          distribution: uniform
          mode: fan_avg
          scale: 1.0
          seed: null
      kernel_regularizer: null
      kernel_size: !!python/tuple
      - 1
      - 1
      name: conv2d_16
      padding: same
      strides: *id002
      trainable: false
      use_bias: false
    inbound_nodes:
    - - - mixed0
        - 0
        - 0
        - {}
    name: conv2d_16
  - class_name: BatchNormalization
    config:
      axis: 3
      beta_constraint: null
      beta_initializer:
        class_name: Zeros
        config: {}
      beta_regularizer: null
      center: true
      dtype: float32
      epsilon: 0.001
      gamma_constraint: null
      gamma_initializer:
        class_name: Ones
        config: {}
      gamma_regularizer: null
      momentum: 0.99
      moving_mean_initializer:
        class_name: Zeros
        config: {}
      moving_variance_initializer:
        class_name: Ones
        config: {}
      name: batch_normalization_16
      scale: false
      trainable: false
    inbound_nodes:
    - - - conv2d_16
        - 0
        - 0
        - {}
    name: batch_normalization_16
  - class_name: Activation
    config:
      activation: relu
      dtype: float32
      name: activation_65
      trainable: false
    inbound_nodes:
    - - - batch_normalization_16
        - 0
        - 0
        - {}
    name: activation_65
  - class_name: Conv2D
    config:
      activation: linear
      activity_regularizer: null
      bias_constraint: null
      bias_initializer:
        class_name: Zeros
        config: {}
      bias_regularizer: null
      data_format: channels_last
      dilation_rate: *id001
      dtype: float32
      filters: 48
      kernel_constraint: null
      kernel_initializer:
        class_name: VarianceScaling
        config:
          distribution: uniform
          mode: fan_avg
          scale: 1.0
          seed: null
      kernel_regularizer: null
      kernel_size: !!python/tuple
      - 1
      - 1
      name: conv2d_14
      padding: same
      strides: *id002
      trainable: false
      use_bias: false
    inbound_nodes:
    - - - mixed0
        - 0
        - 0
        - {}
    name: conv2d_14
  - class_name: Conv2D
    config:
      activation: linear
      activity_regularizer: null
      bias_constraint: null
      bias_initializer:
        class_name: Zeros
        config: {}
      bias_regularizer: null
      data_format: channels_last
      dilation_rate: *id001
      dtype: float32
      filters: 96
      kernel_constraint: null
      kernel_initializer:
        class_name: VarianceScaling
        config:
          distribution: uniform
          mode: fan_avg
          scale: 1.0
          seed: null
      kernel_regularizer: null
      kernel_size: !!python/tuple
      - 3
      - 3
      name: conv2d_17
      padding: same
      strides: *id002
      trainable: false
      use_bias: false
    inbound_nodes:
    - - - activation_65
        - 0
        - 0
        - {}
    name: conv2d_17
  - class_name: BatchNormalization
    config:
      axis: 3
      beta_constraint: null
      beta_initializer:
        class_name: Zeros
        config: {}
      beta_regularizer: null
      center: true
      dtype: float32
      epsilon: 0.001
      gamma_constraint: null
      gamma_initializer:
        class_name: Ones
        config: {}
      gamma_regularizer: null
      momentum: 0.99
      moving_mean_initializer:
        class_name: Zeros
        config: {}
      moving_variance_initializer:
        class_name: Ones
        config: {}
      name: batch_normalization_14
      scale: false
      trainable: false
    inbound_nodes:
    - - - conv2d_14
        - 0
        - 0
        - {}
    name: batch_normalization_14
  - class_name: BatchNormalization
    config:
      axis: 3
      beta_constraint: null
      beta_initializer:
        class_name: Zeros
        config: {}
      beta_regularizer: null
      center: true
      dtype: float32
      epsilon: 0.001
      gamma_constraint: null
      gamma_initializer:
        class_name: Ones
        config: {}
      gamma_regularizer: null
      momentum: 0.99
      moving_mean_initializer:
        class_name: Zeros
        config: {}
      moving_variance_initializer:
        class_name: Ones
        config: {}
      name: batch_normalization_17
      scale: false
      trainable: false
    inbound_nodes:
    - - - conv2d_17
        - 0
        - 0
        - {}
    name: batch_normalization_17
  - class_name: Activation
    config:
      activation: relu
      dtype: float32
      name: activation_63
      trainable: false
    inbound_nodes:
    - - - batch_normalization_14
        - 0
        - 0
        - {}
    name: activation_63
  - class_name: Activation
    config:
      activation: relu
      dtype: float32
      name: activation_66
      trainable: false
    inbound_nodes:
    - - - batch_normalization_17
        - 0
        - 0
        - {}
    name: activation_66
  - class_name: AveragePooling2D
    config:
      data_format: channels_last
      dtype: float32
      name: average_pooling2d_2
      padding: same
      pool_size: !!python/tuple
      - 3
      - 3
      strides: !!python/tuple
      - 1
      - 1
      trainable: false
    inbound_nodes:
    - - - mixed0
        - 0
        - 0
        - {}
    name: average_pooling2d_2
  - class_name: Conv2D
    config:
      activation: linear
      activity_regularizer: null
      bias_constraint: null
      bias_initializer:
        class_name: Zeros
        config: {}
      bias_regularizer: null
      data_format: channels_last
      dilation_rate: *id001
      dtype: float32
      filters: 64
      kernel_constraint: null
      kernel_initializer:
        class_name: VarianceScaling
        config:
          distribution: uniform
          mode: fan_avg
          scale: 1.0
          seed: null
      kernel_regularizer: null
      kernel_size: !!python/tuple
      - 1
      - 1
      name: conv2d_13
      padding: same
      strides: *id002
      trainable: false
      use_bias: false
    inbound_nodes:
    - - - mixed0
        - 0
        - 0
        - {}
    name: conv2d_13
  - class_name: Conv2D
    config:
      activation: linear
      activity_regularizer: null
      bias_constraint: null
      bias_initializer:
        class_name: Zeros
        config: {}
      bias_regularizer: null
      data_format: channels_last
      dilation_rate: *id001
      dtype: float32
      filters: 64
      kernel_constraint: null
      kernel_initializer:
        class_name: VarianceScaling
        config:
          distribution: uniform
          mode: fan_avg
          scale: 1.0
          seed: null
      kernel_regularizer: null
      kernel_size: !!python/tuple
      - 5
      - 5
      name: conv2d_15
      padding: same
      strides: *id002
      trainable: false
      use_bias: false
    inbound_nodes:
    - - - activation_63
        - 0
        - 0
        - {}
    name: conv2d_15
  - class_name: Conv2D
    config:
      activation: linear
      activity_regularizer: null
      bias_constraint: null
      bias_initializer:
        class_name: Zeros
        config: {}
      bias_regularizer: null
      data_format: channels_last
      dilation_rate: *id001
      dtype: float32
      filters: 96
      kernel_constraint: null
      kernel_initializer:
        class_name: VarianceScaling
        config:
          distribution: uniform
          mode: fan_avg
          scale: 1.0
          seed: null
      kernel_regularizer: null
      kernel_size: !!python/tuple
      - 3
      - 3
      name: conv2d_18
      padding: same
      strides: *id002
      trainable: false
      use_bias: false
    inbound_nodes:
    - - - activation_66
        - 0
        - 0
        - {}
    name: conv2d_18
  - class_name: Conv2D
    config:
      activation: linear
      activity_regularizer: null
      bias_constraint: null
      bias_initializer:
        class_name: Zeros
        config: {}
      bias_regularizer: null
      data_format: channels_last
      dilation_rate: *id001
      dtype: float32
      filters: 64
      kernel_constraint: null
      kernel_initializer:
        class_name: VarianceScaling
        config:
          distribution: uniform
          mode: fan_avg
          scale: 1.0
          seed: null
      kernel_regularizer: null
      kernel_size: !!python/tuple
      - 1
      - 1
      name: conv2d_19
      padding: same
      strides: *id002
      trainable: false
      use_bias: false
    inbound_nodes:
    - - - average_pooling2d_2
        - 0
        - 0
        - {}
    name: conv2d_19
  - class_name: BatchNormalization
    config:
      axis: 3
      beta_constraint: null
      beta_initializer:
        class_name: Zeros
        config: {}
      beta_regularizer: null
      center: true
      dtype: float32
      epsilon: 0.001
      gamma_constraint: null
      gamma_initializer:
        class_name: Ones
        config: {}
      gamma_regularizer: null
      momentum: 0.99
      moving_mean_initializer:
        class_name: Zeros
        config: {}
      moving_variance_initializer:
        class_name: Ones
        config: {}
      name: batch_normalization_13
      scale: false
      trainable: false
    inbound_nodes:
    - - - conv2d_13
        - 0
        - 0
        - {}
    name: batch_normalization_13
  - class_name: BatchNormalization
    config:
      axis: 3
      beta_constraint: null
      beta_initializer:
        class_name: Zeros
        config: {}
      beta_regularizer: null
      center: true
      dtype: float32
      epsilon: 0.001
      gamma_constraint: null
      gamma_initializer:
        class_name: Ones
        config: {}
      gamma_regularizer: null
      momentum: 0.99
      moving_mean_initializer:
        class_name: Zeros
        config: {}
      moving_variance_initializer:
        class_name: Ones
        config: {}
      name: batch_normalization_15
      scale: false
      trainable: false
    inbound_nodes:
    - - - conv2d_15
        - 0
        - 0
        - {}
    name: batch_normalization_15
  - class_name: BatchNormalization
    config:
      axis: 3
      beta_constraint: null
      beta_initializer:
        class_name: Zeros
        config: {}
      beta_regularizer: null
      center: true
      dtype: float32
      epsilon: 0.001
      gamma_constraint: null
      gamma_initializer:
        class_name: Ones
        config: {}
      gamma_regularizer: null
      momentum: 0.99
      moving_mean_initializer:
        class_name: Zeros
        config: {}
      moving_variance_initializer:
        class_name: Ones
        config: {}
      name: batch_normalization_18
      scale: false
      trainable: false
    inbound_nodes:
    - - - conv2d_18
        - 0
        - 0
        - {}
    name: batch_normalization_18
  - class_name: BatchNormalization
    config:
      axis: 3
      beta_constraint: null
      beta_initializer:
        class_name: Zeros
        config: {}
      beta_regularizer: null
      center: true
      dtype: float32
      epsilon: 0.001
      gamma_constraint: null
      gamma_initializer:
        class_name: Ones
        config: {}
      gamma_regularizer: null
      momentum: 0.99
      moving_mean_initializer:
        class_name: Zeros
        config: {}
      moving_variance_initializer:
        class_name: Ones
        config: {}
      name: batch_normalization_19
      scale: false
      trainable: false
    inbound_nodes:
    - - - conv2d_19
        - 0
        - 0
        - {}
    name: batch_normalization_19
  - class_name: Activation
    config:
      activation: relu
      dtype: float32
      name: activation_62
      trainable: false
    inbound_nodes:
    - - - batch_normalization_13
        - 0
        - 0
        - {}
    name: activation_62
  - class_name: Activation
    config:
      activation: relu
      dtype: float32
      name: activation_64
      trainable: false
    inbound_nodes:
    - - - batch_normalization_15
        - 0
        - 0
        - {}
    name: activation_64
  - class_name: Activation
    config:
      activation: relu
      dtype: float32
      name: activation_67
      trainable: false
    inbound_nodes:
    - - - batch_normalization_18
        - 0
        - 0
        - {}
    name: activation_67
  - class_name: Activation
    config:
      activation: relu
      dtype: float32
      name: activation_68
      trainable: false
    inbound_nodes:
    - - - batch_normalization_19
        - 0
        - 0
        - {}
    name: activation_68
  - class_name: Concatenate
    config:
      axis: 3
      dtype: float32
      name: mixed1
      trainable: false
    inbound_nodes:
    - - - activation_62
        - 0
        - 0
        - &id004 {}
      - - activation_64
        - 0
        - 0
        - *id004
      - - activation_67
        - 0
        - 0
        - *id004
      - - activation_68
        - 0
        - 0
        - *id004
    name: mixed1
  - class_name: Conv2D
    config:
      activation: linear
      activity_regularizer: null
      bias_constraint: null
      bias_initializer:
        class_name: Zeros
        config: {}
      bias_regularizer: null
      data_format: channels_last
      dilation_rate: *id001
      dtype: float32
      filters: 64
      kernel_constraint: null
      kernel_initializer:
        class_name: VarianceScaling
        config:
          distribution: uniform
          mode: fan_avg
          scale: 1.0
          seed: null
      kernel_regularizer: null
      kernel_size: !!python/tuple
      - 1
      - 1
      name: conv2d_23
      padding: same
      strides: *id002
      trainable: false
      use_bias: false
    inbound_nodes:
    - - - mixed1
        - 0
        - 0
        - {}
    name: conv2d_23
  - class_name: BatchNormalization
    config:
      axis: 3
      beta_constraint: null
      beta_initializer:
        class_name: Zeros
        config: {}
      beta_regularizer: null
      center: true
      dtype: float32
      epsilon: 0.001
      gamma_constraint: null
      gamma_initializer:
        class_name: Ones
        config: {}
      gamma_regularizer: null
      momentum: 0.99
      moving_mean_initializer:
        class_name: Zeros
        config: {}
      moving_variance_initializer:
        class_name: Ones
        config: {}
      name: batch_normalization_23
      scale: false
      trainable: false
    inbound_nodes:
    - - - conv2d_23
        - 0
        - 0
        - {}
    name: batch_normalization_23
  - class_name: Activation
    config:
      activation: relu
      dtype: float32
      name: activation_72
      trainable: false
    inbound_nodes:
    - - - batch_normalization_23
        - 0
        - 0
        - {}
    name: activation_72
  - class_name: Conv2D
    config:
      activation: linear
      activity_regularizer: null
      bias_constraint: null
      bias_initializer:
        class_name: Zeros
        config: {}
      bias_regularizer: null
      data_format: channels_last
      dilation_rate: *id001
      dtype: float32
      filters: 48
      kernel_constraint: null
      kernel_initializer:
        class_name: VarianceScaling
        config:
          distribution: uniform
          mode: fan_avg
          scale: 1.0
          seed: null
      kernel_regularizer: null
      kernel_size: !!python/tuple
      - 1
      - 1
      name: conv2d_21
      padding: same
      strides: *id002
      trainable: false
      use_bias: false
    inbound_nodes:
    - - - mixed1
        - 0
        - 0
        - {}
    name: conv2d_21
  - class_name: Conv2D
    config:
      activation: linear
      activity_regularizer: null
      bias_constraint: null
      bias_initializer:
        class_name: Zeros
        config: {}
      bias_regularizer: null
      data_format: channels_last
      dilation_rate: *id001
      dtype: float32
      filters: 96
      kernel_constraint: null
      kernel_initializer:
        class_name: VarianceScaling
        config:
          distribution: uniform
          mode: fan_avg
          scale: 1.0
          seed: null
      kernel_regularizer: null
      kernel_size: !!python/tuple
      - 3
      - 3
      name: conv2d_24
      padding: same
      strides: *id002
      trainable: false
      use_bias: false
    inbound_nodes:
    - - - activation_72
        - 0
        - 0
        - {}
    name: conv2d_24
  - class_name: BatchNormalization
    config:
      axis: 3
      beta_constraint: null
      beta_initializer:
        class_name: Zeros
        config: {}
      beta_regularizer: null
      center: true
      dtype: float32
      epsilon: 0.001
      gamma_constraint: null
      gamma_initializer:
        class_name: Ones
        config: {}
      gamma_regularizer: null
      momentum: 0.99
      moving_mean_initializer:
        class_name: Zeros
        config: {}
      moving_variance_initializer:
        class_name: Ones
        config: {}
      name: batch_normalization_21
      scale: false
      trainable: false
    inbound_nodes:
    - - - conv2d_21
        - 0
        - 0
        - {}
    name: batch_normalization_21
  - class_name: BatchNormalization
    config:
      axis: 3
      beta_constraint: null
      beta_initializer:
        class_name: Zeros
        config: {}
      beta_regularizer: null
      center: true
      dtype: float32
      epsilon: 0.001
      gamma_constraint: null
      gamma_initializer:
        class_name: Ones
        config: {}
      gamma_regularizer: null
      momentum: 0.99
      moving_mean_initializer:
        class_name: Zeros
        config: {}
      moving_variance_initializer:
        class_name: Ones
        config: {}
      name: batch_normalization_24
      scale: false
      trainable: false
    inbound_nodes:
    - - - conv2d_24
        - 0
        - 0
        - {}
    name: batch_normalization_24
  - class_name: Activation
    config:
      activation: relu
      dtype: float32
      name: activation_70
      trainable: false
    inbound_nodes:
    - - - batch_normalization_21
        - 0
        - 0
        - {}
    name: activation_70
  - class_name: Activation
    config:
      activation: relu
      dtype: float32
      name: activation_73
      trainable: false
    inbound_nodes:
    - - - batch_normalization_24
        - 0
        - 0
        - {}
    name: activation_73
  - class_name: AveragePooling2D
    config:
      data_format: channels_last
      dtype: float32
      name: average_pooling2d_3
      padding: same
      pool_size: !!python/tuple
      - 3
      - 3
      strides: !!python/tuple
      - 1
      - 1
      trainable: false
    inbound_nodes:
    - - - mixed1
        - 0
        - 0
        - {}
    name: average_pooling2d_3
  - class_name: Conv2D
    config:
      activation: linear
      activity_regularizer: null
      bias_constraint: null
      bias_initializer:
        class_name: Zeros
        config: {}
      bias_regularizer: null
      data_format: channels_last
      dilation_rate: *id001
      dtype: float32
      filters: 64
      kernel_constraint: null
      kernel_initializer:
        class_name: VarianceScaling
        config:
          distribution: uniform
          mode: fan_avg
          scale: 1.0
          seed: null
      kernel_regularizer: null
      kernel_size: !!python/tuple
      - 1
      - 1
      name: conv2d_20
      padding: same
      strides: *id002
      trainable: false
      use_bias: false
    inbound_nodes:
    - - - mixed1
        - 0
        - 0
        - {}
    name: conv2d_20
  - class_name: Conv2D
    config:
      activation: linear
      activity_regularizer: null
      bias_constraint: null
      bias_initializer:
        class_name: Zeros
        config: {}
      bias_regularizer: null
      data_format: channels_last
      dilation_rate: *id001
      dtype: float32
      filters: 64
      kernel_constraint: null
      kernel_initializer:
        class_name: VarianceScaling
        config:
          distribution: uniform
          mode: fan_avg
          scale: 1.0
          seed: null
      kernel_regularizer: null
      kernel_size: !!python/tuple
      - 5
      - 5
      name: conv2d_22
      padding: same
      strides: *id002
      trainable: false
      use_bias: false
    inbound_nodes:
    - - - activation_70
        - 0
        - 0
        - {}
    name: conv2d_22
  - class_name: Conv2D
    config:
      activation: linear
      activity_regularizer: null
      bias_constraint: null
      bias_initializer:
        class_name: Zeros
        config: {}
      bias_regularizer: null
      data_format: channels_last
      dilation_rate: *id001
      dtype: float32
      filters: 96
      kernel_constraint: null
      kernel_initializer:
        class_name: VarianceScaling
        config:
          distribution: uniform
          mode: fan_avg
          scale: 1.0
          seed: null
      kernel_regularizer: null
      kernel_size: !!python/tuple
      - 3
      - 3
      name: conv2d_25
      padding: same
      strides: *id002
      trainable: false
      use_bias: false
    inbound_nodes:
    - - - activation_73
        - 0
        - 0
        - {}
    name: conv2d_25
  - class_name: Conv2D
    config:
      activation: linear
      activity_regularizer: null
      bias_constraint: null
      bias_initializer:
        class_name: Zeros
        config: {}
      bias_regularizer: null
      data_format: channels_last
      dilation_rate: *id001
      dtype: float32
      filters: 64
      kernel_constraint: null
      kernel_initializer:
        class_name: VarianceScaling
        config:
          distribution: uniform
          mode: fan_avg
          scale: 1.0
          seed: null
      kernel_regularizer: null
      kernel_size: !!python/tuple
      - 1
      - 1
      name: conv2d_26
      padding: same
      strides: *id002
      trainable: false
      use_bias: false
    inbound_nodes:
    - - - average_pooling2d_3
        - 0
        - 0
        - {}
    name: conv2d_26
  - class_name: BatchNormalization
    config:
      axis: 3
      beta_constraint: null
      beta_initializer:
        class_name: Zeros
        config: {}
      beta_regularizer: null
      center: true
      dtype: float32
      epsilon: 0.001
      gamma_constraint: null
      gamma_initializer:
        class_name: Ones
        config: {}
      gamma_regularizer: null
      momentum: 0.99
      moving_mean_initializer:
        class_name: Zeros
        config: {}
      moving_variance_initializer:
        class_name: Ones
        config: {}
      name: batch_normalization_20
      scale: false
      trainable: false
    inbound_nodes:
    - - - conv2d_20
        - 0
        - 0
        - {}
    name: batch_normalization_20
  - class_name: BatchNormalization
    config:
      axis: 3
      beta_constraint: null
      beta_initializer:
        class_name: Zeros
        config: {}
      beta_regularizer: null
      center: true
      dtype: float32
      epsilon: 0.001
      gamma_constraint: null
      gamma_initializer:
        class_name: Ones
        config: {}
      gamma_regularizer: null
      momentum: 0.99
      moving_mean_initializer:
        class_name: Zeros
        config: {}
      moving_variance_initializer:
        class_name: Ones
        config: {}
      name: batch_normalization_22
      scale: false
      trainable: false
    inbound_nodes:
    - - - conv2d_22
        - 0
        - 0
        - {}
    name: batch_normalization_22
  - class_name: BatchNormalization
    config:
      axis: 3
      beta_constraint: null
      beta_initializer:
        class_name: Zeros
        config: {}
      beta_regularizer: null
      center: true
      dtype: float32
      epsilon: 0.001
      gamma_constraint: null
      gamma_initializer:
        class_name: Ones
        config: {}
      gamma_regularizer: null
      momentum: 0.99
      moving_mean_initializer:
        class_name: Zeros
        config: {}
      moving_variance_initializer:
        class_name: Ones
        config: {}
      name: batch_normalization_25
      scale: false
      trainable: false
    inbound_nodes:
    - - - conv2d_25
        - 0
        - 0
        - {}
    name: batch_normalization_25
  - class_name: BatchNormalization
    config:
      axis: 3
      beta_constraint: null
      beta_initializer:
        class_name: Zeros
        config: {}
      beta_regularizer: null
      center: true
      dtype: float32
      epsilon: 0.001
      gamma_constraint: null
      gamma_initializer:
        class_name: Ones
        config: {}
      gamma_regularizer: null
      momentum: 0.99
      moving_mean_initializer:
        class_name: Zeros
        config: {}
      moving_variance_initializer:
        class_name: Ones
        config: {}
      name: batch_normalization_26
      scale: false
      trainable: false
    inbound_nodes:
    - - - conv2d_26
        - 0
        - 0
        - {}
    name: batch_normalization_26
  - class_name: Activation
    config:
      activation: relu
      dtype: float32
      name: activation_69
      trainable: false
    inbound_nodes:
    - - - batch_normalization_20
        - 0
        - 0
        - {}
    name: activation_69
  - class_name: Activation
    config:
      activation: relu
      dtype: float32
      name: activation_71
      trainable: false
    inbound_nodes:
    - - - batch_normalization_22
        - 0
        - 0
        - {}
    name: activation_71
  - class_name: Activation
    config:
      activation: relu
      dtype: float32
      name: activation_74
      trainable: false
    inbound_nodes:
    - - - batch_normalization_25
        - 0
        - 0
        - {}
    name: activation_74
  - class_name: Activation
    config:
      activation: relu
      dtype: float32
      name: activation_75
      trainable: false
    inbound_nodes:
    - - - batch_normalization_26
        - 0
        - 0
        - {}
    name: activation_75
  - class_name: Concatenate
    config:
      axis: 3
      dtype: float32
      name: mixed2
      trainable: false
    inbound_nodes:
    - - - activation_69
        - 0
        - 0
        - &id005 {}
      - - activation_71
        - 0
        - 0
        - *id005
      - - activation_74
        - 0
        - 0
        - *id005
      - - activation_75
        - 0
        - 0
        - *id005
    name: mixed2
  - class_name: Conv2D
    config:
      activation: linear
      activity_regularizer: null
      bias_constraint: null
      bias_initializer:
        class_name: Zeros
        config: {}
      bias_regularizer: null
      data_format: channels_last
      dilation_rate: *id001
      dtype: float32
      filters: 64
      kernel_constraint: null
      kernel_initializer:
        class_name: VarianceScaling
        config:
          distribution: uniform
          mode: fan_avg
          scale: 1.0
          seed: null
      kernel_regularizer: null
      kernel_size: !!python/tuple
      - 1
      - 1
      name: conv2d_28
      padding: same
      strides: *id002
      trainable: false
      use_bias: false
    inbound_nodes:
    - - - mixed2
        - 0
        - 0
        - {}
    name: conv2d_28
  - class_name: BatchNormalization
    config:
      axis: 3
      beta_constraint: null
      beta_initializer:
        class_name: Zeros
        config: {}
      beta_regularizer: null
      center: true
      dtype: float32
      epsilon: 0.001
      gamma_constraint: null
      gamma_initializer:
        class_name: Ones
        config: {}
      gamma_regularizer: null
      momentum: 0.99
      moving_mean_initializer:
        class_name: Zeros
        config: {}
      moving_variance_initializer:
        class_name: Ones
        config: {}
      name: batch_normalization_28
      scale: false
      trainable: false
    inbound_nodes:
    - - - conv2d_28
        - 0
        - 0
        - {}
    name: batch_normalization_28
  - class_name: Activation
    config:
      activation: relu
      dtype: float32
      name: activation_77
      trainable: false
    inbound_nodes:
    - - - batch_normalization_28
        - 0
        - 0
        - {}
    name: activation_77
  - class_name: Conv2D
    config:
      activation: linear
      activity_regularizer: null
      bias_constraint: null
      bias_initializer:
        class_name: Zeros
        config: {}
      bias_regularizer: null
      data_format: channels_last
      dilation_rate: *id001
      dtype: float32
      filters: 96
      kernel_constraint: null
      kernel_initializer:
        class_name: VarianceScaling
        config:
          distribution: uniform
          mode: fan_avg
          scale: 1.0
          seed: null
      kernel_regularizer: null
      kernel_size: !!python/tuple
      - 3
      - 3
      name: conv2d_29
      padding: same
      strides: *id002
      trainable: false
      use_bias: false
    inbound_nodes:
    - - - activation_77
        - 0
        - 0
        - {}
    name: conv2d_29
  - class_name: BatchNormalization
    config:
      axis: 3
      beta_constraint: null
      beta_initializer:
        class_name: Zeros
        config: {}
      beta_regularizer: null
      center: true
      dtype: float32
      epsilon: 0.001
      gamma_constraint: null
      gamma_initializer:
        class_name: Ones
        config: {}
      gamma_regularizer: null
      momentum: 0.99
      moving_mean_initializer:
        class_name: Zeros
        config: {}
      moving_variance_initializer:
        class_name: Ones
        config: {}
      name: batch_normalization_29
      scale: false
      trainable: false
    inbound_nodes:
    - - - conv2d_29
        - 0
        - 0
        - {}
    name: batch_normalization_29
  - class_name: Activation
    config:
      activation: relu
      dtype: float32
      name: activation_78
      trainable: false
    inbound_nodes:
    - - - batch_normalization_29
        - 0
        - 0
        - {}
    name: activation_78
  - class_name: Conv2D
    config:
      activation: linear
      activity_regularizer: null
      bias_constraint: null
      bias_initializer:
        class_name: Zeros
        config: {}
      bias_regularizer: null
      data_format: channels_last
      dilation_rate: *id001
      dtype: float32
      filters: 384
      kernel_constraint: null
      kernel_initializer:
        class_name: VarianceScaling
        config:
          distribution: uniform
          mode: fan_avg
          scale: 1.0
          seed: null
      kernel_regularizer: null
      kernel_size: !!python/tuple
      - 3
      - 3
      name: conv2d_27
      padding: valid
      strides: !!python/tuple
      - 2
      - 2
      trainable: false
      use_bias: false
    inbound_nodes:
    - - - mixed2
        - 0
        - 0
        - {}
    name: conv2d_27
  - class_name: Conv2D
    config:
      activation: linear
      activity_regularizer: null
      bias_constraint: null
      bias_initializer:
        class_name: Zeros
        config: {}
      bias_regularizer: null
      data_format: channels_last
      dilation_rate: *id001
      dtype: float32
      filters: 96
      kernel_constraint: null
      kernel_initializer:
        class_name: VarianceScaling
        config:
          distribution: uniform
          mode: fan_avg
          scale: 1.0
          seed: null
      kernel_regularizer: null
      kernel_size: !!python/tuple
      - 3
      - 3
      name: conv2d_30
      padding: valid
      strides: !!python/tuple
      - 2
      - 2
      trainable: false
      use_bias: false
    inbound_nodes:
    - - - activation_78
        - 0
        - 0
        - {}
    name: conv2d_30
  - class_name: BatchNormalization
    config:
      axis: 3
      beta_constraint: null
      beta_initializer:
        class_name: Zeros
        config: {}
      beta_regularizer: null
      center: true
      dtype: float32
      epsilon: 0.001
      gamma_constraint: null
      gamma_initializer:
        class_name: Ones
        config: {}
      gamma_regularizer: null
      momentum: 0.99
      moving_mean_initializer:
        class_name: Zeros
        config: {}
      moving_variance_initializer:
        class_name: Ones
        config: {}
      name: batch_normalization_27
      scale: false
      trainable: false
    inbound_nodes:
    - - - conv2d_27
        - 0
        - 0
        - {}
    name: batch_normalization_27
  - class_name: BatchNormalization
    config:
      axis: 3
      beta_constraint: null
      beta_initializer:
        class_name: Zeros
        config: {}
      beta_regularizer: null
      center: true
      dtype: float32
      epsilon: 0.001
      gamma_constraint: null
      gamma_initializer:
        class_name: Ones
        config: {}
      gamma_regularizer: null
      momentum: 0.99
      moving_mean_initializer:
        class_name: Zeros
        config: {}
      moving_variance_initializer:
        class_name: Ones
        config: {}
      name: batch_normalization_30
      scale: false
      trainable: false
    inbound_nodes:
    - - - conv2d_30
        - 0
        - 0
        - {}
    name: batch_normalization_30
  - class_name: Activation
    config:
      activation: relu
      dtype: float32
      name: activation_76
      trainable: false
    inbound_nodes:
    - - - batch_normalization_27
        - 0
        - 0
        - {}
    name: activation_76
  - class_name: Activation
    config:
      activation: relu
      dtype: float32
      name: activation_79
      trainable: false
    inbound_nodes:
    - - - batch_normalization_30
        - 0
        - 0
        - {}
    name: activation_79
  - class_name: MaxPooling2D
    config:
      data_format: channels_last
      dtype: float32
      name: max_pooling2d_4
      padding: valid
      pool_size: !!python/tuple
      - 3
      - 3
      strides: !!python/tuple
      - 2
      - 2
      trainable: false
    inbound_nodes:
    - - - mixed2
        - 0
        - 0
        - {}
    name: max_pooling2d_4
  - class_name: Concatenate
    config:
      axis: 3
      dtype: float32
      name: mixed3
      trainable: false
    inbound_nodes:
    - - - activation_76
        - 0
        - 0
        - &id006 {}
      - - activation_79
        - 0
        - 0
        - *id006
      - - max_pooling2d_4
        - 0
        - 0
        - *id006
    name: mixed3
  - class_name: Conv2D
    config:
      activation: linear
      activity_regularizer: null
      bias_constraint: null
      bias_initializer:
        class_name: Zeros
        config: {}
      bias_regularizer: null
      data_format: channels_last
      dilation_rate: *id001
      dtype: float32
      filters: 128
      kernel_constraint: null
      kernel_initializer:
        class_name: VarianceScaling
        config:
          distribution: uniform
          mode: fan_avg
          scale: 1.0
          seed: null
      kernel_regularizer: null
      kernel_size: !!python/tuple
      - 1
      - 1
      name: conv2d_35
      padding: same
      strides: *id002
      trainable: false
      use_bias: false
    inbound_nodes:
    - - - mixed3
        - 0
        - 0
        - {}
    name: conv2d_35
  - class_name: BatchNormalization
    config:
      axis: 3
      beta_constraint: null
      beta_initializer:
        class_name: Zeros
        config: {}
      beta_regularizer: null
      center: true
      dtype: float32
      epsilon: 0.001
      gamma_constraint: null
      gamma_initializer:
        class_name: Ones
        config: {}
      gamma_regularizer: null
      momentum: 0.99
      moving_mean_initializer:
        class_name: Zeros
        config: {}
      moving_variance_initializer:
        class_name: Ones
        config: {}
      name: batch_normalization_35
      scale: false
      trainable: false
    inbound_nodes:
    - - - conv2d_35
        - 0
        - 0
        - {}
    name: batch_normalization_35
  - class_name: Activation
    config:
      activation: relu
      dtype: float32
      name: activation_84
      trainable: false
    inbound_nodes:
    - - - batch_normalization_35
        - 0
        - 0
        - {}
    name: activation_84
  - class_name: Conv2D
    config:
      activation: linear
      activity_regularizer: null
      bias_constraint: null
      bias_initializer:
        class_name: Zeros
        config: {}
      bias_regularizer: null
      data_format: channels_last
      dilation_rate: *id001
      dtype: float32
      filters: 128
      kernel_constraint: null
      kernel_initializer:
        class_name: VarianceScaling
        config:
          distribution: uniform
          mode: fan_avg
          scale: 1.0
          seed: null
      kernel_regularizer: null
      kernel_size: !!python/tuple
      - 7
      - 1
      name: conv2d_36
      padding: same
      strides: *id002
      trainable: false
      use_bias: false
    inbound_nodes:
    - - - activation_84
        - 0
        - 0
        - {}
    name: conv2d_36
  - class_name: BatchNormalization
    config:
      axis: 3
      beta_constraint: null
      beta_initializer:
        class_name: Zeros
        config: {}
      beta_regularizer: null
      center: true
      dtype: float32
      epsilon: 0.001
      gamma_constraint: null
      gamma_initializer:
        class_name: Ones
        config: {}
      gamma_regularizer: null
      momentum: 0.99
      moving_mean_initializer:
        class_name: Zeros
        config: {}
      moving_variance_initializer:
        class_name: Ones
        config: {}
      name: batch_normalization_36
      scale: false
      trainable: false
    inbound_nodes:
    - - - conv2d_36
        - 0
        - 0
        - {}
    name: batch_normalization_36
  - class_name: Activation
    config:
      activation: relu
      dtype: float32
      name: activation_85
      trainable: false
    inbound_nodes:
    - - - batch_normalization_36
        - 0
        - 0
        - {}
    name: activation_85
  - class_name: Conv2D
    config:
      activation: linear
      activity_regularizer: null
      bias_constraint: null
      bias_initializer:
        class_name: Zeros
        config: {}
      bias_regularizer: null
      data_format: channels_last
      dilation_rate: *id001
      dtype: float32
      filters: 128
      kernel_constraint: null
      kernel_initializer:
        class_name: VarianceScaling
        config:
          distribution: uniform
          mode: fan_avg
          scale: 1.0
          seed: null
      kernel_regularizer: null
      kernel_size: !!python/tuple
      - 1
      - 1
      name: conv2d_32
      padding: same
      strides: *id002
      trainable: false
      use_bias: false
    inbound_nodes:
    - - - mixed3
        - 0
        - 0
        - {}
    name: conv2d_32
  - class_name: Conv2D
    config:
      activation: linear
      activity_regularizer: null
      bias_constraint: null
      bias_initializer:
        class_name: Zeros
        config: {}
      bias_regularizer: null
      data_format: channels_last
      dilation_rate: *id001
      dtype: float32
      filters: 128
      kernel_constraint: null
      kernel_initializer:
        class_name: VarianceScaling
        config:
          distribution: uniform
          mode: fan_avg
          scale: 1.0
          seed: null
      kernel_regularizer: null
      kernel_size: !!python/tuple
      - 1
      - 7
      name: conv2d_37
      padding: same
      strides: *id002
      trainable: false
      use_bias: false
    inbound_nodes:
    - - - activation_85
        - 0
        - 0
        - {}
    name: conv2d_37
  - class_name: BatchNormalization
    config:
      axis: 3
      beta_constraint: null
      beta_initializer:
        class_name: Zeros
        config: {}
      beta_regularizer: null
      center: true
      dtype: float32
      epsilon: 0.001
      gamma_constraint: null
      gamma_initializer:
        class_name: Ones
        config: {}
      gamma_regularizer: null
      momentum: 0.99
      moving_mean_initializer:
        class_name: Zeros
        config: {}
      moving_variance_initializer:
        class_name: Ones
        config: {}
      name: batch_normalization_32
      scale: false
      trainable: false
    inbound_nodes:
    - - - conv2d_32
        - 0
        - 0
        - {}
    name: batch_normalization_32
  - class_name: BatchNormalization
    config:
      axis: 3
      beta_constraint: null
      beta_initializer:
        class_name: Zeros
        config: {}
      beta_regularizer: null
      center: true
      dtype: float32
      epsilon: 0.001
      gamma_constraint: null
      gamma_initializer:
        class_name: Ones
        config: {}
      gamma_regularizer: null
      momentum: 0.99
      moving_mean_initializer:
        class_name: Zeros
        config: {}
      moving_variance_initializer:
        class_name: Ones
        config: {}
      name: batch_normalization_37
      scale: false
      trainable: false
    inbound_nodes:
    - - - conv2d_37
        - 0
        - 0
        - {}
    name: batch_normalization_37
  - class_name: Activation
    config:
      activation: relu
      dtype: float32
      name: activation_81
      trainable: false
    inbound_nodes:
    - - - batch_normalization_32
        - 0
        - 0
        - {}
    name: activation_81
  - class_name: Activation
    config:
      activation: relu
      dtype: float32
      name: activation_86
      trainable: false
    inbound_nodes:
    - - - batch_normalization_37
        - 0
        - 0
        - {}
    name: activation_86
  - class_name: Conv2D
    config:
      activation: linear
      activity_regularizer: null
      bias_constraint: null
      bias_initializer:
        class_name: Zeros
        config: {}
      bias_regularizer: null
      data_format: channels_last
      dilation_rate: *id001
      dtype: float32
      filters: 128
      kernel_constraint: null
      kernel_initializer:
        class_name: VarianceScaling
        config:
          distribution: uniform
          mode: fan_avg
          scale: 1.0
          seed: null
      kernel_regularizer: null
      kernel_size: !!python/tuple
      - 1
      - 7
      name: conv2d_33
      padding: same
      strides: *id002
      trainable: false
      use_bias: false
    inbound_nodes:
    - - - activation_81
        - 0
        - 0
        - {}
    name: conv2d_33
  - class_name: Conv2D
    config:
      activation: linear
      activity_regularizer: null
      bias_constraint: null
      bias_initializer:
        class_name: Zeros
        config: {}
      bias_regularizer: null
      data_format: channels_last
      dilation_rate: *id001
      dtype: float32
      filters: 128
      kernel_constraint: null
      kernel_initializer:
        class_name: VarianceScaling
        config:
          distribution: uniform
          mode: fan_avg
          scale: 1.0
          seed: null
      kernel_regularizer: null
      kernel_size: !!python/tuple
      - 7
      - 1
      name: conv2d_38
      padding: same
      strides: *id002
      trainable: false
      use_bias: false
    inbound_nodes:
    - - - activation_86
        - 0
        - 0
        - {}
    name: conv2d_38
  - class_name: BatchNormalization
    config:
      axis: 3
      beta_constraint: null
      beta_initializer:
        class_name: Zeros
        config: {}
      beta_regularizer: null
      center: true
      dtype: float32
      epsilon: 0.001
      gamma_constraint: null
      gamma_initializer:
        class_name: Ones
        config: {}
      gamma_regularizer: null
      momentum: 0.99
      moving_mean_initializer:
        class_name: Zeros
        config: {}
      moving_variance_initializer:
        class_name: Ones
        config: {}
      name: batch_normalization_33
      scale: false
      trainable: false
    inbound_nodes:
    - - - conv2d_33
        - 0
        - 0
        - {}
    name: batch_normalization_33
  - class_name: BatchNormalization
    config:
      axis: 3
      beta_constraint: null
      beta_initializer:
        class_name: Zeros
        config: {}
      beta_regularizer: null
      center: true
      dtype: float32
      epsilon: 0.001
      gamma_constraint: null
      gamma_initializer:
        class_name: Ones
        config: {}
      gamma_regularizer: null
      momentum: 0.99
      moving_mean_initializer:
        class_name: Zeros
        config: {}
      moving_variance_initializer:
        class_name: Ones
        config: {}
      name: batch_normalization_38
      scale: false
      trainable: false
    inbound_nodes:
    - - - conv2d_38
        - 0
        - 0
        - {}
    name: batch_normalization_38
  - class_name: Activation
    config:
      activation: relu
      dtype: float32
      name: activation_82
      trainable: false
    inbound_nodes:
    - - - batch_normalization_33
        - 0
        - 0
        - {}
    name: activation_82
  - class_name: Activation
    config:
      activation: relu
      dtype: float32
      name: activation_87
      trainable: false
    inbound_nodes:
    - - - batch_normalization_38
        - 0
        - 0
        - {}
    name: activation_87
  - class_name: AveragePooling2D
    config:
      data_format: channels_last
      dtype: float32
      name: average_pooling2d_4
      padding: same
      pool_size: !!python/tuple
      - 3
      - 3
      strides: !!python/tuple
      - 1
      - 1
      trainable: false
    inbound_nodes:
    - - - mixed3
        - 0
        - 0
        - {}
    name: average_pooling2d_4
  - class_name: Conv2D
    config:
      activation: linear
      activity_regularizer: null
      bias_constraint: null
      bias_initializer:
        class_name: Zeros
        config: {}
      bias_regularizer: null
      data_format: channels_last
      dilation_rate: *id001
      dtype: float32
      filters: 192
      kernel_constraint: null
      kernel_initializer:
        class_name: VarianceScaling
        config:
          distribution: uniform
          mode: fan_avg
          scale: 1.0
          seed: null
      kernel_regularizer: null
      kernel_size: !!python/tuple
      - 1
      - 1
      name: conv2d_31
      padding: same
      strides: *id002
      trainable: false
      use_bias: false
    inbound_nodes:
    - - - mixed3
        - 0
        - 0
        - {}
    name: conv2d_31
  - class_name: Conv2D
    config:
      activation: linear
      activity_regularizer: null
      bias_constraint: null
      bias_initializer:
        class_name: Zeros
        config: {}
      bias_regularizer: null
      data_format: channels_last
      dilation_rate: *id001
      dtype: float32
      filters: 192
      kernel_constraint: null
      kernel_initializer:
        class_name: VarianceScaling
        config:
          distribution: uniform
          mode: fan_avg
          scale: 1.0
          seed: null
      kernel_regularizer: null
      kernel_size: !!python/tuple
      - 7
      - 1
      name: conv2d_34
      padding: same
      strides: *id002
      trainable: false
      use_bias: false
    inbound_nodes:
    - - - activation_82
        - 0
        - 0
        - {}
    name: conv2d_34
  - class_name: Conv2D
    config:
      activation: linear
      activity_regularizer: null
      bias_constraint: null
      bias_initializer:
        class_name: Zeros
        config: {}
      bias_regularizer: null
      data_format: channels_last
      dilation_rate: *id001
      dtype: float32
      filters: 192
      kernel_constraint: null
      kernel_initializer:
        class_name: VarianceScaling
        config:
          distribution: uniform
          mode: fan_avg
          scale: 1.0
          seed: null
      kernel_regularizer: null
      kernel_size: !!python/tuple
      - 1
      - 7
      name: conv2d_39
      padding: same
      strides: *id002
      trainable: false
      use_bias: false
    inbound_nodes:
    - - - activation_87
        - 0
        - 0
        - {}
    name: conv2d_39
  - class_name: Conv2D
    config:
      activation: linear
      activity_regularizer: null
      bias_constraint: null
      bias_initializer:
        class_name: Zeros
        config: {}
      bias_regularizer: null
      data_format: channels_last
      dilation_rate: *id001
      dtype: float32
      filters: 192
      kernel_constraint: null
      kernel_initializer:
        class_name: VarianceScaling
        config:
          distribution: uniform
          mode: fan_avg
          scale: 1.0
          seed: null
      kernel_regularizer: null
      kernel_size: !!python/tuple
      - 1
      - 1
      name: conv2d_40
      padding: same
      strides: *id002
      trainable: false
      use_bias: false
    inbound_nodes:
    - - - average_pooling2d_4
        - 0
        - 0
        - {}
    name: conv2d_40
  - class_name: BatchNormalization
    config:
      axis: 3
      beta_constraint: null
      beta_initializer:
        class_name: Zeros
        config: {}
      beta_regularizer: null
      center: true
      dtype: float32
      epsilon: 0.001
      gamma_constraint: null
      gamma_initializer:
        class_name: Ones
        config: {}
      gamma_regularizer: null
      momentum: 0.99
      moving_mean_initializer:
        class_name: Zeros
        config: {}
      moving_variance_initializer:
        class_name: Ones
        config: {}
      name: batch_normalization_31
      scale: false
      trainable: false
    inbound_nodes:
    - - - conv2d_31
        - 0
        - 0
        - {}
    name: batch_normalization_31
  - class_name: BatchNormalization
    config:
      axis: 3
      beta_constraint: null
      beta_initializer:
        class_name: Zeros
        config: {}
      beta_regularizer: null
      center: true
      dtype: float32
      epsilon: 0.001
      gamma_constraint: null
      gamma_initializer:
        class_name: Ones
        config: {}
      gamma_regularizer: null
      momentum: 0.99
      moving_mean_initializer:
        class_name: Zeros
        config: {}
      moving_variance_initializer:
        class_name: Ones
        config: {}
      name: batch_normalization_34
      scale: false
      trainable: false
    inbound_nodes:
    - - - conv2d_34
        - 0
        - 0
        - {}
    name: batch_normalization_34
  - class_name: BatchNormalization
    config:
      axis: 3
      beta_constraint: null
      beta_initializer:
        class_name: Zeros
        config: {}
      beta_regularizer: null
      center: true
      dtype: float32
      epsilon: 0.001
      gamma_constraint: null
      gamma_initializer:
        class_name: Ones
        config: {}
      gamma_regularizer: null
      momentum: 0.99
      moving_mean_initializer:
        class_name: Zeros
        config: {}
      moving_variance_initializer:
        class_name: Ones
        config: {}
      name: batch_normalization_39
      scale: false
      trainable: false
    inbound_nodes:
    - - - conv2d_39
        - 0
        - 0
        - {}
    name: batch_normalization_39
  - class_name: BatchNormalization
    config:
      axis: 3
      beta_constraint: null
      beta_initializer:
        class_name: Zeros
        config: {}
      beta_regularizer: null
      center: true
      dtype: float32
      epsilon: 0.001
      gamma_constraint: null
      gamma_initializer:
        class_name: Ones
        config: {}
      gamma_regularizer: null
      momentum: 0.99
      moving_mean_initializer:
        class_name: Zeros
        config: {}
      moving_variance_initializer:
        class_name: Ones
        config: {}
      name: batch_normalization_40
      scale: false
      trainable: false
    inbound_nodes:
    - - - conv2d_40
        - 0
        - 0
        - {}
    name: batch_normalization_40
  - class_name: Activation
    config:
      activation: relu
      dtype: float32
      name: activation_80
      trainable: false
    inbound_nodes:
    - - - batch_normalization_31
        - 0
        - 0
        - {}
    name: activation_80
  - class_name: Activation
    config:
      activation: relu
      dtype: float32
      name: activation_83
      trainable: false
    inbound_nodes:
    - - - batch_normalization_34
        - 0
        - 0
        - {}
    name: activation_83
  - class_name: Activation
    config:
      activation: relu
      dtype: float32
      name: activation_88
      trainable: false
    inbound_nodes:
    - - - batch_normalization_39
        - 0
        - 0
        - {}
    name: activation_88
  - class_name: Activation
    config:
      activation: relu
      dtype: float32
      name: activation_89
      trainable: false
    inbound_nodes:
    - - - batch_normalization_40
        - 0
        - 0
        - {}
    name: activation_89
  - class_name: Concatenate
    config:
      axis: 3
      dtype: float32
      name: mixed4
      trainable: false
    inbound_nodes:
    - - - activation_80
        - 0
        - 0
        - &id007 {}
      - - activation_83
        - 0
        - 0
        - *id007
      - - activation_88
        - 0
        - 0
        - *id007
      - - activation_89
        - 0
        - 0
        - *id007
    name: mixed4
  - class_name: Conv2D
    config:
      activation: linear
      activity_regularizer: null
      bias_constraint: null
      bias_initializer:
        class_name: Zeros
        config: {}
      bias_regularizer: null
      data_format: channels_last
      dilation_rate: *id001
      dtype: float32
      filters: 160
      kernel_constraint: null
      kernel_initializer:
        class_name: VarianceScaling
        config:
          distribution: uniform
          mode: fan_avg
          scale: 1.0
          seed: null
      kernel_regularizer: null
      kernel_size: !!python/tuple
      - 1
      - 1
      name: conv2d_45
      padding: same
      strides: *id002
      trainable: false
      use_bias: false
    inbound_nodes:
    - - - mixed4
        - 0
        - 0
        - {}
    name: conv2d_45
  - class_name: BatchNormalization
    config:
      axis: 3
      beta_constraint: null
      beta_initializer:
        class_name: Zeros
        config: {}
      beta_regularizer: null
      center: true
      dtype: float32
      epsilon: 0.001
      gamma_constraint: null
      gamma_initializer:
        class_name: Ones
        config: {}
      gamma_regularizer: null
      momentum: 0.99
      moving_mean_initializer:
        class_name: Zeros
        config: {}
      moving_variance_initializer:
        class_name: Ones
        config: {}
      name: batch_normalization_45
      scale: false
      trainable: false
    inbound_nodes:
    - - - conv2d_45
        - 0
        - 0
        - {}
    name: batch_normalization_45
  - class_name: Activation
    config:
      activation: relu
      dtype: float32
      name: activation_94
      trainable: false
    inbound_nodes:
    - - - batch_normalization_45
        - 0
        - 0
        - {}
    name: activation_94
  - class_name: Conv2D
    config:
      activation: linear
      activity_regularizer: null
      bias_constraint: null
      bias_initializer:
        class_name: Zeros
        config: {}
      bias_regularizer: null
      data_format: channels_last
      dilation_rate: *id001
      dtype: float32
      filters: 160
      kernel_constraint: null
      kernel_initializer:
        class_name: VarianceScaling
        config:
          distribution: uniform
          mode: fan_avg
          scale: 1.0
          seed: null
      kernel_regularizer: null
      kernel_size: !!python/tuple
      - 7
      - 1
      name: conv2d_46
      padding: same
      strides: *id002
      trainable: false
      use_bias: false
    inbound_nodes:
    - - - activation_94
        - 0
        - 0
        - {}
    name: conv2d_46
  - class_name: BatchNormalization
    config:
      axis: 3
      beta_constraint: null
      beta_initializer:
        class_name: Zeros
        config: {}
      beta_regularizer: null
      center: true
      dtype: float32
      epsilon: 0.001
      gamma_constraint: null
      gamma_initializer:
        class_name: Ones
        config: {}
      gamma_regularizer: null
      momentum: 0.99
      moving_mean_initializer:
        class_name: Zeros
        config: {}
      moving_variance_initializer:
        class_name: Ones
        config: {}
      name: batch_normalization_46
      scale: false
      trainable: false
    inbound_nodes:
    - - - conv2d_46
        - 0
        - 0
        - {}
    name: batch_normalization_46
  - class_name: Activation
    config:
      activation: relu
      dtype: float32
      name: activation_95
      trainable: false
    inbound_nodes:
    - - - batch_normalization_46
        - 0
        - 0
        - {}
    name: activation_95
  - class_name: Conv2D
    config:
      activation: linear
      activity_regularizer: null
      bias_constraint: null
      bias_initializer:
        class_name: Zeros
        config: {}
      bias_regularizer: null
      data_format: channels_last
      dilation_rate: *id001
      dtype: float32
      filters: 160
      kernel_constraint: null
      kernel_initializer:
        class_name: VarianceScaling
        config:
          distribution: uniform
          mode: fan_avg
          scale: 1.0
          seed: null
      kernel_regularizer: null
      kernel_size: !!python/tuple
      - 1
      - 1
      name: conv2d_42
      padding: same
      strides: *id002
      trainable: false
      use_bias: false
    inbound_nodes:
    - - - mixed4
        - 0
        - 0
        - {}
    name: conv2d_42
  - class_name: Conv2D
    config:
      activation: linear
      activity_regularizer: null
      bias_constraint: null
      bias_initializer:
        class_name: Zeros
        config: {}
      bias_regularizer: null
      data_format: channels_last
      dilation_rate: *id001
      dtype: float32
      filters: 160
      kernel_constraint: null
      kernel_initializer:
        class_name: VarianceScaling
        config:
          distribution: uniform
          mode: fan_avg
          scale: 1.0
          seed: null
      kernel_regularizer: null
      kernel_size: !!python/tuple
      - 1
      - 7
      name: conv2d_47
      padding: same
      strides: *id002
      trainable: false
      use_bias: false
    inbound_nodes:
    - - - activation_95
        - 0
        - 0
        - {}
    name: conv2d_47
  - class_name: BatchNormalization
    config:
      axis: 3
      beta_constraint: null
      beta_initializer:
        class_name: Zeros
        config: {}
      beta_regularizer: null
      center: true
      dtype: float32
      epsilon: 0.001
      gamma_constraint: null
      gamma_initializer:
        class_name: Ones
        config: {}
      gamma_regularizer: null
      momentum: 0.99
      moving_mean_initializer:
        class_name: Zeros
        config: {}
      moving_variance_initializer:
        class_name: Ones
        config: {}
      name: batch_normalization_42
      scale: false
      trainable: false
    inbound_nodes:
    - - - conv2d_42
        - 0
        - 0
        - {}
    name: batch_normalization_42
  - class_name: BatchNormalization
    config:
      axis: 3
      beta_constraint: null
      beta_initializer:
        class_name: Zeros
        config: {}
      beta_regularizer: null
      center: true
      dtype: float32
      epsilon: 0.001
      gamma_constraint: null
      gamma_initializer:
        class_name: Ones
        config: {}
      gamma_regularizer: null
      momentum: 0.99
      moving_mean_initializer:
        class_name: Zeros
        config: {}
      moving_variance_initializer:
        class_name: Ones
        config: {}
      name: batch_normalization_47
      scale: false
      trainable: false
    inbound_nodes:
    - - - conv2d_47
        - 0
        - 0
        - {}
    name: batch_normalization_47
  - class_name: Activation
    config:
      activation: relu
      dtype: float32
      name: activation_91
      trainable: false
    inbound_nodes:
    - - - batch_normalization_42
        - 0
        - 0
        - {}
    name: activation_91
  - class_name: Activation
    config:
      activation: relu
      dtype: float32
      name: activation_96
      trainable: false
    inbound_nodes:
    - - - batch_normalization_47
        - 0
        - 0
        - {}
    name: activation_96
  - class_name: Conv2D
    config:
      activation: linear
      activity_regularizer: null
      bias_constraint: null
      bias_initializer:
        class_name: Zeros
        config: {}
      bias_regularizer: null
      data_format: channels_last
      dilation_rate: *id001
      dtype: float32
      filters: 160
      kernel_constraint: null
      kernel_initializer:
        class_name: VarianceScaling
        config:
          distribution: uniform
          mode: fan_avg
          scale: 1.0
          seed: null
      kernel_regularizer: null
      kernel_size: !!python/tuple
      - 1
      - 7
      name: conv2d_43
      padding: same
      strides: *id002
      trainable: false
      use_bias: false
    inbound_nodes:
    - - - activation_91
        - 0
        - 0
        - {}
    name: conv2d_43
  - class_name: Conv2D
    config:
      activation: linear
      activity_regularizer: null
      bias_constraint: null
      bias_initializer:
        class_name: Zeros
        config: {}
      bias_regularizer: null
      data_format: channels_last
      dilation_rate: *id001
      dtype: float32
      filters: 160
      kernel_constraint: null
      kernel_initializer:
        class_name: VarianceScaling
        config:
          distribution: uniform
          mode: fan_avg
          scale: 1.0
          seed: null
      kernel_regularizer: null
      kernel_size: !!python/tuple
      - 7
      - 1
      name: conv2d_48
      padding: same
      strides: *id002
      trainable: false
      use_bias: false
    inbound_nodes:
    - - - activation_96
        - 0
        - 0
        - {}
    name: conv2d_48
  - class_name: BatchNormalization
    config:
      axis: 3
      beta_constraint: null
      beta_initializer:
        class_name: Zeros
        config: {}
      beta_regularizer: null
      center: true
      dtype: float32
      epsilon: 0.001
      gamma_constraint: null
      gamma_initializer:
        class_name: Ones
        config: {}
      gamma_regularizer: null
      momentum: 0.99
      moving_mean_initializer:
        class_name: Zeros
        config: {}
      moving_variance_initializer:
        class_name: Ones
        config: {}
      name: batch_normalization_43
      scale: false
      trainable: false
    inbound_nodes:
    - - - conv2d_43
        - 0
        - 0
        - {}
    name: batch_normalization_43
  - class_name: BatchNormalization
    config:
      axis: 3
      beta_constraint: null
      beta_initializer:
        class_name: Zeros
        config: {}
      beta_regularizer: null
      center: true
      dtype: float32
      epsilon: 0.001
      gamma_constraint: null
      gamma_initializer:
        class_name: Ones
        config: {}
      gamma_regularizer: null
      momentum: 0.99
      moving_mean_initializer:
        class_name: Zeros
        config: {}
      moving_variance_initializer:
        class_name: Ones
        config: {}
      name: batch_normalization_48
      scale: false
      trainable: false
    inbound_nodes:
    - - - conv2d_48
        - 0
        - 0
        - {}
    name: batch_normalization_48
  - class_name: Activation
    config:
      activation: relu
      dtype: float32
      name: activation_92
      trainable: false
    inbound_nodes:
    - - - batch_normalization_43
        - 0
        - 0
        - {}
    name: activation_92
  - class_name: Activation
    config:
      activation: relu
      dtype: float32
      name: activation_97
      trainable: false
    inbound_nodes:
    - - - batch_normalization_48
        - 0
        - 0
        - {}
    name: activation_97
  - class_name: AveragePooling2D
    config:
      data_format: channels_last
      dtype: float32
      name: average_pooling2d_5
      padding: same
      pool_size: &id009 !!python/tuple
      - 3
      - 3
      strides: &id010 !!python/tuple
      - 1
      - 1
      trainable: false
    inbound_nodes:
    - - - mixed4
        - 0
        - 0
        - {}
    name: average_pooling2d_5
  - class_name: Conv2D
    config:
      activation: linear
      activity_regularizer: null
      bias_constraint: null
      bias_initializer:
        class_name: Zeros
        config: {}
      bias_regularizer: null
      data_format: channels_last
      dilation_rate: *id001
      dtype: float32
      filters: 192
      kernel_constraint: null
      kernel_initializer:
        class_name: VarianceScaling
        config:
          distribution: uniform
          mode: fan_avg
          scale: 1.0
          seed: null
      kernel_regularizer: null
      kernel_size: !!python/tuple
      - 1
      - 1
      name: conv2d_41
      padding: same
      strides: *id002
      trainable: false
      use_bias: false
    inbound_nodes:
    - - - mixed4
        - 0
        - 0
        - {}
    name: conv2d_41
  - class_name: Conv2D
    config:
      activation: linear
      activity_regularizer: null
      bias_constraint: null
      bias_initializer:
        class_name: Zeros
        config: {}
      bias_regularizer: null
      data_format: channels_last
      dilation_rate: *id001
      dtype: float32
      filters: 192
      kernel_constraint: null
      kernel_initializer:
        class_name: VarianceScaling
        config:
          distribution: uniform
          mode: fan_avg
          scale: 1.0
          seed: null
      kernel_regularizer: null
      kernel_size: !!python/tuple
      - 7
      - 1
      name: conv2d_44
      padding: same
      strides: *id002
      trainable: false
      use_bias: false
    inbound_nodes:
    - - - activation_92
        - 0
        - 0
        - {}
    name: conv2d_44
  - class_name: Conv2D
    config:
      activation: linear
      activity_regularizer: null
      bias_constraint: null
      bias_initializer:
        class_name: Zeros
        config: {}
      bias_regularizer: null
      data_format: channels_last
      dilation_rate: *id001
      dtype: float32
      filters: 192
      kernel_constraint: null
      kernel_initializer:
        class_name: VarianceScaling
        config:
          distribution: uniform
          mode: fan_avg
          scale: 1.0
          seed: null
      kernel_regularizer: null
      kernel_size: !!python/tuple
      - 1
      - 7
      name: conv2d_49
      padding: same
      strides: *id002
      trainable: false
      use_bias: false
    inbound_nodes:
    - - - activation_97
        - 0
        - 0
        - {}
    name: conv2d_49
  - class_name: Conv2D
    config:
      activation: linear
      activity_regularizer: null
      bias_constraint: null
      bias_initializer:
        class_name: Zeros
        config: {}
      bias_regularizer: null
      data_format: channels_last
      dilation_rate: *id001
      dtype: float32
      filters: 192
      kernel_constraint: null
      kernel_initializer:
        class_name: VarianceScaling
        config:
          distribution: uniform
          mode: fan_avg
          scale: 1.0
          seed: null
      kernel_regularizer: null
      kernel_size: !!python/tuple
      - 1
      - 1
      name: conv2d_50
      padding: same
      strides: *id002
      trainable: false
      use_bias: false
    inbound_nodes:
    - - - average_pooling2d_5
        - 0
        - 0
        - {}
    name: conv2d_50
  - class_name: BatchNormalization
    config:
      axis: 3
      beta_constraint: null
      beta_initializer:
        class_name: Zeros
        config: {}
      beta_regularizer: null
      center: true
      dtype: float32
      epsilon: 0.001
      gamma_constraint: null
      gamma_initializer:
        class_name: Ones
        config: {}
      gamma_regularizer: null
      momentum: 0.99
      moving_mean_initializer:
        class_name: Zeros
        config: {}
      moving_variance_initializer:
        class_name: Ones
        config: {}
      name: batch_normalization_41
      scale: false
      trainable: false
    inbound_nodes:
    - - - conv2d_41
        - 0
        - 0
        - {}
    name: batch_normalization_41
  - class_name: BatchNormalization
    config:
      axis: 3
      beta_constraint: null
      beta_initializer:
        class_name: Zeros
        config: {}
      beta_regularizer: null
      center: true
      dtype: float32
      epsilon: 0.001
      gamma_constraint: null
      gamma_initializer:
        class_name: Ones
        config: {}
      gamma_regularizer: null
      momentum: 0.99
      moving_mean_initializer:
        class_name: Zeros
        config: {}
      moving_variance_initializer:
        class_name: Ones
        config: {}
      name: batch_normalization_44
      scale: false
      trainable: false
    inbound_nodes:
    - - - conv2d_44
        - 0
        - 0
        - {}
    name: batch_normalization_44
  - class_name: BatchNormalization
    config:
      axis: 3
      beta_constraint: null
      beta_initializer:
        class_name: Zeros
        config: {}
      beta_regularizer: null
      center: true
      dtype: float32
      epsilon: 0.001
      gamma_constraint: null
      gamma_initializer:
        class_name: Ones
        config: {}
      gamma_regularizer: null
      momentum: 0.99
      moving_mean_initializer:
        class_name: Zeros
        config: {}
      moving_variance_initializer:
        class_name: Ones
        config: {}
      name: batch_normalization_49
      scale: false
      trainable: false
    inbound_nodes:
    - - - conv2d_49
        - 0
        - 0
        - {}
    name: batch_normalization_49
  - class_name: BatchNormalization
    config:
      axis: 3
      beta_constraint: null
      beta_initializer:
        class_name: Zeros
        config: {}
      beta_regularizer: null
      center: true
      dtype: float32
      epsilon: 0.001
      gamma_constraint: null
      gamma_initializer:
        class_name: Ones
        config: {}
      gamma_regularizer: null
      momentum: 0.99
      moving_mean_initializer:
        class_name: Zeros
        config: {}
      moving_variance_initializer:
        class_name: Ones
        config: {}
      name: batch_normalization_50
      scale: false
      trainable: false
    inbound_nodes:
    - - - conv2d_50
        - 0
        - 0
        - {}
    name: batch_normalization_50
  - class_name: Activation
    config:
      activation: relu
      dtype: float32
      name: activation_90
      trainable: false
    inbound_nodes:
    - - - batch_normalization_41
        - 0
        - 0
        - {}
    name: activation_90
  - class_name: Activation
    config:
      activation: relu
      dtype: float32
      name: activation_93
      trainable: false
    inbound_nodes:
    - - - batch_normalization_44
        - 0
        - 0
        - {}
    name: activation_93
  - class_name: Activation
    config:
      activation: relu
      dtype: float32
      name: activation_98
      trainable: false
    inbound_nodes:
    - - - batch_normalization_49
        - 0
        - 0
        - {}
    name: activation_98
  - class_name: Activation
    config:
      activation: relu
      dtype: float32
      name: activation_99
      trainable: false
    inbound_nodes:
    - - - batch_normalization_50
        - 0
        - 0
        - {}
    name: activation_99
  - class_name: Concatenate
    config:
      axis: 3
      dtype: float32
      name: mixed5
      trainable: false
    inbound_nodes:
    - - - activation_90
        - 0
        - 0
        - &id008 {}
      - - activation_93
        - 0
        - 0
        - *id008
      - - activation_98
        - 0
        - 0
        - *id008
      - - activation_99
        - 0
        - 0
        - *id008
    name: mixed5
  - class_name: Conv2D
    config:
      activation: linear
      activity_regularizer: null
      bias_constraint: null
      bias_initializer:
        class_name: Zeros
        config: {}
      bias_regularizer: null
      data_format: channels_last
      dilation_rate: *id001
      dtype: float32
      filters: 160
      kernel_constraint: null
      kernel_initializer:
        class_name: VarianceScaling
        config:
          distribution: uniform
          mode: fan_avg
          scale: 1.0
          seed: null
      kernel_regularizer: null
      kernel_size: !!python/tuple
      - 1
      - 1
      name: conv2d_55
      padding: same
      strides: *id002
      trainable: false
      use_bias: false
    inbound_nodes:
    - - - mixed5
        - 0
        - 0
        - {}
    name: conv2d_55
  - class_name: BatchNormalization
    config:
      axis: 3
      beta_constraint: null
      beta_initializer:
        class_name: Zeros
        config: {}
      beta_regularizer: null
      center: true
      dtype: float32
      epsilon: 0.001
      gamma_constraint: null
      gamma_initializer:
        class_name: Ones
        config: {}
      gamma_regularizer: null
      momentum: 0.99
      moving_mean_initializer:
        class_name: Zeros
        config: {}
      moving_variance_initializer:
        class_name: Ones
        config: {}
      name: batch_normalization_55
      scale: false
      trainable: false
    inbound_nodes:
    - - - conv2d_55
        - 0
        - 0
        - {}
    name: batch_normalization_55
  - class_name: Activation
    config:
      activation: relu
      dtype: float32
      name: activation_104
      trainable: false
    inbound_nodes:
    - - - batch_normalization_55
        - 0
        - 0
        - {}
    name: activation_104
  - class_name: Conv2D
    config:
      activation: linear
      activity_regularizer: null
      bias_constraint: null
      bias_initializer:
        class_name: Zeros
        config: {}
      bias_regularizer: null
      data_format: channels_last
      dilation_rate: *id001
      dtype: float32
      filters: 160
      kernel_constraint: null
      kernel_initializer:
        class_name: VarianceScaling
        config:
          distribution: uniform
          mode: fan_avg
          scale: 1.0
          seed: null
      kernel_regularizer: null
      kernel_size: !!python/tuple
      - 7
      - 1
      name: conv2d_56
      padding: same
      strides: *id002
      trainable: false
      use_bias: false
    inbound_nodes:
    - - - activation_104
        - 0
        - 0
        - {}
    name: conv2d_56
  - class_name: BatchNormalization
    config:
      axis: 3
      beta_constraint: null
      beta_initializer:
        class_name: Zeros
        config: {}
      beta_regularizer: null
      center: true
      dtype: float32
      epsilon: 0.001
      gamma_constraint: null
      gamma_initializer:
        class_name: Ones
        config: {}
      gamma_regularizer: null
      momentum: 0.99
      moving_mean_initializer:
        class_name: Zeros
        config: {}
      moving_variance_initializer:
        class_name: Ones
        config: {}
      name: batch_normalization_56
      scale: false
      trainable: false
    inbound_nodes:
    - - - conv2d_56
        - 0
        - 0
        - {}
    name: batch_normalization_56
  - class_name: Activation
    config:
      activation: relu
      dtype: float32
      name: activation_105
      trainable: false
    inbound_nodes:
    - - - batch_normalization_56
        - 0
        - 0
        - {}
    name: activation_105
  - class_name: Conv2D
    config:
      activation: linear
      activity_regularizer: null
      bias_constraint: null
      bias_initializer:
        class_name: Zeros
        config: {}
      bias_regularizer: null
      data_format: channels_last
      dilation_rate: *id001
      dtype: float32
      filters: 160
      kernel_constraint: null
      kernel_initializer:
        class_name: VarianceScaling
        config:
          distribution: uniform
          mode: fan_avg
          scale: 1.0
          seed: null
      kernel_regularizer: null
      kernel_size: !!python/tuple
      - 1
      - 1
      name: conv2d_52
      padding: same
      strides: *id002
      trainable: false
      use_bias: false
    inbound_nodes:
    - - - mixed5
        - 0
        - 0
        - {}
    name: conv2d_52
  - class_name: Conv2D
    config:
      activation: linear
      activity_regularizer: null
      bias_constraint: null
      bias_initializer:
        class_name: Zeros
        config: {}
      bias_regularizer: null
      data_format: channels_last
      dilation_rate: *id001
      dtype: float32
      filters: 160
      kernel_constraint: null
      kernel_initializer:
        class_name: VarianceScaling
        config:
          distribution: uniform
          mode: fan_avg
          scale: 1.0
          seed: null
      kernel_regularizer: null
      kernel_size: !!python/tuple
      - 1
      - 7
      name: conv2d_57
      padding: same
      strides: *id002
      trainable: false
      use_bias: false
    inbound_nodes:
    - - - activation_105
        - 0
        - 0
        - {}
    name: conv2d_57
  - class_name: BatchNormalization
    config:
      axis: 3
      beta_constraint: null
      beta_initializer:
        class_name: Zeros
        config: {}
      beta_regularizer: null
      center: true
      dtype: float32
      epsilon: 0.001
      gamma_constraint: null
      gamma_initializer:
        class_name: Ones
        config: {}
      gamma_regularizer: null
      momentum: 0.99
      moving_mean_initializer:
        class_name: Zeros
        config: {}
      moving_variance_initializer:
        class_name: Ones
        config: {}
      name: batch_normalization_52
      scale: false
      trainable: false
    inbound_nodes:
    - - - conv2d_52
        - 0
        - 0
        - {}
    name: batch_normalization_52
  - class_name: BatchNormalization
    config:
      axis: 3
      beta_constraint: null
      beta_initializer:
        class_name: Zeros
        config: {}
      beta_regularizer: null
      center: true
      dtype: float32
      epsilon: 0.001
      gamma_constraint: null
      gamma_initializer:
        class_name: Ones
        config: {}
      gamma_regularizer: null
      momentum: 0.99
      moving_mean_initializer:
        class_name: Zeros
        config: {}
      moving_variance_initializer:
        class_name: Ones
        config: {}
      name: batch_normalization_57
      scale: false
      trainable: false
    inbound_nodes:
    - - - conv2d_57
        - 0
        - 0
        - {}
    name: batch_normalization_57
  - class_name: Activation
    config:
      activation: relu
      dtype: float32
      name: activation_101
      trainable: false
    inbound_nodes:
    - - - batch_normalization_52
        - 0
        - 0
        - {}
    name: activation_101
  - class_name: Activation
    config:
      activation: relu
      dtype: float32
      name: activation_106
      trainable: false
    inbound_nodes:
    - - - batch_normalization_57
        - 0
        - 0
        - {}
    name: activation_106
  - class_name: Conv2D
    config:
      activation: linear
      activity_regularizer: null
      bias_constraint: null
      bias_initializer:
        class_name: Zeros
        config: {}
      bias_regularizer: null
      data_format: channels_last
      dilation_rate: *id001
      dtype: float32
      filters: 160
      kernel_constraint: null
      kernel_initializer:
        class_name: VarianceScaling
        config:
          distribution: uniform
          mode: fan_avg
          scale: 1.0
          seed: null
      kernel_regularizer: null
      kernel_size: !!python/tuple
      - 1
      - 7
      name: conv2d_53
      padding: same
      strides: *id002
      trainable: false
      use_bias: false
    inbound_nodes:
    - - - activation_101
        - 0
        - 0
        - {}
    name: conv2d_53
  - class_name: Conv2D
    config:
      activation: linear
      activity_regularizer: null
      bias_constraint: null
      bias_initializer:
        class_name: Zeros
        config: {}
      bias_regularizer: null
      data_format: channels_last
      dilation_rate: *id001
      dtype: float32
      filters: 160
      kernel_constraint: null
      kernel_initializer:
        class_name: VarianceScaling
        config:
          distribution: uniform
          mode: fan_avg
          scale: 1.0
          seed: null
      kernel_regularizer: null
      kernel_size: !!python/tuple
      - 7
      - 1
      name: conv2d_58
      padding: same
      strides: *id002
      trainable: false
      use_bias: false
    inbound_nodes:
    - - - activation_106
        - 0
        - 0
        - {}
    name: conv2d_58
  - class_name: BatchNormalization
    config:
      axis: 3
      beta_constraint: null
      beta_initializer:
        class_name: Zeros
        config: {}
      beta_regularizer: null
      center: true
      dtype: float32
      epsilon: 0.001
      gamma_constraint: null
      gamma_initializer:
        class_name: Ones
        config: {}
      gamma_regularizer: null
      momentum: 0.99
      moving_mean_initializer:
        class_name: Zeros
        config: {}
      moving_variance_initializer:
        class_name: Ones
        config: {}
      name: batch_normalization_53
      scale: false
      trainable: false
    inbound_nodes:
    - - - conv2d_53
        - 0
        - 0
        - {}
    name: batch_normalization_53
  - class_name: BatchNormalization
    config:
      axis: 3
      beta_constraint: null
      beta_initializer:
        class_name: Zeros
        config: {}
      beta_regularizer: null
      center: true
      dtype: float32
      epsilon: 0.001
      gamma_constraint: null
      gamma_initializer:
        class_name: Ones
        config: {}
      gamma_regularizer: null
      momentum: 0.99
      moving_mean_initializer:
        class_name: Zeros
        config: {}
      moving_variance_initializer:
        class_name: Ones
        config: {}
      name: batch_normalization_58
      scale: false
      trainable: false
    inbound_nodes:
    - - - conv2d_58
        - 0
        - 0
        - {}
    name: batch_normalization_58
  - class_name: Activation
    config:
      activation: relu
      dtype: float32
      name: activation_102
      trainable: false
    inbound_nodes:
    - - - batch_normalization_53
        - 0
        - 0
        - {}
    name: activation_102
  - class_name: Activation
    config:
      activation: relu
      dtype: float32
      name: activation_107
      trainable: false
    inbound_nodes:
    - - - batch_normalization_58
        - 0
        - 0
        - {}
    name: activation_107
  - class_name: AveragePooling2D
    config:
      data_format: channels_last
      dtype: float32
      name: average_pooling2d_6
      padding: same
      pool_size: *id009
      strides: *id010
      trainable: false
    inbound_nodes:
    - - - mixed5
        - 0
        - 0
        - {}
    name: average_pooling2d_6
  - class_name: Conv2D
    config:
      activation: linear
      activity_regularizer: null
      bias_constraint: null
      bias_initializer:
        class_name: Zeros
        config: {}
      bias_regularizer: null
      data_format: channels_last
      dilation_rate: *id001
      dtype: float32
      filters: 192
      kernel_constraint: null
      kernel_initializer:
        class_name: VarianceScaling
        config:
          distribution: uniform
          mode: fan_avg
          scale: 1.0
          seed: null
      kernel_regularizer: null
      kernel_size: !!python/tuple
      - 1
      - 1
      name: conv2d_51
      padding: same
      strides: *id002
      trainable: false
      use_bias: false
    inbound_nodes:
    - - - mixed5
        - 0
        - 0
        - {}
    name: conv2d_51
  - class_name: Conv2D
    config:
      activation: linear
      activity_regularizer: null
      bias_constraint: null
      bias_initializer:
        class_name: Zeros
        config: {}
      bias_regularizer: null
      data_format: channels_last
      dilation_rate: *id001
      dtype: float32
      filters: 192
      kernel_constraint: null
      kernel_initializer:
        class_name: VarianceScaling
        config:
          distribution: uniform
          mode: fan_avg
          scale: 1.0
          seed: null
      kernel_regularizer: null
      kernel_size: !!python/tuple
      - 7
      - 1
      name: conv2d_54
      padding: same
      strides: *id002
      trainable: false
      use_bias: false
    inbound_nodes:
    - - - activation_102
        - 0
        - 0
        - {}
    name: conv2d_54
  - class_name: Conv2D
    config:
      activation: linear
      activity_regularizer: null
      bias_constraint: null
      bias_initializer:
        class_name: Zeros
        config: {}
      bias_regularizer: null
      data_format: channels_last
      dilation_rate: *id001
      dtype: float32
      filters: 192
      kernel_constraint: null
      kernel_initializer:
        class_name: VarianceScaling
        config:
          distribution: uniform
          mode: fan_avg
          scale: 1.0
          seed: null
      kernel_regularizer: null
      kernel_size: !!python/tuple
      - 1
      - 7
      name: conv2d_59
      padding: same
      strides: *id002
      trainable: false
      use_bias: false
    inbound_nodes:
    - - - activation_107
        - 0
        - 0
        - {}
    name: conv2d_59
  - class_name: Conv2D
    config:
      activation: linear
      activity_regularizer: null
      bias_constraint: null
      bias_initializer:
        class_name: Zeros
        config: {}
      bias_regularizer: null
      data_format: channels_last
      dilation_rate: *id001
      dtype: float32
      filters: 192
      kernel_constraint: null
      kernel_initializer:
        class_name: VarianceScaling
        config:
          distribution: uniform
          mode: fan_avg
          scale: 1.0
          seed: null
      kernel_regularizer: null
      kernel_size: !!python/tuple
      - 1
      - 1
      name: conv2d_60
      padding: same
      strides: *id002
      trainable: false
      use_bias: false
    inbound_nodes:
    - - - average_pooling2d_6
        - 0
        - 0
        - {}
    name: conv2d_60
  - class_name: BatchNormalization
    config:
      axis: 3
      beta_constraint: null
      beta_initializer:
        class_name: Zeros
        config: {}
      beta_regularizer: null
      center: true
      dtype: float32
      epsilon: 0.001
      gamma_constraint: null
      gamma_initializer:
        class_name: Ones
        config: {}
      gamma_regularizer: null
      momentum: 0.99
      moving_mean_initializer:
        class_name: Zeros
        config: {}
      moving_variance_initializer:
        class_name: Ones
        config: {}
      name: batch_normalization_51
      scale: false
      trainable: false
    inbound_nodes:
    - - - conv2d_51
        - 0
        - 0
        - {}
    name: batch_normalization_51
  - class_name: BatchNormalization
    config:
      axis: 3
      beta_constraint: null
      beta_initializer:
        class_name: Zeros
        config: {}
      beta_regularizer: null
      center: true
      dtype: float32
      epsilon: 0.001
      gamma_constraint: null
      gamma_initializer:
        class_name: Ones
        config: {}
      gamma_regularizer: null
      momentum: 0.99
      moving_mean_initializer:
        class_name: Zeros
        config: {}
      moving_variance_initializer:
        class_name: Ones
        config: {}
      name: batch_normalization_54
      scale: false
      trainable: false
    inbound_nodes:
    - - - conv2d_54
        - 0
        - 0
        - {}
    name: batch_normalization_54
  - class_name: BatchNormalization
    config:
      axis: 3
      beta_constraint: null
      beta_initializer:
        class_name: Zeros
        config: {}
      beta_regularizer: null
      center: true
      dtype: float32
      epsilon: 0.001
      gamma_constraint: null
      gamma_initializer:
        class_name: Ones
        config: {}
      gamma_regularizer: null
      momentum: 0.99
      moving_mean_initializer:
        class_name: Zeros
        config: {}
      moving_variance_initializer:
        class_name: Ones
        config: {}
      name: batch_normalization_59
      scale: false
      trainable: false
    inbound_nodes:
    - - - conv2d_59
        - 0
        - 0
        - {}
    name: batch_normalization_59
  - class_name: BatchNormalization
    config:
      axis: 3
      beta_constraint: null
      beta_initializer:
        class_name: Zeros
        config: {}
      beta_regularizer: null
      center: true
      dtype: float32
      epsilon: 0.001
      gamma_constraint: null
      gamma_initializer:
        class_name: Ones
        config: {}
      gamma_regularizer: null
      momentum: 0.99
      moving_mean_initializer:
        class_name: Zeros
        config: {}
      moving_variance_initializer:
        class_name: Ones
        config: {}
      name: batch_normalization_60
      scale: false
      trainable: false
    inbound_nodes:
    - - - conv2d_60
        - 0
        - 0
        - {}
    name: batch_normalization_60
  - class_name: Activation
    config:
      activation: relu
      dtype: float32
      name: activation_100
      trainable: false
    inbound_nodes:
    - - - batch_normalization_51
        - 0
        - 0
        - {}
    name: activation_100
  - class_name: Activation
    config:
      activation: relu
      dtype: float32
      name: activation_103
      trainable: false
    inbound_nodes:
    - - - batch_normalization_54
        - 0
        - 0
        - {}
    name: activation_103
  - class_name: Activation
    config:
      activation: relu
      dtype: float32
      name: activation_108
      trainable: false
    inbound_nodes:
    - - - batch_normalization_59
        - 0
        - 0
        - {}
    name: activation_108
  - class_name: Activation
    config:
      activation: relu
      dtype: float32
      name: activation_109
      trainable: false
    inbound_nodes:
    - - - batch_normalization_60
        - 0
        - 0
        - {}
    name: activation_109
  - class_name: Concatenate
    config:
      axis: 3
      dtype: float32
      name: mixed6
      trainable: false
    inbound_nodes:
    - - - activation_100
        - 0
        - 0
        - &id011 {}
      - - activation_103
        - 0
        - 0
        - *id011
      - - activation_108
        - 0
        - 0
        - *id011
      - - activation_109
        - 0
        - 0
        - *id011
    name: mixed6
  - class_name: Conv2D
    config:
      activation: linear
      activity_regularizer: null
      bias_constraint: null
      bias_initializer:
        class_name: Zeros
        config: {}
      bias_regularizer: null
      data_format: channels_last
      dilation_rate: *id001
      dtype: float32
      filters: 192
      kernel_constraint: null
      kernel_initializer:
        class_name: VarianceScaling
        config:
          distribution: uniform
          mode: fan_avg
          scale: 1.0
          seed: null
      kernel_regularizer: null
      kernel_size: !!python/tuple
      - 1
      - 1
      name: conv2d_65
      padding: same
      strides: *id002
      trainable: false
      use_bias: false
    inbound_nodes:
    - - - mixed6
        - 0
        - 0
        - {}
    name: conv2d_65
  - class_name: BatchNormalization
    config:
      axis: 3
      beta_constraint: null
      beta_initializer:
        class_name: Zeros
        config: {}
      beta_regularizer: null
      center: true
      dtype: float32
      epsilon: 0.001
      gamma_constraint: null
      gamma_initializer:
        class_name: Ones
        config: {}
      gamma_regularizer: null
      momentum: 0.99
      moving_mean_initializer:
        class_name: Zeros
        config: {}
      moving_variance_initializer:
        class_name: Ones
        config: {}
      name: batch_normalization_65
      scale: false
      trainable: false
    inbound_nodes:
    - - - conv2d_65
        - 0
        - 0
        - {}
    name: batch_normalization_65
  - class_name: Activation
    config:
      activation: relu
      dtype: float32
      name: activation_114
      trainable: false
    inbound_nodes:
    - - - batch_normalization_65
        - 0
        - 0
        - {}
    name: activation_114
  - class_name: Conv2D
    config:
      activation: linear
      activity_regularizer: null
      bias_constraint: null
      bias_initializer:
        class_name: Zeros
        config: {}
      bias_regularizer: null
      data_format: channels_last
      dilation_rate: *id001
      dtype: float32
      filters: 192
      kernel_constraint: null
      kernel_initializer:
        class_name: VarianceScaling
        config:
          distribution: uniform
          mode: fan_avg
          scale: 1.0
          seed: null
      kernel_regularizer: null
      kernel_size: !!python/tuple
      - 7
      - 1
      name: conv2d_66
      padding: same
      strides: *id002
      trainable: false
      use_bias: false
    inbound_nodes:
    - - - activation_114
        - 0
        - 0
        - {}
    name: conv2d_66
  - class_name: BatchNormalization
    config:
      axis: 3
      beta_constraint: null
      beta_initializer:
        class_name: Zeros
        config: {}
      beta_regularizer: null
      center: true
      dtype: float32
      epsilon: 0.001
      gamma_constraint: null
      gamma_initializer:
        class_name: Ones
        config: {}
      gamma_regularizer: null
      momentum: 0.99
      moving_mean_initializer:
        class_name: Zeros
        config: {}
      moving_variance_initializer:
        class_name: Ones
        config: {}
      name: batch_normalization_66
      scale: false
      trainable: false
    inbound_nodes:
    - - - conv2d_66
        - 0
        - 0
        - {}
    name: batch_normalization_66
  - class_name: Activation
    config:
      activation: relu
      dtype: float32
      name: activation_115
      trainable: false
    inbound_nodes:
    - - - batch_normalization_66
        - 0
        - 0
        - {}
    name: activation_115
  - class_name: Conv2D
    config:
      activation: linear
      activity_regularizer: null
      bias_constraint: null
      bias_initializer:
        class_name: Zeros
        config: {}
      bias_regularizer: null
      data_format: channels_last
      dilation_rate: *id001
      dtype: float32
      filters: 192
      kernel_constraint: null
      kernel_initializer:
        class_name: VarianceScaling
        config:
          distribution: uniform
          mode: fan_avg
          scale: 1.0
          seed: null
      kernel_regularizer: null
      kernel_size: !!python/tuple
      - 1
      - 1
      name: conv2d_62
      padding: same
      strides: *id002
      trainable: false
      use_bias: false
    inbound_nodes:
    - - - mixed6
        - 0
        - 0
        - {}
    name: conv2d_62
  - class_name: Conv2D
    config:
      activation: linear
      activity_regularizer: null
      bias_constraint: null
      bias_initializer:
        class_name: Zeros
        config: {}
      bias_regularizer: null
      data_format: channels_last
      dilation_rate: *id001
      dtype: float32
      filters: 192
      kernel_constraint: null
      kernel_initializer:
        class_name: VarianceScaling
        config:
          distribution: uniform
          mode: fan_avg
          scale: 1.0
          seed: null
      kernel_regularizer: null
      kernel_size: !!python/tuple
      - 1
      - 7
      name: conv2d_67
      padding: same
      strides: *id002
      trainable: false
      use_bias: false
    inbound_nodes:
    - - - activation_115
        - 0
        - 0
        - {}
    name: conv2d_67
  - class_name: BatchNormalization
    config:
      axis: 3
      beta_constraint: null
      beta_initializer:
        class_name: Zeros
        config: {}
      beta_regularizer: null
      center: true
      dtype: float32
      epsilon: 0.001
      gamma_constraint: null
      gamma_initializer:
        class_name: Ones
        config: {}
      gamma_regularizer: null
      momentum: 0.99
      moving_mean_initializer:
        class_name: Zeros
        config: {}
      moving_variance_initializer:
        class_name: Ones
        config: {}
      name: batch_normalization_62
      scale: false
      trainable: false
    inbound_nodes:
    - - - conv2d_62
        - 0
        - 0
        - {}
    name: batch_normalization_62
  - class_name: BatchNormalization
    config:
      axis: 3
      beta_constraint: null
      beta_initializer:
        class_name: Zeros
        config: {}
      beta_regularizer: null
      center: true
      dtype: float32
      epsilon: 0.001
      gamma_constraint: null
      gamma_initializer:
        class_name: Ones
        config: {}
      gamma_regularizer: null
      momentum: 0.99
      moving_mean_initializer:
        class_name: Zeros
        config: {}
      moving_variance_initializer:
        class_name: Ones
        config: {}
      name: batch_normalization_67
      scale: false
      trainable: false
    inbound_nodes:
    - - - conv2d_67
        - 0
        - 0
        - {}
    name: batch_normalization_67
  - class_name: Activation
    config:
      activation: relu
      dtype: float32
      name: activation_111
      trainable: false
    inbound_nodes:
    - - - batch_normalization_62
        - 0
        - 0
        - {}
    name: activation_111
  - class_name: Activation
    config:
      activation: relu
      dtype: float32
      name: activation_116
      trainable: false
    inbound_nodes:
    - - - batch_normalization_67
        - 0
        - 0
        - {}
    name: activation_116
  - class_name: Conv2D
    config:
      activation: linear
      activity_regularizer: null
      bias_constraint: null
      bias_initializer:
        class_name: Zeros
        config: {}
      bias_regularizer: null
      data_format: channels_last
      dilation_rate: *id001
      dtype: float32
      filters: 192
      kernel_constraint: null
      kernel_initializer:
        class_name: VarianceScaling
        config:
          distribution: uniform
          mode: fan_avg
          scale: 1.0
          seed: null
      kernel_regularizer: null
      kernel_size: !!python/tuple
      - 1
      - 7
      name: conv2d_63
      padding: same
      strides: *id002
      trainable: false
      use_bias: false
    inbound_nodes:
    - - - activation_111
        - 0
        - 0
        - {}
    name: conv2d_63
  - class_name: Conv2D
    config:
      activation: linear
      activity_regularizer: null
      bias_constraint: null
      bias_initializer:
        class_name: Zeros
        config: {}
      bias_regularizer: null
      data_format: channels_last
      dilation_rate: *id001
      dtype: float32
      filters: 192
      kernel_constraint: null
      kernel_initializer:
        class_name: VarianceScaling
        config:
          distribution: uniform
          mode: fan_avg
          scale: 1.0
          seed: null
      kernel_regularizer: null
      kernel_size: !!python/tuple
      - 7
      - 1
      name: conv2d_68
      padding: same
      strides: *id002
      trainable: false
      use_bias: false
    inbound_nodes:
    - - - activation_116
        - 0
        - 0
        - {}
    name: conv2d_68
  - class_name: BatchNormalization
    config:
      axis: 3
      beta_constraint: null
      beta_initializer:
        class_name: Zeros
        config: {}
      beta_regularizer: null
      center: true
      dtype: float32
      epsilon: 0.001
      gamma_constraint: null
      gamma_initializer:
        class_name: Ones
        config: {}
      gamma_regularizer: null
      momentum: 0.99
      moving_mean_initializer:
        class_name: Zeros
        config: {}
      moving_variance_initializer:
        class_name: Ones
        config: {}
      name: batch_normalization_63
      scale: false
      trainable: false
    inbound_nodes:
    - - - conv2d_63
        - 0
        - 0
        - {}
    name: batch_normalization_63
  - class_name: BatchNormalization
    config:
      axis: 3
      beta_constraint: null
      beta_initializer:
        class_name: Zeros
        config: {}
      beta_regularizer: null
      center: true
      dtype: float32
      epsilon: 0.001
      gamma_constraint: null
      gamma_initializer:
        class_name: Ones
        config: {}
      gamma_regularizer: null
      momentum: 0.99
      moving_mean_initializer:
        class_name: Zeros
        config: {}
      moving_variance_initializer:
        class_name: Ones
        config: {}
      name: batch_normalization_68
      scale: false
      trainable: false
    inbound_nodes:
    - - - conv2d_68
        - 0
        - 0
        - {}
    name: batch_normalization_68
  - class_name: Activation
    config:
      activation: relu
      dtype: float32
      name: activation_112
      trainable: false
    inbound_nodes:
    - - - batch_normalization_63
        - 0
        - 0
        - {}
    name: activation_112
  - class_name: Activation
    config:
      activation: relu
      dtype: float32
      name: activation_117
      trainable: false
    inbound_nodes:
    - - - batch_normalization_68
        - 0
        - 0
        - {}
    name: activation_117
  - class_name: AveragePooling2D
    config:
      data_format: channels_last
      dtype: float32
      name: average_pooling2d_7
      padding: same
      pool_size: !!python/tuple
      - 3
      - 3
      strides: !!python/tuple
      - 1
      - 1
      trainable: false
    inbound_nodes:
    - - - mixed6
        - 0
        - 0
        - {}
    name: average_pooling2d_7
  - class_name: Conv2D
    config:
      activation: linear
      activity_regularizer: null
      bias_constraint: null
      bias_initializer:
        class_name: Zeros
        config: {}
      bias_regularizer: null
      data_format: channels_last
      dilation_rate: *id001
      dtype: float32
      filters: 192
      kernel_constraint: null
      kernel_initializer:
        class_name: VarianceScaling
        config:
          distribution: uniform
          mode: fan_avg
          scale: 1.0
          seed: null
      kernel_regularizer: null
      kernel_size: !!python/tuple
      - 1
      - 1
      name: conv2d_61
      padding: same
      strides: *id002
      trainable: false
      use_bias: false
    inbound_nodes:
    - - - mixed6
        - 0
        - 0
        - {}
    name: conv2d_61
  - class_name: Conv2D
    config:
      activation: linear
      activity_regularizer: null
      bias_constraint: null
      bias_initializer:
        class_name: Zeros
        config: {}
      bias_regularizer: null
      data_format: channels_last
      dilation_rate: *id001
      dtype: float32
      filters: 192
      kernel_constraint: null
      kernel_initializer:
        class_name: VarianceScaling
        config:
          distribution: uniform
          mode: fan_avg
          scale: 1.0
          seed: null
      kernel_regularizer: null
      kernel_size: !!python/tuple
      - 7
      - 1
      name: conv2d_64
      padding: same
      strides: *id002
      trainable: false
      use_bias: false
    inbound_nodes:
    - - - activation_112
        - 0
        - 0
        - {}
    name: conv2d_64
  - class_name: Conv2D
    config:
      activation: linear
      activity_regularizer: null
      bias_constraint: null
      bias_initializer:
        class_name: Zeros
        config: {}
      bias_regularizer: null
      data_format: channels_last
      dilation_rate: *id001
      dtype: float32
      filters: 192
      kernel_constraint: null
      kernel_initializer:
        class_name: VarianceScaling
        config:
          distribution: uniform
          mode: fan_avg
          scale: 1.0
          seed: null
      kernel_regularizer: null
      kernel_size: !!python/tuple
      - 1
      - 7
      name: conv2d_69
      padding: same
      strides: *id002
      trainable: false
      use_bias: false
    inbound_nodes:
    - - - activation_117
        - 0
        - 0
        - {}
    name: conv2d_69
  - class_name: Conv2D
    config:
      activation: linear
      activity_regularizer: null
      bias_constraint: null
      bias_initializer:
        class_name: Zeros
        config: {}
      bias_regularizer: null
      data_format: channels_last
      dilation_rate: *id001
      dtype: float32
      filters: 192
      kernel_constraint: null
      kernel_initializer:
        class_name: VarianceScaling
        config:
          distribution: uniform
          mode: fan_avg
          scale: 1.0
          seed: null
      kernel_regularizer: null
      kernel_size: !!python/tuple
      - 1
      - 1
      name: conv2d_70
      padding: same
      strides: *id002
      trainable: false
      use_bias: false
    inbound_nodes:
    - - - average_pooling2d_7
        - 0
        - 0
        - {}
    name: conv2d_70
  - class_name: BatchNormalization
    config:
      axis: 3
      beta_constraint: null
      beta_initializer:
        class_name: Zeros
        config: {}
      beta_regularizer: null
      center: true
      dtype: float32
      epsilon: 0.001
      gamma_constraint: null
      gamma_initializer:
        class_name: Ones
        config: {}
      gamma_regularizer: null
      momentum: 0.99
      moving_mean_initializer:
        class_name: Zeros
        config: {}
      moving_variance_initializer:
        class_name: Ones
        config: {}
      name: batch_normalization_61
      scale: false
      trainable: false
    inbound_nodes:
    - - - conv2d_61
        - 0
        - 0
        - {}
    name: batch_normalization_61
  - class_name: BatchNormalization
    config:
      axis: 3
      beta_constraint: null
      beta_initializer:
        class_name: Zeros
        config: {}
      beta_regularizer: null
      center: true
      dtype: float32
      epsilon: 0.001
      gamma_constraint: null
      gamma_initializer:
        class_name: Ones
        config: {}
      gamma_regularizer: null
      momentum: 0.99
      moving_mean_initializer:
        class_name: Zeros
        config: {}
      moving_variance_initializer:
        class_name: Ones
        config: {}
      name: batch_normalization_64
      scale: false
      trainable: false
    inbound_nodes:
    - - - conv2d_64
        - 0
        - 0
        - {}
    name: batch_normalization_64
  - class_name: BatchNormalization
    config:
      axis: 3
      beta_constraint: null
      beta_initializer:
        class_name: Zeros
        config: {}
      beta_regularizer: null
      center: true
      dtype: float32
      epsilon: 0.001
      gamma_constraint: null
      gamma_initializer:
        class_name: Ones
        config: {}
      gamma_regularizer: null
      momentum: 0.99
      moving_mean_initializer:
        class_name: Zeros
        config: {}
      moving_variance_initializer:
        class_name: Ones
        config: {}
      name: batch_normalization_69
      scale: false
      trainable: false
    inbound_nodes:
    - - - conv2d_69
        - 0
        - 0
        - {}
    name: batch_normalization_69
  - class_name: BatchNormalization
    config:
      axis: 3
      beta_constraint: null
      beta_initializer:
        class_name: Zeros
        config: {}
      beta_regularizer: null
      center: true
      dtype: float32
      epsilon: 0.001
      gamma_constraint: null
      gamma_initializer:
        class_name: Ones
        config: {}
      gamma_regularizer: null
      momentum: 0.99
      moving_mean_initializer:
        class_name: Zeros
        config: {}
      moving_variance_initializer:
        class_name: Ones
        config: {}
      name: batch_normalization_70
      scale: false
      trainable: false
    inbound_nodes:
    - - - conv2d_70
        - 0
        - 0
        - {}
    name: batch_normalization_70
  - class_name: Activation
    config:
      activation: relu
      dtype: float32
      name: activation_110
      trainable: false
    inbound_nodes:
    - - - batch_normalization_61
        - 0
        - 0
        - {}
    name: activation_110
  - class_name: Activation
    config:
      activation: relu
      dtype: float32
      name: activation_113
      trainable: false
    inbound_nodes:
    - - - batch_normalization_64
        - 0
        - 0
        - {}
    name: activation_113
  - class_name: Activation
    config:
      activation: relu
      dtype: float32
      name: activation_118
      trainable: false
    inbound_nodes:
    - - - batch_normalization_69
        - 0
        - 0
        - {}
    name: activation_118
  - class_name: Activation
    config:
      activation: relu
      dtype: float32
      name: activation_119
      trainable: false
    inbound_nodes:
    - - - batch_normalization_70
        - 0
        - 0
        - {}
    name: activation_119
  - class_name: Concatenate
    config:
      axis: 3
      dtype: float32
      name: mixed7
      trainable: false
    inbound_nodes:
    - - - activation_110
        - 0
        - 0
        - &id012 {}
      - - activation_113
        - 0
        - 0
        - *id012
      - - activation_118
        - 0
        - 0
        - *id012
      - - activation_119
        - 0
        - 0
        - *id012
    name: mixed7
  - class_name: Conv2D
    config:
      activation: linear
      activity_regularizer: null
      bias_constraint: null
      bias_initializer:
        class_name: Zeros
        config: {}
      bias_regularizer: null
      data_format: channels_last
      dilation_rate: *id001
      dtype: float32
      filters: 192
      kernel_constraint: null
      kernel_initializer:
        class_name: VarianceScaling
        config:
          distribution: uniform
          mode: fan_avg
          scale: 1.0
          seed: null
      kernel_regularizer: null
      kernel_size: !!python/tuple
      - 1
      - 1
      name: conv2d_73
      padding: same
      strides: *id002
      trainable: false
      use_bias: false
    inbound_nodes:
    - - - mixed7
        - 0
        - 0
        - {}
    name: conv2d_73
  - class_name: BatchNormalization
    config:
      axis: 3
      beta_constraint: null
      beta_initializer:
        class_name: Zeros
        config: {}
      beta_regularizer: null
      center: true
      dtype: float32
      epsilon: 0.001
      gamma_constraint: null
      gamma_initializer:
        class_name: Ones
        config: {}
      gamma_regularizer: null
      momentum: 0.99
      moving_mean_initializer:
        class_name: Zeros
        config: {}
      moving_variance_initializer:
        class_name: Ones
        config: {}
      name: batch_normalization_73
      scale: false
      trainable: false
    inbound_nodes:
    - - - conv2d_73
        - 0
        - 0
        - {}
    name: batch_normalization_73
  - class_name: Activation
    config:
      activation: relu
      dtype: float32
      name: activation_122
      trainable: false
    inbound_nodes:
    - - - batch_normalization_73
        - 0
        - 0
        - {}
    name: activation_122
  - class_name: Conv2D
    config:
      activation: linear
      activity_regularizer: null
      bias_constraint: null
      bias_initializer:
        class_name: Zeros
        config: {}
      bias_regularizer: null
      data_format: channels_last
      dilation_rate: *id001
      dtype: float32
      filters: 192
      kernel_constraint: null
      kernel_initializer:
        class_name: VarianceScaling
        config:
          distribution: uniform
          mode: fan_avg
          scale: 1.0
          seed: null
      kernel_regularizer: null
      kernel_size: !!python/tuple
      - 1
      - 7
      name: conv2d_74
      padding: same
      strides: *id002
      trainable: false
      use_bias: false
    inbound_nodes:
    - - - activation_122
        - 0
        - 0
        - {}
    name: conv2d_74
  - class_name: BatchNormalization
    config:
      axis: 3
      beta_constraint: null
      beta_initializer:
        class_name: Zeros
        config: {}
      beta_regularizer: null
      center: true
      dtype: float32
      epsilon: 0.001
      gamma_constraint: null
      gamma_initializer:
        class_name: Ones
        config: {}
      gamma_regularizer: null
      momentum: 0.99
      moving_mean_initializer:
        class_name: Zeros
        config: {}
      moving_variance_initializer:
        class_name: Ones
        config: {}
      name: batch_normalization_74
      scale: false
      trainable: false
    inbound_nodes:
    - - - conv2d_74
        - 0
        - 0
        - {}
    name: batch_normalization_74
  - class_name: Activation
    config:
      activation: relu
      dtype: float32
      name: activation_123
      trainable: false
    inbound_nodes:
    - - - batch_normalization_74
        - 0
        - 0
        - {}
    name: activation_123
  - class_name: Conv2D
    config:
      activation: linear
      activity_regularizer: null
      bias_constraint: null
      bias_initializer:
        class_name: Zeros
        config: {}
      bias_regularizer: null
      data_format: channels_last
      dilation_rate: *id001
      dtype: float32
      filters: 192
      kernel_constraint: null
      kernel_initializer:
        class_name: VarianceScaling
        config:
          distribution: uniform
          mode: fan_avg
          scale: 1.0
          seed: null
      kernel_regularizer: null
      kernel_size: !!python/tuple
      - 1
      - 1
      name: conv2d_71
      padding: same
      strides: *id002
      trainable: false
      use_bias: false
    inbound_nodes:
    - - - mixed7
        - 0
        - 0
        - {}
    name: conv2d_71
  - class_name: Conv2D
    config:
      activation: linear
      activity_regularizer: null
      bias_constraint: null
      bias_initializer:
        class_name: Zeros
        config: {}
      bias_regularizer: null
      data_format: channels_last
      dilation_rate: *id001
      dtype: float32
      filters: 192
      kernel_constraint: null
      kernel_initializer:
        class_name: VarianceScaling
        config:
          distribution: uniform
          mode: fan_avg
          scale: 1.0
          seed: null
      kernel_regularizer: null
      kernel_size: !!python/tuple
      - 7
      - 1
      name: conv2d_75
      padding: same
      strides: *id002
      trainable: false
      use_bias: false
    inbound_nodes:
    - - - activation_123
        - 0
        - 0
        - {}
    name: conv2d_75
  - class_name: BatchNormalization
    config:
      axis: 3
      beta_constraint: null
      beta_initializer:
        class_name: Zeros
        config: {}
      beta_regularizer: null
      center: true
      dtype: float32
      epsilon: 0.001
      gamma_constraint: null
      gamma_initializer:
        class_name: Ones
        config: {}
      gamma_regularizer: null
      momentum: 0.99
      moving_mean_initializer:
        class_name: Zeros
        config: {}
      moving_variance_initializer:
        class_name: Ones
        config: {}
      name: batch_normalization_71
      scale: false
      trainable: false
    inbound_nodes:
    - - - conv2d_71
        - 0
        - 0
        - {}
    name: batch_normalization_71
  - class_name: BatchNormalization
    config:
      axis: 3
      beta_constraint: null
      beta_initializer:
        class_name: Zeros
        config: {}
      beta_regularizer: null
      center: true
      dtype: float32
      epsilon: 0.001
      gamma_constraint: null
      gamma_initializer:
        class_name: Ones
        config: {}
      gamma_regularizer: null
      momentum: 0.99
      moving_mean_initializer:
        class_name: Zeros
        config: {}
      moving_variance_initializer:
        class_name: Ones
        config: {}
      name: batch_normalization_75
      scale: false
      trainable: false
    inbound_nodes:
    - - - conv2d_75
        - 0
        - 0
        - {}
    name: batch_normalization_75
  - class_name: Activation
    config:
      activation: relu
      dtype: float32
      name: activation_120
      trainable: false
    inbound_nodes:
    - - - batch_normalization_71
        - 0
        - 0
        - {}
    name: activation_120
  - class_name: Activation
    config:
      activation: relu
      dtype: float32
      name: activation_124
      trainable: false
    inbound_nodes:
    - - - batch_normalization_75
        - 0
        - 0
        - {}
    name: activation_124
  - class_name: Conv2D
    config:
      activation: linear
      activity_regularizer: null
      bias_constraint: null
      bias_initializer:
        class_name: Zeros
        config: {}
      bias_regularizer: null
      data_format: channels_last
      dilation_rate: *id001
      dtype: float32
      filters: 320
      kernel_constraint: null
      kernel_initializer:
        class_name: VarianceScaling
        config:
          distribution: uniform
          mode: fan_avg
          scale: 1.0
          seed: null
      kernel_regularizer: null
      kernel_size: !!python/tuple
      - 3
      - 3
      name: conv2d_72
      padding: valid
      strides: !!python/tuple
      - 2
      - 2
      trainable: false
      use_bias: false
    inbound_nodes:
    - - - activation_120
        - 0
        - 0
        - {}
    name: conv2d_72
  - class_name: Conv2D
    config:
      activation: linear
      activity_regularizer: null
      bias_constraint: null
      bias_initializer:
        class_name: Zeros
        config: {}
      bias_regularizer: null
      data_format: channels_last
      dilation_rate: *id001
      dtype: float32
      filters: 192
      kernel_constraint: null
      kernel_initializer:
        class_name: VarianceScaling
        config:
          distribution: uniform
          mode: fan_avg
          scale: 1.0
          seed: null
      kernel_regularizer: null
      kernel_size: !!python/tuple
      - 3
      - 3
      name: conv2d_76
      padding: valid
      strides: !!python/tuple
      - 2
      - 2
      trainable: false
      use_bias: false
    inbound_nodes:
    - - - activation_124
        - 0
        - 0
        - {}
    name: conv2d_76
  - class_name: BatchNormalization
    config:
      axis: 3
      beta_constraint: null
      beta_initializer:
        class_name: Zeros
        config: {}
      beta_regularizer: null
      center: true
      dtype: float32
      epsilon: 0.001
      gamma_constraint: null
      gamma_initializer:
        class_name: Ones
        config: {}
      gamma_regularizer: null
      momentum: 0.99
      moving_mean_initializer:
        class_name: Zeros
        config: {}
      moving_variance_initializer:
        class_name: Ones
        config: {}
      name: batch_normalization_72
      scale: false
      trainable: false
    inbound_nodes:
    - - - conv2d_72
        - 0
        - 0
        - {}
    name: batch_normalization_72
  - class_name: BatchNormalization
    config:
      axis: 3
      beta_constraint: null
      beta_initializer:
        class_name: Zeros
        config: {}
      beta_regularizer: null
      center: true
      dtype: float32
      epsilon: 0.001
      gamma_constraint: null
      gamma_initializer:
        class_name: Ones
        config: {}
      gamma_regularizer: null
      momentum: 0.99
      moving_mean_initializer:
        class_name: Zeros
        config: {}
      moving_variance_initializer:
        class_name: Ones
        config: {}
      name: batch_normalization_76
      scale: false
      trainable: false
    inbound_nodes:
    - - - conv2d_76
        - 0
        - 0
        - {}
    name: batch_normalization_76
  - class_name: Activation
    config:
      activation: relu
      dtype: float32
      name: activation_121
      trainable: false
    inbound_nodes:
    - - - batch_normalization_72
        - 0
        - 0
        - {}
    name: activation_121
  - class_name: Activation
    config:
      activation: relu
      dtype: float32
      name: activation_125
      trainable: false
    inbound_nodes:
    - - - batch_normalization_76
        - 0
        - 0
        - {}
    name: activation_125
  - class_name: MaxPooling2D
    config:
      data_format: channels_last
      dtype: float32
      name: max_pooling2d_5
      padding: valid
      pool_size: !!python/tuple
      - 3
      - 3
      strides: !!python/tuple
      - 2
      - 2
      trainable: false
    inbound_nodes:
    - - - mixed7
        - 0
        - 0
        - {}
    name: max_pooling2d_5
  - class_name: Concatenate
    config:
      axis: 3
      dtype: float32
      name: mixed8
      trainable: false
    inbound_nodes:
    - - - activation_121
        - 0
        - 0
        - &id013 {}
      - - activation_125
        - 0
        - 0
        - *id013
      - - max_pooling2d_5
        - 0
        - 0
        - *id013
    name: mixed8
  - class_name: Conv2D
    config:
      activation: linear
      activity_regularizer: null
      bias_constraint: null
      bias_initializer:
        class_name: Zeros
        config: {}
      bias_regularizer: null
      data_format: channels_last
      dilation_rate: *id001
      dtype: float32
      filters: 448
      kernel_constraint: null
      kernel_initializer:
        class_name: VarianceScaling
        config:
          distribution: uniform
          mode: fan_avg
          scale: 1.0
          seed: null
      kernel_regularizer: null
      kernel_size: !!python/tuple
      - 1
      - 1
      name: conv2d_81
      padding: same
      strides: *id002
      trainable: false
      use_bias: false
    inbound_nodes:
    - - - mixed8
        - 0
        - 0
        - {}
    name: conv2d_81
  - class_name: BatchNormalization
    config:
      axis: 3
      beta_constraint: null
      beta_initializer:
        class_name: Zeros
        config: {}
      beta_regularizer: null
      center: true
      dtype: float32
      epsilon: 0.001
      gamma_constraint: null
      gamma_initializer:
        class_name: Ones
        config: {}
      gamma_regularizer: null
      momentum: 0.99
      moving_mean_initializer:
        class_name: Zeros
        config: {}
      moving_variance_initializer:
        class_name: Ones
        config: {}
      name: batch_normalization_81
      scale: false
      trainable: false
    inbound_nodes:
    - - - conv2d_81
        - 0
        - 0
        - {}
    name: batch_normalization_81
  - class_name: Activation
    config:
      activation: relu
      dtype: float32
      name: activation_130
      trainable: false
    inbound_nodes:
    - - - batch_normalization_81
        - 0
        - 0
        - {}
    name: activation_130
  - class_name: Conv2D
    config:
      activation: linear
      activity_regularizer: null
      bias_constraint: null
      bias_initializer:
        class_name: Zeros
        config: {}
      bias_regularizer: null
      data_format: channels_last
      dilation_rate: *id001
      dtype: float32
      filters: 384
      kernel_constraint: null
      kernel_initializer:
        class_name: VarianceScaling
        config:
          distribution: uniform
          mode: fan_avg
          scale: 1.0
          seed: null
      kernel_regularizer: null
      kernel_size: !!python/tuple
      - 1
      - 1
      name: conv2d_78
      padding: same
      strides: *id002
      trainable: false
      use_bias: false
    inbound_nodes:
    - - - mixed8
        - 0
        - 0
        - {}
    name: conv2d_78
  - class_name: Conv2D
    config:
      activation: linear
      activity_regularizer: null
      bias_constraint: null
      bias_initializer:
        class_name: Zeros
        config: {}
      bias_regularizer: null
      data_format: channels_last
      dilation_rate: *id001
      dtype: float32
      filters: 384
      kernel_constraint: null
      kernel_initializer:
        class_name: VarianceScaling
        config:
          distribution: uniform
          mode: fan_avg
          scale: 1.0
          seed: null
      kernel_regularizer: null
      kernel_size: !!python/tuple
      - 3
      - 3
      name: conv2d_82
      padding: same
      strides: *id002
      trainable: false
      use_bias: false
    inbound_nodes:
    - - - activation_130
        - 0
        - 0
        - {}
    name: conv2d_82
  - class_name: BatchNormalization
    config:
      axis: 3
      beta_constraint: null
      beta_initializer:
        class_name: Zeros
        config: {}
      beta_regularizer: null
      center: true
      dtype: float32
      epsilon: 0.001
      gamma_constraint: null
      gamma_initializer:
        class_name: Ones
        config: {}
      gamma_regularizer: null
      momentum: 0.99
      moving_mean_initializer:
        class_name: Zeros
        config: {}
      moving_variance_initializer:
        class_name: Ones
        config: {}
      name: batch_normalization_78
      scale: false
      trainable: false
    inbound_nodes:
    - - - conv2d_78
        - 0
        - 0
        - {}
    name: batch_normalization_78
  - class_name: BatchNormalization
    config:
      axis: 3
      beta_constraint: null
      beta_initializer:
        class_name: Zeros
        config: {}
      beta_regularizer: null
      center: true
      dtype: float32
      epsilon: 0.001
      gamma_constraint: null
      gamma_initializer:
        class_name: Ones
        config: {}
      gamma_regularizer: null
      momentum: 0.99
      moving_mean_initializer:
        class_name: Zeros
        config: {}
      moving_variance_initializer:
        class_name: Ones
        config: {}
      name: batch_normalization_82
      scale: false
      trainable: false
    inbound_nodes:
    - - - conv2d_82
        - 0
        - 0
        - {}
    name: batch_normalization_82
  - class_name: Activation
    config:
      activation: relu
      dtype: float32
      name: activation_127
      trainable: false
    inbound_nodes:
    - - - batch_normalization_78
        - 0
        - 0
        - {}
    name: activation_127
  - class_name: Activation
    config:
      activation: relu
      dtype: float32
      name: activation_131
      trainable: false
    inbound_nodes:
    - - - batch_normalization_82
        - 0
        - 0
        - {}
    name: activation_131
  - class_name: Conv2D
    config:
      activation: linear
      activity_regularizer: null
      bias_constraint: null
      bias_initializer:
        class_name: Zeros
        config: {}
      bias_regularizer: null
      data_format: channels_last
      dilation_rate: *id001
      dtype: float32
      filters: 384
      kernel_constraint: null
      kernel_initializer:
        class_name: VarianceScaling
        config:
          distribution: uniform
          mode: fan_avg
          scale: 1.0
          seed: null
      kernel_regularizer: null
      kernel_size: !!python/tuple
      - 1
      - 3
      name: conv2d_79
      padding: same
      strides: *id002
      trainable: false
      use_bias: false
    inbound_nodes:
    - - - activation_127
        - 0
        - 0
        - {}
    name: conv2d_79
  - class_name: Conv2D
    config:
      activation: linear
      activity_regularizer: null
      bias_constraint: null
      bias_initializer:
        class_name: Zeros
        config: {}
      bias_regularizer: null
      data_format: channels_last
      dilation_rate: *id001
      dtype: float32
      filters: 384
      kernel_constraint: null
      kernel_initializer:
        class_name: VarianceScaling
        config:
          distribution: uniform
          mode: fan_avg
          scale: 1.0
          seed: null
      kernel_regularizer: null
      kernel_size: !!python/tuple
      - 3
      - 1
      name: conv2d_80
      padding: same
      strides: *id002
      trainable: false
      use_bias: false
    inbound_nodes:
    - - - activation_127
        - 0
        - 0
        - {}
    name: conv2d_80
  - class_name: Conv2D
    config:
      activation: linear
      activity_regularizer: null
      bias_constraint: null
      bias_initializer:
        class_name: Zeros
        config: {}
      bias_regularizer: null
      data_format: channels_last
      dilation_rate: *id001
      dtype: float32
      filters: 384
      kernel_constraint: null
      kernel_initializer:
        class_name: VarianceScaling
        config:
          distribution: uniform
          mode: fan_avg
          scale: 1.0
          seed: null
      kernel_regularizer: null
      kernel_size: !!python/tuple
      - 1
      - 3
      name: conv2d_83
      padding: same
      strides: *id002
      trainable: false
      use_bias: false
    inbound_nodes:
    - - - activation_131
        - 0
        - 0
        - {}
    name: conv2d_83
  - class_name: Conv2D
    config:
      activation: linear
      activity_regularizer: null
      bias_constraint: null
      bias_initializer:
        class_name: Zeros
        config: {}
      bias_regularizer: null
      data_format: channels_last
      dilation_rate: *id001
      dtype: float32
      filters: 384
      kernel_constraint: null
      kernel_initializer:
        class_name: VarianceScaling
        config:
          distribution: uniform
          mode: fan_avg
          scale: 1.0
          seed: null
      kernel_regularizer: null
      kernel_size: !!python/tuple
      - 3
      - 1
      name: conv2d_84
      padding: same
      strides: *id002
      trainable: false
      use_bias: false
    inbound_nodes:
    - - - activation_131
        - 0
        - 0
        - {}
    name: conv2d_84
  - class_name: AveragePooling2D
    config:
      data_format: channels_last
      dtype: float32
      name: average_pooling2d_8
      padding: same
      pool_size: &id017 !!python/tuple
      - 3
      - 3
      strides: &id018 !!python/tuple
      - 1
      - 1
      trainable: false
    inbound_nodes:
    - - - mixed8
        - 0
        - 0
        - {}
    name: average_pooling2d_8
  - class_name: Conv2D
    config:
      activation: linear
      activity_regularizer: null
      bias_constraint: null
      bias_initializer:
        class_name: Zeros
        config: {}
      bias_regularizer: null
      data_format: channels_last
      dilation_rate: *id001
      dtype: float32
      filters: 320
      kernel_constraint: null
      kernel_initializer:
        class_name: VarianceScaling
        config:
          distribution: uniform
          mode: fan_avg
          scale: 1.0
          seed: null
      kernel_regularizer: null
      kernel_size: !!python/tuple
      - 1
      - 1
      name: conv2d_77
      padding: same
      strides: *id002
      trainable: false
      use_bias: false
    inbound_nodes:
    - - - mixed8
        - 0
        - 0
        - {}
    name: conv2d_77
  - class_name: BatchNormalization
    config:
      axis: 3
      beta_constraint: null
      beta_initializer:
        class_name: Zeros
        config: {}
      beta_regularizer: null
      center: true
      dtype: float32
      epsilon: 0.001
      gamma_constraint: null
      gamma_initializer:
        class_name: Ones
        config: {}
      gamma_regularizer: null
      momentum: 0.99
      moving_mean_initializer:
        class_name: Zeros
        config: {}
      moving_variance_initializer:
        class_name: Ones
        config: {}
      name: batch_normalization_79
      scale: false
      trainable: false
    inbound_nodes:
    - - - conv2d_79
        - 0
        - 0
        - {}
    name: batch_normalization_79
  - class_name: BatchNormalization
    config:
      axis: 3
      beta_constraint: null
      beta_initializer:
        class_name: Zeros
        config: {}
      beta_regularizer: null
      center: true
      dtype: float32
      epsilon: 0.001
      gamma_constraint: null
      gamma_initializer:
        class_name: Ones
        config: {}
      gamma_regularizer: null
      momentum: 0.99
      moving_mean_initializer:
        class_name: Zeros
        config: {}
      moving_variance_initializer:
        class_name: Ones
        config: {}
      name: batch_normalization_80
      scale: false
      trainable: false
    inbound_nodes:
    - - - conv2d_80
        - 0
        - 0
        - {}
    name: batch_normalization_80
  - class_name: BatchNormalization
    config:
      axis: 3
      beta_constraint: null
      beta_initializer:
        class_name: Zeros
        config: {}
      beta_regularizer: null
      center: true
      dtype: float32
      epsilon: 0.001
      gamma_constraint: null
      gamma_initializer:
        class_name: Ones
        config: {}
      gamma_regularizer: null
      momentum: 0.99
      moving_mean_initializer:
        class_name: Zeros
        config: {}
      moving_variance_initializer:
        class_name: Ones
        config: {}
      name: batch_normalization_83
      scale: false
      trainable: false
    inbound_nodes:
    - - - conv2d_83
        - 0
        - 0
        - {}
    name: batch_normalization_83
  - class_name: BatchNormalization
    config:
      axis: 3
      beta_constraint: null
      beta_initializer:
        class_name: Zeros
        config: {}
      beta_regularizer: null
      center: true
      dtype: float32
      epsilon: 0.001
      gamma_constraint: null
      gamma_initializer:
        class_name: Ones
        config: {}
      gamma_regularizer: null
      momentum: 0.99
      moving_mean_initializer:
        class_name: Zeros
        config: {}
      moving_variance_initializer:
        class_name: Ones
        config: {}
      name: batch_normalization_84
      scale: false
      trainable: false
    inbound_nodes:
    - - - conv2d_84
        - 0
        - 0
        - {}
    name: batch_normalization_84
  - class_name: Conv2D
    config:
      activation: linear
      activity_regularizer: null
      bias_constraint: null
      bias_initializer:
        class_name: Zeros
        config: {}
      bias_regularizer: null
      data_format: channels_last
      dilation_rate: *id001
      dtype: float32
      filters: 192
      kernel_constraint: null
      kernel_initializer:
        class_name: VarianceScaling
        config:
          distribution: uniform
          mode: fan_avg
          scale: 1.0
          seed: null
      kernel_regularizer: null
      kernel_size: !!python/tuple
      - 1
      - 1
      name: conv2d_85
      padding: same
      strides: *id002
      trainable: false
      use_bias: false
    inbound_nodes:
    - - - average_pooling2d_8
        - 0
        - 0
        - {}
    name: conv2d_85
  - class_name: BatchNormalization
    config:
      axis: 3
      beta_constraint: null
      beta_initializer:
        class_name: Zeros
        config: {}
      beta_regularizer: null
      center: true
      dtype: float32
      epsilon: 0.001
      gamma_constraint: null
      gamma_initializer:
        class_name: Ones
        config: {}
      gamma_regularizer: null
      momentum: 0.99
      moving_mean_initializer:
        class_name: Zeros
        config: {}
      moving_variance_initializer:
        class_name: Ones
        config: {}
      name: batch_normalization_77
      scale: false
      trainable: false
    inbound_nodes:
    - - - conv2d_77
        - 0
        - 0
        - {}
    name: batch_normalization_77
  - class_name: Activation
    config:
      activation: relu
      dtype: float32
      name: activation_128
      trainable: false
    inbound_nodes:
    - - - batch_normalization_79
        - 0
        - 0
        - {}
    name: activation_128
  - class_name: Activation
    config:
      activation: relu
      dtype: float32
      name: activation_129
      trainable: false
    inbound_nodes:
    - - - batch_normalization_80
        - 0
        - 0
        - {}
    name: activation_129
  - class_name: Activation
    config:
      activation: relu
      dtype: float32
      name: activation_132
      trainable: false
    inbound_nodes:
    - - - batch_normalization_83
        - 0
        - 0
        - {}
    name: activation_132
  - class_name: Activation
    config:
      activation: relu
      dtype: float32
      name: activation_133
      trainable: false
    inbound_nodes:
    - - - batch_normalization_84
        - 0
        - 0
        - {}
    name: activation_133
  - class_name: BatchNormalization
    config:
      axis: 3
      beta_constraint: null
      beta_initializer:
        class_name: Zeros
        config: {}
      beta_regularizer: null
      center: true
      dtype: float32
      epsilon: 0.001
      gamma_constraint: null
      gamma_initializer:
        class_name: Ones
        config: {}
      gamma_regularizer: null
      momentum: 0.99
      moving_mean_initializer:
        class_name: Zeros
        config: {}
      moving_variance_initializer:
        class_name: Ones
        config: {}
      name: batch_normalization_85
      scale: false
      trainable: false
    inbound_nodes:
    - - - conv2d_85
        - 0
        - 0
        - {}
    name: batch_normalization_85
  - class_name: Activation
    config:
      activation: relu
      dtype: float32
      name: activation_126
      trainable: false
    inbound_nodes:
    - - - batch_normalization_77
        - 0
        - 0
        - {}
    name: activation_126
  - class_name: Concatenate
    config:
      axis: 3
      dtype: float32
      name: mixed9_0
      trainable: false
    inbound_nodes:
    - - - activation_128
        - 0
        - 0
        - &id014 {}
      - - activation_129
        - 0
        - 0
        - *id014
    name: mixed9_0
  - class_name: Concatenate
    config:
      axis: 3
      dtype: float32
      name: concatenate_1
      trainable: false
    inbound_nodes:
    - - - activation_132
        - 0
        - 0
        - &id015 {}
      - - activation_133
        - 0
        - 0
        - *id015
    name: concatenate_1
  - class_name: Activation
    config:
      activation: relu
      dtype: float32
      name: activation_134
      trainable: false
    inbound_nodes:
    - - - batch_normalization_85
        - 0
        - 0
        - {}
    name: activation_134
  - class_name: Concatenate
    config:
      axis: 3
      dtype: float32
      name: mixed9
      trainable: false
    inbound_nodes:
    - - - activation_126
        - 0
        - 0
        - &id016 {}
      - - mixed9_0
        - 0
        - 0
        - *id016
      - - concatenate_1
        - 0
        - 0
        - *id016
      - - activation_134
        - 0
        - 0
        - *id016
    name: mixed9
  - class_name: Conv2D
    config:
      activation: linear
      activity_regularizer: null
      bias_constraint: null
      bias_initializer:
        class_name: Zeros
        config: {}
      bias_regularizer: null
      data_format: channels_last
      dilation_rate: *id001
      dtype: float32
      filters: 448
      kernel_constraint: null
      kernel_initializer:
        class_name: VarianceScaling
        config:
          distribution: uniform
          mode: fan_avg
          scale: 1.0
          seed: null
      kernel_regularizer: null
      kernel_size: !!python/tuple
      - 1
      - 1
      name: conv2d_90
      padding: same
      strides: *id002
      trainable: false
      use_bias: false
    inbound_nodes:
    - - - mixed9
        - 0
        - 0
        - {}
    name: conv2d_90
  - class_name: BatchNormalization
    config:
      axis: 3
      beta_constraint: null
      beta_initializer:
        class_name: Zeros
        config: {}
      beta_regularizer: null
      center: true
      dtype: float32
      epsilon: 0.001
      gamma_constraint: null
      gamma_initializer:
        class_name: Ones
        config: {}
      gamma_regularizer: null
      momentum: 0.99
      moving_mean_initializer:
        class_name: Zeros
        config: {}
      moving_variance_initializer:
        class_name: Ones
        config: {}
      name: batch_normalization_90
      scale: false
      trainable: false
    inbound_nodes:
    - - - conv2d_90
        - 0
        - 0
        - {}
    name: batch_normalization_90
  - class_name: Activation
    config:
      activation: relu
      dtype: float32
      name: activation_139
      trainable: false
    inbound_nodes:
    - - - batch_normalization_90
        - 0
        - 0
        - {}
    name: activation_139
  - class_name: Conv2D
    config:
      activation: linear
      activity_regularizer: null
      bias_constraint: null
      bias_initializer:
        class_name: Zeros
        config: {}
      bias_regularizer: null
      data_format: channels_last
      dilation_rate: *id001
      dtype: float32
      filters: 384
      kernel_constraint: null
      kernel_initializer:
        class_name: VarianceScaling
        config:
          distribution: uniform
          mode: fan_avg
          scale: 1.0
          seed: null
      kernel_regularizer: null
      kernel_size: !!python/tuple
      - 1
      - 1
      name: conv2d_87
      padding: same
      strides: *id002
      trainable: false
      use_bias: false
    inbound_nodes:
    - - - mixed9
        - 0
        - 0
        - {}
    name: conv2d_87
  - class_name: Conv2D
    config:
      activation: linear
      activity_regularizer: null
      bias_constraint: null
      bias_initializer:
        class_name: Zeros
        config: {}
      bias_regularizer: null
      data_format: channels_last
      dilation_rate: *id001
      dtype: float32
      filters: 384
      kernel_constraint: null
      kernel_initializer:
        class_name: VarianceScaling
        config:
          distribution: uniform
          mode: fan_avg
          scale: 1.0
          seed: null
      kernel_regularizer: null
      kernel_size: !!python/tuple
      - 3
      - 3
      name: conv2d_91
      padding: same
      strides: *id002
      trainable: false
      use_bias: false
    inbound_nodes:
    - - - activation_139
        - 0
        - 0
        - {}
    name: conv2d_91
  - class_name: BatchNormalization
    config:
      axis: 3
      beta_constraint: null
      beta_initializer:
        class_name: Zeros
        config: {}
      beta_regularizer: null
      center: true
      dtype: float32
      epsilon: 0.001
      gamma_constraint: null
      gamma_initializer:
        class_name: Ones
        config: {}
      gamma_regularizer: null
      momentum: 0.99
      moving_mean_initializer:
        class_name: Zeros
        config: {}
      moving_variance_initializer:
        class_name: Ones
        config: {}
      name: batch_normalization_87
      scale: false
      trainable: false
    inbound_nodes:
    - - - conv2d_87
        - 0
        - 0
        - {}
    name: batch_normalization_87
  - class_name: BatchNormalization
    config:
      axis: 3
      beta_constraint: null
      beta_initializer:
        class_name: Zeros
        config: {}
      beta_regularizer: null
      center: true
      dtype: float32
      epsilon: 0.001
      gamma_constraint: null
      gamma_initializer:
        class_name: Ones
        config: {}
      gamma_regularizer: null
      momentum: 0.99
      moving_mean_initializer:
        class_name: Zeros
        config: {}
      moving_variance_initializer:
        class_name: Ones
        config: {}
      name: batch_normalization_91
      scale: false
      trainable: false
    inbound_nodes:
    - - - conv2d_91
        - 0
        - 0
        - {}
    name: batch_normalization_91
  - class_name: Activation
    config:
      activation: relu
      dtype: float32
      name: activation_136
      trainable: false
    inbound_nodes:
    - - - batch_normalization_87
        - 0
        - 0
        - {}
    name: activation_136
  - class_name: Activation
    config:
      activation: relu
      dtype: float32
      name: activation_140
      trainable: false
    inbound_nodes:
    - - - batch_normalization_91
        - 0
        - 0
        - {}
    name: activation_140
  - class_name: Conv2D
    config:
      activation: linear
      activity_regularizer: null
      bias_constraint: null
      bias_initializer:
        class_name: Zeros
        config: {}
      bias_regularizer: null
      data_format: channels_last
      dilation_rate: *id001
      dtype: float32
      filters: 384
      kernel_constraint: null
      kernel_initializer:
        class_name: VarianceScaling
        config:
          distribution: uniform
          mode: fan_avg
          scale: 1.0
          seed: null
      kernel_regularizer: null
      kernel_size: !!python/tuple
      - 1
      - 3
      name: conv2d_88
      padding: same
      strides: *id002
      trainable: false
      use_bias: false
    inbound_nodes:
    - - - activation_136
        - 0
        - 0
        - {}
    name: conv2d_88
  - class_name: Conv2D
    config:
      activation: linear
      activity_regularizer: null
      bias_constraint: null
      bias_initializer:
        class_name: Zeros
        config: {}
      bias_regularizer: null
      data_format: channels_last
      dilation_rate: *id001
      dtype: float32
      filters: 384
      kernel_constraint: null
      kernel_initializer:
        class_name: VarianceScaling
        config:
          distribution: uniform
          mode: fan_avg
          scale: 1.0
          seed: null
      kernel_regularizer: null
      kernel_size: !!python/tuple
      - 3
      - 1
      name: conv2d_89
      padding: same
      strides: *id002
      trainable: false
      use_bias: false
    inbound_nodes:
    - - - activation_136
        - 0
        - 0
        - {}
    name: conv2d_89
  - class_name: Conv2D
    config:
      activation: linear
      activity_regularizer: null
      bias_constraint: null
      bias_initializer:
        class_name: Zeros
        config: {}
      bias_regularizer: null
      data_format: channels_last
      dilation_rate: *id001
      dtype: float32
      filters: 384
      kernel_constraint: null
      kernel_initializer:
        class_name: VarianceScaling
        config:
          distribution: uniform
          mode: fan_avg
          scale: 1.0
          seed: null
      kernel_regularizer: null
      kernel_size: !!python/tuple
      - 1
      - 3
      name: conv2d_92
      padding: same
      strides: *id002
      trainable: false
      use_bias: false
    inbound_nodes:
    - - - activation_140
        - 0
        - 0
        - {}
    name: conv2d_92
  - class_name: Conv2D
    config:
      activation: linear
      activity_regularizer: null
      bias_constraint: null
      bias_initializer:
        class_name: Zeros
        config: {}
      bias_regularizer: null
      data_format: channels_last
      dilation_rate: *id001
      dtype: float32
      filters: 384
      kernel_constraint: null
      kernel_initializer:
        class_name: VarianceScaling
        config:
          distribution: uniform
          mode: fan_avg
          scale: 1.0
          seed: null
      kernel_regularizer: null
      kernel_size: !!python/tuple
      - 3
      - 1
      name: conv2d_93
      padding: same
      strides: *id002
      trainable: false
      use_bias: false
    inbound_nodes:
    - - - activation_140
        - 0
        - 0
        - {}
    name: conv2d_93
  - class_name: AveragePooling2D
    config:
      data_format: channels_last
      dtype: float32
      name: average_pooling2d_9
      padding: same
      pool_size: *id017
      strides: *id018
      trainable: false
    inbound_nodes:
    - - - mixed9
        - 0
        - 0
        - {}
    name: average_pooling2d_9
  - class_name: Conv2D
    config:
      activation: linear
      activity_regularizer: null
      bias_constraint: null
      bias_initializer:
        class_name: Zeros
        config: {}
      bias_regularizer: null
      data_format: channels_last
      dilation_rate: *id001
      dtype: float32
      filters: 320
      kernel_constraint: null
      kernel_initializer:
        class_name: VarianceScaling
        config:
          distribution: uniform
          mode: fan_avg
          scale: 1.0
          seed: null
      kernel_regularizer: null
      kernel_size: !!python/tuple
      - 1
      - 1
      name: conv2d_86
      padding: same
      strides: *id002
      trainable: false
      use_bias: false
    inbound_nodes:
    - - - mixed9
        - 0
        - 0
        - {}
    name: conv2d_86
  - class_name: BatchNormalization
    config:
      axis: 3
      beta_constraint: null
      beta_initializer:
        class_name: Zeros
        config: {}
      beta_regularizer: null
      center: true
      dtype: float32
      epsilon: 0.001
      gamma_constraint: null
      gamma_initializer:
        class_name: Ones
        config: {}
      gamma_regularizer: null
      momentum: 0.99
      moving_mean_initializer:
        class_name: Zeros
        config: {}
      moving_variance_initializer:
        class_name: Ones
        config: {}
      name: batch_normalization_88
      scale: false
      trainable: false
    inbound_nodes:
    - - - conv2d_88
        - 0
        - 0
        - {}
    name: batch_normalization_88
  - class_name: BatchNormalization
    config:
      axis: 3
      beta_constraint: null
      beta_initializer:
        class_name: Zeros
        config: {}
      beta_regularizer: null
      center: true
      dtype: float32
      epsilon: 0.001
      gamma_constraint: null
      gamma_initializer:
        class_name: Ones
        config: {}
      gamma_regularizer: null
      momentum: 0.99
      moving_mean_initializer:
        class_name: Zeros
        config: {}
      moving_variance_initializer:
        class_name: Ones
        config: {}
      name: batch_normalization_89
      scale: false
      trainable: false
    inbound_nodes:
    - - - conv2d_89
        - 0
        - 0
        - {}
    name: batch_normalization_89
  - class_name: BatchNormalization
    config:
      axis: 3
      beta_constraint: null
      beta_initializer:
        class_name: Zeros
        config: {}
      beta_regularizer: null
      center: true
      dtype: float32
      epsilon: 0.001
      gamma_constraint: null
      gamma_initializer:
        class_name: Ones
        config: {}
      gamma_regularizer: null
      momentum: 0.99
      moving_mean_initializer:
        class_name: Zeros
        config: {}
      moving_variance_initializer:
        class_name: Ones
        config: {}
      name: batch_normalization_92
      scale: false
      trainable: false
    inbound_nodes:
    - - - conv2d_92
        - 0
        - 0
        - {}
    name: batch_normalization_92
  - class_name: BatchNormalization
    config:
      axis: 3
      beta_constraint: null
      beta_initializer:
        class_name: Zeros
        config: {}
      beta_regularizer: null
      center: true
      dtype: float32
      epsilon: 0.001
      gamma_constraint: null
      gamma_initializer:
        class_name: Ones
        config: {}
      gamma_regularizer: null
      momentum: 0.99
      moving_mean_initializer:
        class_name: Zeros
        config: {}
      moving_variance_initializer:
        class_name: Ones
        config: {}
      name: batch_normalization_93
      scale: false
      trainable: false
    inbound_nodes:
    - - - conv2d_93
        - 0
        - 0
        - {}
    name: batch_normalization_93
  - class_name: Conv2D
    config:
      activation: linear
      activity_regularizer: null
      bias_constraint: null
      bias_initializer:
        class_name: Zeros
        config: {}
      bias_regularizer: null
      data_format: channels_last
      dilation_rate: *id001
      dtype: float32
      filters: 192
      kernel_constraint: null
      kernel_initializer:
        class_name: VarianceScaling
        config:
          distribution: uniform
          mode: fan_avg
          scale: 1.0
          seed: null
      kernel_regularizer: null
      kernel_size: !!python/tuple
      - 1
      - 1
      name: conv2d_94
      padding: same
      strides: *id002
      trainable: false
      use_bias: false
    inbound_nodes:
    - - - average_pooling2d_9
        - 0
        - 0
        - {}
    name: conv2d_94
  - class_name: BatchNormalization
    config:
      axis: 3
      beta_constraint: null
      beta_initializer:
        class_name: Zeros
        config: {}
      beta_regularizer: null
      center: true
      dtype: float32
      epsilon: 0.001
      gamma_constraint: null
      gamma_initializer:
        class_name: Ones
        config: {}
      gamma_regularizer: null
      momentum: 0.99
      moving_mean_initializer:
        class_name: Zeros
        config: {}
      moving_variance_initializer:
        class_name: Ones
        config: {}
      name: batch_normalization_86
      scale: false
      trainable: false
    inbound_nodes:
    - - - conv2d_86
        - 0
        - 0
        - {}
    name: batch_normalization_86
  - class_name: Activation
    config:
      activation: relu
      dtype: float32
      name: activation_137
      trainable: false
    inbound_nodes:
    - - - batch_normalization_88
        - 0
        - 0
        - {}
    name: activation_137
  - class_name: Activation
    config:
      activation: relu
      dtype: float32
      name: activation_138
      trainable: false
    inbound_nodes:
    - - - batch_normalization_89
        - 0
        - 0
        - {}
    name: activation_138
  - class_name: Activation
    config:
      activation: relu
      dtype: float32
      name: activation_141
      trainable: false
    inbound_nodes:
    - - - batch_normalization_92
        - 0
        - 0
        - {}
    name: activation_141
  - class_name: Activation
    config:
      activation: relu
      dtype: float32
      name: activation_142
      trainable: false
    inbound_nodes:
    - - - batch_normalization_93
        - 0
        - 0
        - {}
    name: activation_142
  - class_name: BatchNormalization
    config:
      axis: 3
      beta_constraint: null
      beta_initializer:
        class_name: Zeros
        config: {}
      beta_regularizer: null
      center: true
      dtype: float32
      epsilon: 0.001
      gamma_constraint: null
      gamma_initializer:
        class_name: Ones
        config: {}
      gamma_regularizer: null
      momentum: 0.99
      moving_mean_initializer:
        class_name: Zeros
        config: {}
      moving_variance_initializer:
        class_name: Ones
        config: {}
      name: batch_normalization_94
      scale: false
      trainable: false
    inbound_nodes:
    - - - conv2d_94
        - 0
        - 0
        - {}
    name: batch_normalization_94
  - class_name: Activation
    config:
      activation: relu
      dtype: float32
      name: activation_135
      trainable: false
    inbound_nodes:
    - - - batch_normalization_86
        - 0
        - 0
        - {}
    name: activation_135
  - class_name: Concatenate
    config:
      axis: 3
      dtype: float32
      name: mixed9_1
      trainable: false
    inbound_nodes:
    - - - activation_137
        - 0
        - 0
        - &id019 {}
      - - activation_138
        - 0
        - 0
        - *id019
    name: mixed9_1
  - class_name: Concatenate
    config:
      axis: 3
      dtype: float32
      name: concatenate_2
      trainable: false
    inbound_nodes:
    - - - activation_141
        - 0
        - 0
        - &id020 {}
      - - activation_142
        - 0
        - 0
        - *id020
    name: concatenate_2
  - class_name: Activation
    config:
      activation: relu
      dtype: float32
      name: activation_143
      trainable: false
    inbound_nodes:
    - - - batch_normalization_94
        - 0
        - 0
        - {}
    name: activation_143
  - class_name: Concatenate
    config:
      axis: 3
      dtype: float32
      name: mixed10
      trainable: false
    inbound_nodes:
    - - - activation_135
        - 0
        - 0
        - &id021 {}
      - - mixed9_1
        - 0
        - 0
        - *id021
      - - concatenate_2
        - 0
        - 0
        - *id021
      - - activation_143
        - 0
        - 0
        - *id021
    name: mixed10
  - class_name: GlobalAveragePooling2D
    config:
      data_format: channels_last
      dtype: float32
      name: avg_pool
      trainable: false
    inbound_nodes:
    - - - mixed10
        - 0
        - 0
        - {}
    name: avg_pool
  - class_name: Dense
    config:
      activation: softmax
      activity_regularizer: null
      bias_constraint: null
      bias_initializer:
        class_name: Zeros
        config: {}
      bias_regularizer: null
      dtype: float32
      kernel_constraint: null
      kernel_initializer:
        class_name: VarianceScaling
        config:
          distribution: uniform
          mode: fan_avg
          scale: 1.0
          seed: null
      kernel_regularizer: null
      name: predictions
      trainable: false
      units: 1000
      use_bias: true
    inbound_nodes:
    - - - avg_pool
        - 0
        - 0
        - {}
    name: predictions
  - class_name: Dropout
    config:
      dtype: float32
      name: dropout_2
      noise_shape: null
      rate: 0.5
      seed: null
      trainable: true
    inbound_nodes:
    - - - predictions
        - 0
        - 0
        - {}
    name: dropout_2
  - class_name: Dense
    config:
      activation: relu
      activity_regularizer: null
      bias_constraint: null
      bias_initializer:
        class_name: Zeros
        config: {}
      bias_regularizer: null
      dtype: float32
      kernel_constraint: null
      kernel_initializer:
        class_name: VarianceScaling
        config:
          distribution: uniform
          mode: fan_avg
          scale: 1.0
          seed: null
      kernel_regularizer: null
      name: dense_3
      trainable: true
      units: 1024
      use_bias: true
    inbound_nodes:
    - - - dropout_2
        - 0
        - 0
        - {}
    name: dense_3
  - class_name: Dropout
    config:
      dtype: float32
      name: dropout_3
      noise_shape: null
      rate: 0.5
      seed: null
      trainable: true
    inbound_nodes:
    - - - dense_3
        - 0
        - 0
        - {}
    name: dropout_3
  - class_name: Dense
    config:
      activation: softmax
      activity_regularizer: null
      bias_constraint: null
      bias_initializer:
        class_name: Zeros
        config: {}
      bias_regularizer: null
      dtype: float32
      kernel_constraint: null
      kernel_initializer:
        class_name: VarianceScaling
        config:
          distribution: uniform
          mode: fan_avg
          scale: 1.0
          seed: null
      kernel_regularizer: null
      name: dense_4
      trainable: true
      units: 4
      use_bias: true
    inbound_nodes:
    - - - dropout_3
        - 0
        - 0
        - {}
    name: dense_4
  name: model_2
  output_layers:
  - - dense_4
    - 0
    - 0
keras_version: 2.3.1
